src/blind_locomotion/share/models/flat_policy_v6.onnx (onnx, 163093 bytes, 8 tensors)

actor.0.weight f4 [128, 45]
0	0x3dcecb79	0.10097403
1	0x3e9bacf8	0.30405402
2	0x3e7722c6	0.24134359
3	0xbef0ec4f	-0.4705529
4	0x3e05b08d	0.1305563
5	0x3d0371b8	0.032090873
6	0xbdb68305	-0.08911709
7	0x3e02c3a7	0.12769948
8	0x3d63df66	0.05563297
9	0x3f823c41	1.0174638
10	0xbe64f504	-0.22359091
11	0x3ded863f	0.11597871
12	0x3f8408aa	1.0315144
13	0xba126d27	-0.0005585723
14	0xbdc520d7	-0.09625404
15	0xbf6990d1	-0.912366
16	0xbf1e0c80	-0.61737823
17	0x3d127779	0.03575847
18	0x3cfaacaf	0.03059992
19	0xbd460f03	-0.04835416
20	0x3e306b75	0.17228492
21	0x3d04ea6e	0.032450132
22	0x3cfcedd4	0.030875124
23	0x3d95cfd7	0.07315033
24	0xbc8faa9d	-0.01753741
25	0xbdb5aae8	-0.088704884
26	0xbd71bf5f	-0.059020396
27	0xbcd8c7a7	-0.02646239
28	0x3d8d1643	0.06889012
29	0x3db90571	0.09034241
30	0xbd3709ec	-0.044687197
31	0xbd191f1f	-0.037383195
32	0x3da5d97d	0.08098123
33	0x3e53ef8f	0.20696853
34	0x3e2bba90	0.16770387
35	0x3e27f93b	0.16403668
36	0x3e5fc3db	0.21852057
37	0x3e169116	0.14703783
38	0xbdf164c2	-0.11786796
39	0x3cae62aa	0.021287281
40	0x3dadc414	0.084846646
41	0x3e823c13	0.25436458
42	0xbe08b421	-0.13349964
43	0xbe6222bf	-0.22083567
44	0xbd983c1b	-0.07433339
45	0x3e63f5ab	0.22261684
46	0x3b42b9db	0.002971283
47	0x3dd513bb	0.10404154
48	0x3eee6dab	0.46568045
49	0xbfb613a6	-1.4224746
50	0x3e0ea2a8	0.13929236
51	0x3d69646c	0.056980535
52	0x3ee9218f	0.45533416
53	0x3e35274a	0.17690769
54	0xbe0bc784	-0.13650328
55	0xbf22a683	-0.63535327
56	0xbe8f73c2	-0.28018004
57	0xbc25996a	-0.010107378
58	0x3f00ce67	0.50314945
59	0x3e329279	0.17438687
60	0xbd3eb47d	-0.046558846
61	0x3d636d22	0.055524
62	0x3f1367e8	0.57580423
63	0xbe92400b	-0.28564486
64	0x3eb6890c	0.35651433
65	0x3e2a5325	0.1663328
66	0x3d229193	0.03968961
67	0x3dd8a813	0.105789326
68	0xbce83573	-0.0283458
69	0x3d563fc7	0.052306917
70	0xbd234c02	-0.03986741
71	0x3e24a4e5	0.16078527
72	0xbcfb7804	-0.030696876
73	0x3ce63187	0.028099788
74	0xbd725595	-0.05916365
75	0x3c200369	0.009766438
76	0xbd0bedca	-0.03416232
77	0x3b87a435	0.004139448
78	0xbdb85c4c	-0.09001979
79	0x3e45f9ee	0.19333622
80	0x3dceddf5	0.10100929
81	0xbd9af712	-0.07566656
82	0x3e8c1b32	0.27364498
83	0xbecd1f53	-0.4006296
84	0xbd055dc9	-0.032560144
85	0x3ca5594f	0.020184187
86	0x3e47a425	0.1949621
87	0x3ee4d5a3	0.44694242
88	0xbda3c053	-0.07995667
89	0xbd1708d9	-0.036873672
90	0x3d3d0a06	0.046152137
91	0x3e4ef7f0	0.20211768
92	0x3ca1ca15	0.01974968
93	0x3c9417bc	0.018077724
94	0xbf6309ca	-0.8868681
95	0x3bfe0f94	0.007753322
96	0xbec50b83	-0.38485345
97	0xbe2b7211	-0.16742732
98	0xbed1faac	-0.4101156
99	0x3ded2ff8	0.11581415
100	0x3efe217f	0.4963493
101	0xbed395ef	-0.41325328
102	0x3e57e321	0.21082737
103	0xbd959634	-0.073040396
104	0x3e66be6f	0.22533582
105	0x3dc54ca4	0.09633759
106	0xbeaff6cc	-0.3436798
107	0x3ea1dea4	0.31615174
108	0xbe1a6c8d	-0.15080471
109	0x3ea101a5	0.31446567
110	0xbce93ad5	-0.028470436
111	0xbd959583	-0.07303908
112	0xbcf3630e	-0.029710319
113	0x3cd2419f	0.025666056
114	0x3cc3777b	0.023860684
115	0xbddb8561	-0.107187994
116	0x3dc91ad7	0.098195724
117	0xbd54153d	-0.051778067
118	0x3d8afcf0	0.06786525
119	0xbdcc8522	-0.099863306
120	0x3d96d60f	0.07365047
121	0xbb59cc00	-0.0033233166
122	0xbcb74a63	-0.022374338
123	0xbcbb0f00	-0.022834301
124	0x3e05ed38	0.13078773
125	0x3d4043b6	0.046939574
126	0x3c16b2c0	0.009197891
127	0x3d52c9b5	0.051461894
128	0x3d1c8ac2	0.038218267
129	0x3bb5f13a	0.005552438
130	0x3c84f0af	0.016228048
131	0x3e18d83b	0.14926235
132	0x3d630b94	0.055430964
133	0xbe9a60f3	-0.3015209
134	0x3d2d3a61	0.042292003
135	0x3d74cd7f	0.05976629
136	0x39989b3a	0.00029107352
137	0xbe150899	-0.14554061
138	0xbdd94ae5	-0.10609988
139	0xbf43f2b3	-0.76542205
140	0x3b32dc45	0.0027291935
141	0xbe817b8a	-0.25289565
142	0x3edc986d	0.43085042
143	0x3d6181ba	0.055055358
144	0xbf0e06f1	-0.5547934
145	0xbee21433	-0.44156036
146	0xbebcd237	-0.3687913
147	0xbeb1d9eb	-0.3473657
148	0x3c35a703	0.011087182
149	0xbea9bcb1	-0.33151773
150	0xbed12fd7	-0.4085681
151	0x3f67cc52	0.90546143
152	0x3eac848f	0.33694884
153	0x3de77fb4	0.11303654
154	0x3da9e4c9	0.082955904
155	0xbd43b52e	-0.04778021
156	0x3ced0fb2	0.028938148
157	0x3dbca3c6	0.09210925
158	0x3e2ec027	0.17065488
159	0xbdf9b816	-0.12193315
160	0x3e0e688e	0.13907072
161	0x3da2bd39	0.079462476
162	0xbdb3c3f3	-0.08777609
163	0xbd94c690	-0.07264435
164	0x3adef619	0.0017010599
165	0xbd036b2c	-0.03208463
166	0xbd5a657d	-0.053319443
167	0xbda86496	-0.0822231
168	0x3db6b714	0.08921638
169	0xbe6dd8a1	-0.23227169
170	0xbd0e0358	-0.034671158
171	0xbe0dfe10	-0.13866448
172	0x3e65ff69	0.22460712
173	0xbcb92f6d	-0.022605622
174	0xbe1874d6	-0.1488832
175	0x3eb9b9aa	0.36274463
176	0xbce59897	-0.028026862
177	0x3d26e88f	0.04074913
178	0xbd7ca5d1	-0.061681572
179	0x3e9f1a5b	0.31074795
180	0x3dc492b4	0.09598294
181	0xbc0a7d04	-0.008452658
182	0xbcd42f88	-0.02590157
183	0x3f02bdfd	0.5107115
184	0xbf2b9c44	-0.6703532
185	0x3ddec7cc	0.10877952
186	0xbda08190	-0.07837212
187	0x3e0ce3a3	0.13758712
188	0x3dc2e73e	0.09516762
189	0x3e7e667a	0.24843779
190	0x3d6d9b3c	0.05800937
191	0xbeba1529	-0.3634427
192	0xbda10dfa	-0.07863994
193	0xbe03fd9d	-0.12889715
194	0x3de880a2	0.1135266
195	0x3f1d4ea0	0.614481
196	0x3ea3fde9	0.32029656
197	0x3cb16fc7	0.021659745
198	0xbe09b58a	-0.13448158
199	0x3f109cd9	0.5648933
200	0x3e91a3c8	0.28445268
201	0xbd1b2495	-0.037876684
202	0xbdd08800	-0.1018219
203	0x3e1de255	0.1541837
204	0x3d4ad053	0.04951508
205	0xbca73367	-0.020410253
206	0x3d74be83	0.059752
207	0xbb5de61e	-0.0033859084
208	0xbd3891b7	-0.04506084
209	0x3d1dacfd	0.038495053
210	0xbdb7a8f7	-0.08967774
211	0x3e10e5d3	0.14150171
212	0x3da274f1	0.07932461
213	0xbe68a59e	-0.22719428
214	0xbe35c400	-0.1775055
215	0xbc9209db	-0.017826965
216	0x3d5abd89	0.05340341
217	0xbd691ca2	-0.056912072
218	0xbe452100	-0.1925087
219	0x3d1f076f	0.03882545
220	0x3d36c9df	0.044626113
221	0x3ced0fc3	0.02893818
222	0x3e026fed	0.12738009
223	0xbdd652f0	-0.10465038
224	0x3cda65e0	0.026659906
225	0x3dca8c5e	0.09890054
226	0x3cbc2180	0.022965193
227	0xbdf6aa27	-0.12044173
228	0xbe18e227	-0.1493002
229	0xbf0e6569	-0.5562349
230	0x3cc52a09	0.024067895
231	0x3dae2c44	0.08504537
232	0xbdff4ac5	-0.12465433
233	0xbe80a07c	-0.2512244
234	0xbd501664	-0.050802603
235	0x3f418ea5	0.75608283
236	0xbdbdd41d	-0.09268973
237	0x3f4479ce	0.7674836
238	0xbe94a7cc	-0.2903427
239	0xbdf45bba	-0.11931558
240	0xbe38ac84	-0.1803456
241	0x3f80bb7f	1.0057219
242	0x3ede83f6	0.43460053
243	0xbd89fc1d	-0.0673754
244	0xbd6dcfd8	-0.058059543
245	0x3cfff38a	0.031244058
246	0x3b3e25ab	0.002901415
247	0xbdbd8200	-0.09253311
248	0x3d31587b	0.043297272
249	0x3d628afe	0.055308335
250	0xb8fa9327	-0.00011948338
251	0x3bb49d2d	0.005511901
252	0x3d1680a5	0.03674378
253	0xbdb1509e	-0.08657955
254	0x3d0f0412	0.03491599
255	0x3cb8a91b	0.022541573

actor.0.bias f4 [128]
0	0xbcf98d6e	-0.030462947
1	0xbe22e8ee	-0.15909168
2	0x3d37b0eb	0.044846456
3	0x3d2fcc43	0.04291941
4	0xbd5d10c1	-0.053971056
5	0x3e390378	0.1806773
6	0xbe8bb13f	-0.27283666
7	0xbe420f53	-0.18951158
8	0xbd60c67c	-0.05487679
9	0xbe291166	-0.16510543
10	0x3e36d1b1	0.17853428
11	0xbc281ad1	-0.0102603
12	0xbe5819de	-0.21103618
13	0xbe178e6f	-0.14800428
14	0x3e57e0da	0.21081868
15	0xbdf5c42e	-0.12000309
16	0x3e5880b7	0.21142851
17	0xbe04f39d	-0.12983556
18	0xbe2140e7	-0.15747415
19	0xba36537e	-0.00069551903
20	0xbcc6c598	-0.024264142
21	0xbdd224ad	-0.102609016
22	0xbe0f29fa	-0.13980857
23	0x3e3cfdaa	0.1845614
24	0xbc5610e8	-0.013065554
25	0x3bfcffb6	0.007720913
26	0x3d01c4a7	0.031681683
27	0xbd50dd02	-0.05099202
28	0x3c9b2c5e	0.018942054
29	0x3b168159	0.002296528
30	0xbd9b9131	-0.075960524
31	0x3d621673	0.05519719
32	0x3df25d8a	0.118342474
33	0x3cc8b5be	0.024500724
34	0x3dcc1df3	0.0996665
35	0xbdf26d66	-0.11837272
36	0x3df25d97	0.11834257
37	0xbdd1a942	-0.102373615
38	0xbda054b8	-0.07828659
39	0xbe5f5f19	-0.2181362
40	0xbe282267	-0.16419373
41	0x3dd3914c	0.103304476
42	0x3ca5e854	0.020252384
43	0xbca7a145	-0.020462641
44	0xbe505549	-0.20345034
45	0xbc84dc7a	-0.016218413
46	0xbd05c9a6	-0.03266301
47	0xbd310914	-0.04322155
48	0xbc9b62ed	-0.01896807
49	0x3d803064	0.0625923
50	0xbc52670c	-0.012841951
51	0xbc5a14c5	-0.013310616
52	0x3d7e3287	0.062059905
53	0xbc6107ba	-0.013734752
54	0xbdd112bd	-0.10208652
55	0xbe555086	-0.20831499
56	0xbe990846	-0.29889125
57	0xbea10de4	-0.3145591
58	0xbd8a8369	-0.06763346
59	0xbd474b21	-0.048655633
60	0x3df65491	0.120278485
61	0xbe8975ff	-0.26847836
62	0x3e2294fe	0.15877149
63	0xbe1c6949	-0.15274538
64	0xbe5b4384	-0.21412474
65	0xbdf17dab	-0.117915474
66	0xbc5fa99d	-0.013651279
67	0xbdfda234	-0.123844534
68	0xbe875750	-0.26433802
69	0xbd0d6ff9	-0.034530614
70	0xbe99a8c5	-0.30011573
71	0xbe13f9b1	-0.14450718
72	0xbe413496	-0.18867716
73	0xbe9f3fd1	-0.31103376
74	0xbd6bad2e	-0.057538204
75	0xbca6727a	-0.020318259
76	0xbcf3ca68	-0.0297596
77	0x3dbde4bc	0.09272143
78	0x3d7a5be1	0.06112278
79	0xbe1f6f99	-0.15569915
80	0xbd14a3d4	-0.03628905
81	0xbdcce3b6	-0.1000437
82	0xbe547a6b	-0.20749824
83	0x3d767d83	0.06017829
84	0xbde744d5	-0.112924255
85	0xbd632a7f	-0.05546045
86	0xbda22dbc	-0.079188794
87	0xbe46dd9e	-0.19420478
88	0xbe116959	-0.14200343
89	0x3e801f5a	0.2502392
90	0xbe55e647	-0.20888625
91	0xbe23c21f	-0.1599202
92	0xbd401f4d	-0.04690485
93	0xbd76ed58	-0.060284942
94	0x3c2f9b75	0.010718216
95	0xbdd4152c	-0.10355601
96	0xbd29f616	-0.04149445
97	0x3bdb8d59	0.0067001996
98	0x3d1df047	0.038559224
99	0xbe424c48	-0.18974411
100	0xbde433d6	-0.111426994
101	0xbdde0c72	-0.108422175
102	0x3d1febef	0.039043363
103	0x3d9ae518	0.075632274
104	0xbe35e3bd	-0.17762657
105	0xbe1e061a	-0.15432015
106	0x3a3f94ba	0.0007308234
107	0xbe302867	-0.17202912
108	0xbd728356	-0.059207283
109	0x3d307c57	0.04308733
110	0xbd3e84bf	-0.046513315
111	0x3daccd48	0.08437592
112	0x3c900a83	0.017583137
113	0xbe029334	-0.12751466
114	0xbe04e024	-0.12976128
115	0xbe464877	-0.1936358
116	0x3bae4d12	0.005319246
117	0xbdac56ec	-0.084150165
118	0xbdb37391	-0.08762277
119	0xbe17468f	-0.1477301
120	0x3dd9839e	0.10620807
121	0x3aaf298e	0.0013363825
122	0xbcea7587	-0.028620495
123	0xbdb78ebf	-0.089627735
124	0xbcc999c4	-0.024609454
125	0x3d8a162f	0.067425124
126	0xbe897d6c	-0.26853502
127	0xbd9d9aad	-0.07695518

actor.2.weight f4 [128, 128]
0	0xbda5f82a	-0.08103974
1	0xbe2cf971	-0.1689203
2	0xbd43320e	-0.047655158
3	0xbdc8602a	-0.09783967
4	0x3dad567a	0.0846376
5	0xbb9686d9	-0.004593712
6	0xbd8d1e6a	-0.06890567
7	0x3de85b0e	0.11345492
8	0x3d79af6d	0.060958315
9	0x3d02bc79	0.031918023
10	0x3cc74e04	0.024329193
11	0xbdd6d1eb	-0.104892574
12	0x3d89942d	0.067177154
13	0x3c64c217	0.01396229
14	0xbdfe969c	-0.1243107
15	0x3dc4da1b	0.09611913
16	0xbdf87659	-0.12131948
17	0x3dd8a605	0.10578541
18	0xbe1c499e	-0.15262458
19	0x3d43686c	0.047707006
20	0x3ddd46bf	0.10804509
21	0xbdce881d	-0.10084555
22	0x3e5f651d	0.21815915
23	0xbe0bc1f6	-0.13648209
24	0xbdc9ec69	-0.09859545
25	0xbb7029f8	-0.003664611
26	0x3d989b2c	0.07451472
27	0x3cde8543	0.027163154
28	0xbd139395	-0.036029417
29	0x3d5a19c1	0.053247217
30	0xbe20299d	-0.15640874
31	0xbd8c8ab2	-0.068623915
32	0xbdeb79c2	-0.11497833
33	0x3dde7da1	0.108638056
34	0x3d19ece4	0.037579432
35	0xbdb224a0	-0.08698392
36	0x3c9d68be	0.019214984
37	0xbd0e6e9e	-0.03477346
38	0xbcf43f85	-0.029815445
39	0xbc79dc45	-0.01525027
40	0x3e1eb43b	0.1549844
41	0x3d4d3a52	0.050104447
42	0xbd1d8c1f	-0.038463708
43	0x3c5d9258	0.013523661
44	0xbe2dbf95	-0.16967614
45	0xbd82d3ab	-0.06388029
46	0xbd0d7744	-0.03453757
47	0xbe05c975	-0.13065131
48	0xbdf9be8f	-0.12194549
49	0xbdabb457	-0.083840065
50	0xbdbcea0b	-0.09224328
51	0xbe0ab4cc	-0.13545531
52	0xbdffd360	-0.124914885
53	0xbd01ca23	-0.031686913
54	0xbdbcc038	-0.0921635
55	0xbd5e5b20	-0.054286122
56	0xbdd326fd	-0.10310171
57	0xbe71a8ea	-0.23599592
58	0x3bf9ffa3	0.007629351
59	0x3d76b8e4	0.06023492
60	0xbe0fb221	-0.14032795
61	0xbdf14365	-0.117804326
62	0x3d432bd1	0.04764921
63	0xbc7000e4	-0.01464865
64	0xbdc6b6c5	-0.09702829
65	0x3e28e6a8	0.16494238
66	0xbd747a33	-0.05968685
67	0x3d8c54ad	0.06852088
68	0xbcf9d785	-0.030498276
69	0x3c8a32e5	0.016869972
70	0xbdfae0c8	-0.12249905
71	0xbd0ec995	-0.034860212
72	0xbdf74ce2	-0.12075211
73	0x3d700e8c	0.058607623
74	0x3dd0b832	0.101913825
75	0x3d1362a9	0.03598276
76	0xbda371cd	-0.0798069
77	0x3d4463b3	0.047946643
78	0x3b8ac7e0	0.0042352527
79	0xbd3f042a	-0.04663483
80	0xbdf75d21	-0.1207831
81	0xbdb39c29	-0.087700196
82	0xbe417b4a	-0.18894687
83	0xbd87f0e8	-0.06637746
84	0xbd93b18c	-0.07211599
85	0xbd802e36	-0.06258814
86	0x3c8c5265	0.017129133
87	0xbc339c45	-0.0109625505
88	0xbc30d213	-0.010792273
89	0xbda195a1	-0.078898676
90	0xbc85aa00	-0.016316414
91	0x3d03adea	0.03214828
92	0x3d8f243b	0.06989332
93	0xbd087bb9	-0.033321116
94	0x3d7e6380	0.06210661
95	0x3d637619	0.05553255
96	0xbd9042ad	-0.070439674
97	0x3dae3612	0.08506407
98	0xbd2568e0	-0.04038322
99	0x3c98dc08	0.018659607
100	0xbdc2979d	-0.09501574
101	0x3d88fcbd	0.06688831
102	0x3d850d1d	0.06496642
103	0x3d18ab89	0.037272964
104	0x3d9672d3	0.0734612
105	0x3c020b2b	0.007937233
106	0xbd78e02f	-0.060760673
107	0xbda135f7	-0.07871621
108	0xbc996893	-0.018726623
109	0xbd1a7d44	-0.03771712
110	0x3d4fa707	0.0506964
111	0x392d9194	0.00016552798
112	0xbdccbcfc	-0.099969834
113	0xbce8d375	-0.028421143
114	0xbdda64bf	-0.10663747
115	0x3c5905ab	0.01324598
116	0xbe0f0e58	-0.13970315
117	0xbe077835	-0.13229449
118	0xbcf211a0	-0.02954942
119	0x3b4e12d7	0.0031444335
120	0x3d5655cc	0.052327916
121	0xba95b476	-0.0011421579
122	0xbe22fbe9	-0.15916409
123	0x3d766dc6	0.06016328
124	0xbdc96c6d	-0.09835134
125	0xbe46ee14	-0.19426757
126	0xbd8ca14c	-0.068667024
127	0x3de45f9c	0.111510485
128	0x3d4d60ee	0.050141267
129	0x3d25e3e4	0.040500537
130	0x3bd8906a	0.0066090124
131	0xbdff126c	-0.124546856
132	0x3ddab17c	0.10678384
133	0xbcf31ccf	-0.029676823
134	0x3b76fa74	0.0037685903
135	0xbcccfaf4	-0.025022008
136	0xbda3a440	-0.079903126
137	0x3e1c061e	0.15236709
138	0xbaa3d654	-0.0012499788
139	0xbdc03d14	-0.0938665
140	0x3ce78365	0.028260896
141	0xbcc425f8	-0.023943886
142	0x3c576935	0.013147642
143	0xbc36c09a	-0.011154318
144	0xbbb716c7	-0.005587432
145	0xbd737651	-0.059439007
146	0xbd4ca109	-0.049958263
147	0x3d370457	0.044681873
148	0x3d439fe0	0.04775989
149	0xbd9f029d	-0.0776417
150	0xbd740d9b	-0.059583288
151	0xbe22f70e	-0.15914556
152	0xbdaa5059	-0.08316106
153	0xbd6eed24	-0.058331624
154	0xbdf590be	-0.11990498
155	0xbd1ef6ad	-0.038809467
156	0x3c4db89c	0.012556221
157	0xbddf0f79	-0.10891623
158	0x3d9fe03f	0.078064434
159	0xbb97c93a	-0.0046321424
160	0xbdc59af0	-0.096486926
161	0xbdb21cd4	-0.08696905
162	0x3d5958b8	0.053063124
163	0xbd8e6a8b	-0.06953915
164	0xbd143947	-0.036187436
165	0x3d14286a	0.036171354
166	0xbdaae168	-0.08343774
167	0xbcc462c0	-0.023972869
168	0x3d0faf1d	0.03507911
169	0x3dc829a7	0.097735696
170	0xbbe77c00	-0.0070643425
171	0x3d8bcb54	0.06825891
172	0xbde2b3a1	-0.11069418
173	0xbd9fe432	-0.07807197
174	0x3da40584	0.080088645
175	0x3d491654	0.04909356
176	0x39b1c101	0.0003390387
177	0xbe27ed3b	-0.1639909
178	0xbd92233f	-0.07135629
179	0xbd92d00f	-0.0716859
180	0x3da96683	0.08271506
181	0xbb40a61a	-0.002939588
182	0xbe01926d	-0.12653513
183	0x3d41e2cf	0.047335442
184	0x3df31ce6	0.11870746
185	0xbd83fefb	-0.06445118
186	0xbb7da611	-0.003870372
187	0xbba38909	-0.004990701
188	0x3d8f907c	0.0700998
189	0x3d7a073d	0.06104206
190	0x3d22a05e	0.03970372
191	0x3d9aeaac	0.07564291
192	0x3db743c9	0.08948476
193	0x3bc70055	0.0060730376
194	0xbd83487c	-0.0641031
195	0x3bc8c6af	0.0061272006
196	0x3d797d74	0.060910657
197	0x3e17f012	0.14837673
198	0xbd7e8841	-0.06214166
199	0xbdb88777	-0.09010213
200	0xbe20ee65	-0.1571594
201	0xbda16f28	-0.078825295
202	0xbbcc79d6	-0.00624011
203	0xbe018592	-0.1264861
204	0xbc6fcf4c	-0.014636826
205	0xbbbfedd8	-0.0058572106
206	0xbddc3c7a	-0.107537225
207	0x3c527cad	0.012847108
208	0xbd3ca79a	-0.046058275
209	0xbbca506e	-0.0061741387
210	0xbd1cbeae	-0.038267784
211	0xbd45c3db	-0.048282485
212	0xbd5a14d7	-0.05324253
213	0xbb9a8fa2	-0.0047168294
214	0x3d0eda75	0.034876306
215	0xbe0bf268	-0.1366669
216	0xbd46f389	-0.048572097
217	0xbd67a030	-0.05654925
218	0x3db95300	0.09049034
219	0x3c60b2bc	0.013714489
220	0xbdf2c458	-0.11853856
221	0xbd2b4d15	-0.041821558
222	0xbc1d84aa	-0.009614149
223	0x3cab9f70	0.02095005
224	0x3dbdd299	0.09268684
225	0x3d797d50	0.060910523
226	0xbd25638c	-0.04037814
227	0xbc73283d	-0.0148411365
228	0xbe071499	-0.13191451
229	0xbc3fff6e	-0.011718614
230	0x3d3fbfa4	0.046813622
231	0x3ded5746	0.11588912
232	0xbda927c7	-0.0825954
233	0x3cb9e861	0.022693815
234	0xbd87ea8f	-0.066365354
235	0x3d194a93	0.037424635
236	0xbd37e3f0	-0.044895113
237	0xbd06af26	-0.03288188
238	0x3d3f582b	0.046714943
239	0x3d8a5a7d	0.067555405
240	0xbdbd06bf	-0.09229802
241	0xbdf00c2b	-0.11721071
242	0x3d3aed8a	0.04563669
243	0xbe475c5a	-0.19468823
244	0xbd2c76df	-0.04210555
245	0xbde9b645	-0.11411718
246	0xbde89fe7	-0.11358624
247	0x3d92321d	0.071384646
248	0xbdbff028	-0.09371978
249	0x3d377096	0.044785105
250	0xbdb4c1c5	-0.08826021
251	0x3d8c6e2a	0.068569496
252	0xbcf94879	-0.030430065
253	0xbdd4df35	-0.10394136
254	0xbdd74b2f	-0.10512387
255	0xbb5fe422	-0.0034163077

actor.2.bias f4 [128]
0	0xbcc427e7	-0.023944808
1	0xbe0605bf	-0.1308813
2	0x3b9c155b	0.004763288
3	0xbd0e9c25	-0.03481688
4	0x3d227e63	0.039671313
5	0xbdc2aa0b	-0.09505089
6	0x3bd0106d	0.0063496144
7	0xbd9dffea	-0.07714827
8	0x3cb53ff2	0.022125218
9	0xba97ba8a	-0.0011575979
10	0xbdd974c7	-0.10617977
11	0xbd4b6efe	-0.049666397
12	0xbe040dfa	-0.12895957
13	0xbe2dc6c9	-0.16970362
14	0xbe02dfe1	-0.12780716
15	0xbe2e7288	-0.17035878
16	0xbdac3073	-0.084076785
17	0xbd8ccd39	-0.068750806
18	0xbe0569b4	-0.13028604
19	0xbdaa7dd5	-0.08324782
20	0xbe3455b4	-0.17610818
21	0xbe6490ab	-0.22320811
22	0xbdc62e9f	-0.09676861
23	0xbe04e674	-0.12978536
24	0xbdf1f1d3	-0.118137024
25	0xbde0c975	-0.10975925
26	0xbc8b8f30	-0.01703605
27	0x3d538c95	0.05164774
28	0xbe140e94	-0.14458686
29	0xbcc9d0e8	-0.024635747
30	0xbe91dabf	-0.28487203
31	0xbe0a1cf1	-0.13487603
32	0xbe4d6a6e	-0.20060131
33	0xbd81d31f	-0.06339096
34	0xbc168707	-0.009187466
35	0xbcd4f92d	-0.025997723
36	0x3c3ab52b	0.011395733
37	0xbd9d2bca	-0.07674368
38	0xbc9c8316	-0.019105475
39	0x3ce9106a	0.02845021
40	0xbd083efd	-0.033263195
41	0xbdac76fc	-0.08421132
42	0xbd1dcc90	-0.038525164
43	0xbda59ec8	-0.08086926
44	0xbd88fb85	-0.066885985
45	0xbd6414b4	-0.055683807
46	0xbd2ae78c	-0.041724727
47	0xbe004de7	-0.12529717
48	0xbc109a86	-0.008825904
49	0xbdd49161	-0.10379291
50	0xbd1d249d	-0.038364995
51	0xbe74022e	-0.23828956
52	0xbdaa4c1e	-0.083152995
53	0x3a79b2ba	0.00095252285
54	0xbe8725f2	-0.26396137
55	0xbcd00009	-0.025390642
56	0x3c412c51	0.011790351
57	0xbe169f11	-0.14709117
58	0xbd39e25d	-0.045381892
59	0x3a02147a	0.00049621577
60	0xbb23eaf6	-0.0025011874
61	0x3c22f3f4	0.009945858
62	0xbd995171	-0.07486237
63	0xbd41cd3e	-0.047314875
64	0xbdfa4162	-0.12219502
65	0x3dbb6760	0.091505766
66	0xbb8568da	-0.004071337
67	0xbe16ccf1	-0.14726616
68	0x3c89631e	0.016770896
69	0x3cb1c170	0.021698684
70	0xbe041ac6	-0.12900838
71	0xbc080214	-0.008301277
72	0xbd0de033	-0.03463764
73	0xbcd887c9	-0.026431935
74	0xbdc2ceff	-0.095121376
75	0xbd5fb4bd	-0.054615725
76	0x3d51d4d8	0.051228374
77	0xbe040814	-0.12893707
78	0xbdbfa70d	-0.09358034
79	0xbd87bd92	-0.066279545
80	0x3c891bd7	0.016736908
81	0x3c07f1a5	0.008297359
82	0xbc9c6bde	-0.019094404
83	0xbd3a5394	-0.045489863
84	0xbe033a07	-0.12815104
85	0xbdc2aaca	-0.09505232
86	0xbe19bcdb	-0.15013449
87	0x3d188896	0.037239634
88	0x3ccbd319	0.024880933
89	0xbd3a96cc	-0.045553967
90	0xbcf865e4	-0.030322023
91	0xbd22c3eb	-0.039737623
92	0xbe12f7e5	-0.14352377
93	0xbe47f750	-0.19527936
94	0xbdee508d	-0.116364576
95	0xbc8ef3db	-0.017450264
96	0xbdf88432	-0.12134589
97	0xbd9a7f47	-0.075438075
98	0xbce5d2bf	-0.028054593
99	0xbcb2bca1	-0.02181846
100	0xbe1b6fef	-0.15179418
101	0x3d6158c6	0.0550163
102	0xbdd0f423	-0.102028154
103	0x3c1f25cf	0.009713604
104	0xbd87d1b8	-0.066317976
105	0x3ccaff6d	0.02478
106	0xbd977714	-0.07395759
107	0xbe083f5b	-0.13305418
108	0xbc9dff54	-0.019286789
109	0xbcf652ba	-0.030068744
110	0xbcd11a24	-0.02552516
111	0x3c8bf3b6	0.017083984
112	0xbcf142ee	-0.02945086
113	0xbce6de12	-0.028182063
114	0x3b89ea60	0.004208848
115	0x3b085083	0.0020799942
116	0xbc55882a	-0.013032952
117	0xbe0ba393	-0.13636617
118	0xbd0ce6c7	-0.034399774
119	0xbdce2fcb	-0.100677095
120	0xbc4ef4e7	-0.012631631
121	0x3d5cfc0b	0.053951304
122	0xbe227b9d	-0.15867467
123	0xbd9c48e5	-0.07631091
124	0x3ca15526	0.019693922
125	0xbe081769	-0.1329018
126	0xbe51ceaa	-0.20488992
127	0xbdb65655	-0.08903185

actor.4.weight f4 [128, 128]
0	0xbd2f01db	-0.04272638
1	0xbc1d907d	-0.009616968
2	0xbd329530	-0.043599308
3	0xbd70c4ee	-0.058781557
4	0x3d6a4514	0.057194784
5	0x3e229170	0.15875793
6	0x3d533bd2	0.05157072
7	0xbd998a8f	-0.07497131
8	0xbceffc97	-0.029295249
9	0xbc0ef0ae	-0.008724375
10	0xbd3389a2	-0.04383243
11	0x3dbc679b	0.09199449
12	0xbd603359	-0.05473647
13	0x3d3bb3e2	0.045825846
14	0xbd89a031	-0.06720007
15	0x3e479363	0.19489817
16	0x3d4cf5be	0.050039046
17	0x3d516db8	0.051130027
18	0x3e2c6e04	0.16838843
19	0x3d3f8153	0.046754193
20	0x3c937628	0.018000677
21	0x3d0c0d51	0.034192387
22	0x3cb272fb	0.021783343
23	0xbdd7aeb0	-0.10531366
24	0xbcdb59e6	-0.026776265
25	0x3dac17ae	0.08402954
26	0x3d9296cc	0.071576685
27	0x3ce09057	0.027412577
28	0x3cc985c9	0.024599927
29	0x3e776279	0.24158658
30	0x3d7514c9	0.059834275
31	0x3d17d130	0.03706473
32	0x3b59ba6d	0.003322269
33	0x3dd67f70	0.104735255
34	0x3cf66ff0	0.030082673
35	0x3e415dfc	0.18883508
36	0x3c7099b8	0.014685087
37	0x3c8edfed	0.01744076
38	0x3d03196c	0.032006666
39	0x3e13043f	0.14357089
40	0xbdafee57	-0.085903816
41	0xbc3d704a	-0.011562416
42	0xbdac4a4b	-0.08412608
43	0xbd4ff33d	-0.05076908
44	0x3ca0dfff	0.01963806
45	0x3bff717b	0.0077955103
46	0x3d01ea1d	0.03171741
47	0x3ca55da6	0.020186257
48	0xbda01b7d	-0.07817743
49	0x3d3380b6	0.04382392
50	0xbbd2d2ea	-0.0064338343
51	0x3d57a9d1	0.052652184
52	0x3d15a81b	0.03653727
53	0x3d38e344	0.045138612
54	0xbccebd8d	-0.02523687
55	0xbd1ae99a	-0.037820436
56	0xbdf70d2b	-0.120630585
57	0x3d8a6493	0.06757464
58	0x3bd89f29	0.0066107702
59	0xbd7d66ca	-0.061865605
60	0xbd61c330	-0.055117786
61	0x3e28ab27	0.1647154
62	0xbda8b917	-0.08238428
63	0x3c8a0543	0.016848212
64	0xbcef2114	-0.029190578
65	0xbcc686f8	-0.02423428
66	0x3dbe41dd	0.09289906
67	0xbd8133c2	-0.063087
68	0xbdd16cfd	-0.10225866
69	0xbd698119	-0.057007883
70	0xbcb0fc4b	-0.021604678
71	0xbe008f18	-0.12554586
72	0x3ca854d9	0.020548271
73	0x3d8aaedd	0.06771634
74	0x3d5b54b2	0.05354757
75	0x3d0097f1	0.031394903
76	0x3ddebe1e	0.10876106
77	0x3d77ea2c	0.060526058
78	0xbd983908	-0.07432753
79	0xbda3e247	-0.08002143
80	0xbe0507e9	-0.12991299
81	0x3cf06220	0.029343665
82	0x3cb8562d	0.02250203
83	0x3d3e3390	0.046435893
84	0x3d27c743	0.040961515
85	0xbcac41c9	-0.021027463
86	0x3bb32edb	0.005468232
87	0x3b405b68	0.0029351357
88	0xbd54bf86	-0.051940463
89	0x3c110bd7	0.0088529205
90	0x3c51a869	0.0127965
91	0x3cca91c1	0.024727704
92	0xbdc877bd	-0.09788463
93	0x3d157dd7	0.036496963
94	0xbd15eb1f	-0.036601182
95	0xbe2bfd55	-0.16795857
96	0x3d754795	0.05988272
97	0x3c708411	0.014679925
98	0xbd287e16	-0.04113587
99	0xbdf133e5	-0.11777476
100	0xbd998f26	-0.074980065
101	0x3ca35f88	0.019943014
102	0xbd6e538c	-0.058185145
103	0x3c42cd1c	0.011889722
104	0x3dffd277	0.12491315
105	0x3cc9abbf	0.024618028
106	0x3d0fa74c	0.035071656
107	0xbdc78fbf	-0.09744214
108	0xbdad221b	-0.08453771
109	0xbd848424	-0.06470516
110	0x3d96ec5c	0.07369301
111	0xbe39b23c	-0.18134397
112	0x3da451fb	0.08023449
113	0x3e016604	0.12636572
114	0x3d8b4204	0.06799701
115	0x3dd777bb	0.10520884
116	0xbdb391a9	-0.08768017
117	0x3e2359c9	0.15952219
118	0xbb0a1f67	-0.0021075846
119	0x3d95c28f	0.073125
120	0x3d3a60fa	0.04550264
121	0x3d0079ef	0.031366285
122	0x3d8753b3	0.06607761
123	0xbcfd146a	-0.030893523
124	0xbd22f7ca	-0.03978709
125	0xbd45c750	-0.048285782
126	0xbcc79b11	-0.024365934
127	0x3dd878e3	0.10569932
128	0x3e6bba6d	0.23020335
129	0x3d56f0b0	0.05247563
130	0xbc4d4836	-0.012529423
131	0x3c07150e	0.008244766
132	0xbcc01b37	-0.023450477
133	0xbd747da1	-0.05969012
134	0xbdc454a5	-0.09586457
135	0xbddacb8f	-0.10683357
136	0x3e136585	0.14394195
137	0x3d57fb01	0.05272961
138	0xbc2fc54b	-0.010728191
139	0xbd6ce8e4	-0.05783929
140	0xbc8ef844	-0.017452367
141	0xbd7f9c1f	-0.062404748
142	0xbdbdb0cb	-0.09262236
143	0xbcd629c3	-0.02614296
144	0xbd7614a1	-0.060078267
145	0x3b90c9aa	0.0044185715
146	0x3e2091ae	0.15680572
147	0x3d02a637	0.031896796
148	0xbd6d40c4	-0.057923093
149	0xbcece01f	-0.028915463
150	0xbda22bb5	-0.07918493
151	0xbcc75295	-0.02433137
152	0xbd143116	-0.036179624
153	0xbcd81ff1	-0.026382418
154	0x3d59de29	0.053190384
155	0xbcc229f6	-0.02370165
156	0x3d0e6855	0.034767468
157	0xbd684832	-0.056709476
158	0xbcf55e08	-0.029952064
159	0xbdbaf056	-0.09127872
160	0x3cb43383	0.021997219
161	0xbd6a17fe	-0.057151787
162	0x3d360fb4	0.04444857
163	0x3e0d26d9	0.1378435
164	0x3db1a41c	0.086738795
165	0xbd60ba6a	-0.05486528
166	0x3d6a9be5	0.05727758
167	0xbda1a547	-0.07892852
168	0x3dd105d7	0.10206192
169	0xbe35c2ea	-0.17750135
170	0xbdbb89ff	-0.0915718
171	0x3e133c97	0.14378582
172	0xbd8f1da1	-0.06988073
173	0xbd8800a5	-0.06640748
174	0xbdbceb3a	-0.092245534
175	0x3ceea94b	0.02913346
176	0xbd8242de	-0.0636041
177	0x3cf5d592	0.030009065
178	0xb9248970	-0.00015691458
179	0x3d6081e3	0.05481137
180	0xbc93388a	-0.017971296
181	0xbc94769e	-0.018122967
182	0x3d2cef98	0.042220682
183	0xbd3b6612	-0.04575164
184	0x3d366cb2	0.044537254
185	0xbcb1d690	-0.021708757
186	0x3d338b33	0.043833923
187	0x3cb99439	0.022653686
188	0xbd9a1a3f	-0.07524537
189	0xbe22d4e9	-0.15901531
190	0xbd92d9bd	-0.071704365
191	0xbe2e0e44	-0.1699763
192	0x3d8c0615	0.068370976
193	0x3db7c00a	0.089721754
194	0xbd83cbb1	-0.064353354
195	0xbab6949b	-0.0013929786
196	0x3e0df190	0.1386168
197	0x3d14bb1e	0.03631126
198	0x3d2236d2	0.039603062
199	0xbcafaec4	-0.02144564
200	0x3e0d620e	0.13806936
201	0xbdace3a3	-0.08441856
202	0x3e1e8f7b	0.15484421
203	0xbd48fc64	-0.049068823
204	0x3b0e958e	0.0021756622
205	0xbcf96723	-0.030444687
206	0xbc5da240	-0.013527453
207	0xbcb54d3b	-0.022131553
208	0x3ced9e78	0.029006228
209	0x3d87cb8b	0.066306196
210	0xbd973dcc	-0.07384834
211	0x3dd0f05a	0.102020934
212	0xbcdddb1c	-0.027082019
213	0xbd526074	-0.051361516
214	0x3d7c6983	0.06162406
215	0xbcc24f47	-0.023719443
216	0x3dbc66bc	0.091992825
217	0xba9c16fc	-0.0011908705
218	0xbe0577b7	-0.13033949
219	0x3d2c385a	0.04204593
220	0xbd64e53c	-0.055882677
221	0xbd7b4f5f	-0.06135499
222	0xbd8224c1	-0.063546665
223	0xbd506cfb	-0.050885182
224	0xba61f671	-0.00086197915
225	0xbdc95d63	-0.09832265
226	0x3c374d6e	0.011187894
227	0xbd7353a7	-0.05940595
228	0x3d1642d0	0.03668481
229	0xbc0a7e34	-0.008452941
230	0xbc30e002	-0.010795595
231	0x3c5edc12	0.013602274
232	0x3c0fae31	0.008769558
233	0x3d4dd504	0.050251976
234	0xbd78c05e	-0.06073033
235	0x3c5fd788	0.0136622265
236	0x3d0f0287	0.03491452
237	0x3d5c565e	0.053793304
238	0x3e189126	0.1489912
239	0x3db79fad	0.089660026
240	0x3cd86a07	0.026417745
241	0xbd6ae460	-0.0573467
242	0xbcf4b2a0	-0.029870331
243	0x3de8ee00	0.1137352
244	0xbd94a7a3	-0.07258537
245	0x3ced5f85	0.028976211
246	0xbd1b6c66	-0.037945174
247	0xbda4d79c	-0.08048937
248	0x3dbf378e	0.09336768
249	0xbb2c6333	-0.0026304245
250	0x3cfe62ff	0.031053064
251	0x3d490dcd	0.049085427
252	0x3c92c721	0.017917218
253	0x3d3c5d4d	0.045987416
254	0x3d01c508	0.031682044
255	0x3d8f416e	0.069949016

actor.4.bias f4 [128]
0	0xbd963fd4	-0.07336393
1	0xbda1caab	-0.07899984
2	0xbe069e87	-0.13146411
3	0x3d0924e5	0.03348245
4	0xbdfeffdd	-0.12451146
5	0x3d627787	0.05528977
6	0xbcbb105f	-0.022834955
7	0xbe55c3f7	-0.20875536
8	0xbda210d3	-0.07913365
9	0xbd10c7fe	-0.035346977
10	0x3ba52871	0.0050402214
11	0xbc038bd2	-0.008028941
12	0xbddb170c	-0.10697755
13	0x3cc59d8e	0.02412298
14	0xbcefb6da	-0.029261995
15	0xbe021366	-0.12702712
16	0x3d050a5e	0.03248059
17	0xbd9efb3a	-0.077627614
18	0xbdb8b238	-0.090183675
19	0xbbe17cf8	-0.0068813525
20	0xbc74c6d8	-0.014939986
21	0xbe09d963	-0.13461833
22	0xbe3a6909	-0.1820413
23	0xbd4cfb51	-0.05004436
24	0xbe23ff96	-0.16015467
25	0xbd862e2b	-0.065517746
26	0x3c01d921	0.007925303
27	0xbd617f90	-0.055053294
28	0xbdb93964	-0.090441495
29	0x3d1c97b8	0.038230628
30	0x3d4c784c	0.04991941
31	0xbdfd802d	-0.12377963
32	0x3aea26fa	0.0017864399
33	0x3ce10346	0.027467381
34	0xbc207e23	-0.009795698
35	0xbe018144	-0.12646967
36	0x3d3dc989	0.046334777
37	0xbd0ce117	-0.03439435
38	0xbd78b786	-0.060721897
39	0xbd1923c0	-0.03738761
40	0xbd502760	-0.0508188
41	0x3d35be39	0.044370864
42	0xbd23bfc2	-0.039977796
43	0xbd6a5b7e	-0.05721616
44	0xbbe5c44e	-0.0070119267
45	0x3d86c433	0.06580391
46	0xbdd0403c	-0.10168502
47	0xbe5dcaad	-0.21659346
48	0xbc42fa1b	-0.01190045
49	0x3d805ae5	0.06267337
50	0x3bc8f482	0.006132663
51	0x3c3355f9	0.01094579
52	0x3da60ce2	0.08107926
53	0xbd39d5ec	-0.045370027
54	0x3d79b05a	0.060959198
55	0x3dbc0cd4	0.09182134
56	0xbd10ba17	-0.03533372
57	0xbce83a4c	-0.02834811
58	0xbc6193da	-0.013768161
59	0x3c87b42e	0.016565409
60	0x3ca404ee	0.020021882
61	0xbd00aa41	-0.031412367
62	0xbe2e5f22	-0.17028478
63	0xbddaed3a	-0.106897786
64	0xbe0a6a51	-0.13517119
65	0xbd71bef1	-0.059019987
66	0xbe70040a	-0.23439041
67	0xbda74847	-0.08168083
68	0x3d52cf1a	0.05146704
69	0xbd98bcff	-0.07457923
70	0x3d60ab59	0.05485091
71	0xbbee6fc5	-0.0072765076
72	0xbd11a8c8	-0.035561353
73	0xbe331a3d	-0.17490478
74	0xbd6cf2cd	-0.05784874
75	0xbd876be0	-0.066123724
76	0x3c8100a3	0.015747374
77	0x3c540307	0.012940175
78	0xbd9b2d1d	-0.07576964
79	0xbddaaaf0	-0.10677135
80	0x3cc7d033	0.02439127
81	0xbc9ff453	-0.019525683
82	0xbe10d9fe	-0.14145657
83	0x3d41fffa	0.04736326
84	0xbc9f2815	-0.019428292
85	0xbdf0bb93	-0.11754527
86	0xbcaf9aee	-0.02143618
87	0xbd7a4573	-0.06110139
88	0xbe84c9f0	-0.25935316
89	0xbd9f3e87	-0.07775598
90	0xbc248b87	-0.010043032
91	0xbdd028ba	-0.10164018
92	0x3b577994	0.0032878863
93	0xbd0035fe	-0.03130149
94	0x3c675100	0.014118433
95	0xbdda16d3	-0.106488846
96	0x3c6d9030	0.014499709
97	0xbc0112a9	-0.007877984
98	0xbe4a2860	-0.19741964
99	0xbd4f3045	-0.050583143
100	0x3c8118a5	0.015758822
101	0xbe07286f	-0.13199018
102	0x3d65504a	0.055984773
103	0x3c90eae0	0.017690122
104	0xbdbb5de6	-0.09148769
105	0xbe65b458	-0.22432077
106	0x3da18652	0.07886948
107	0xbcffc09f	-0.031219779
108	0xbd4d2702	-0.05008603
109	0x3d751dfb	0.059843045
110	0x3d1322af	0.03592175
111	0xbc527fd4	-0.012847859
112	0x3ccad47d	0.024759525
113	0xbe008448	-0.12550461
114	0x3d7941f3	0.06085391
115	0xbd98a374	-0.07453051
116	0x3d083ce9	0.033261213
117	0xbad56608	-0.0016281018
118	0xbe68a73b	-0.22720043
119	0xbdcfcdfd	-0.10146711
120	0xbde33d1e	-0.110956416
121	0xbdabe81f	-0.08393883
122	0x3caa9405	0.020822534
123	0xbe0009e7	-0.12503777
124	0xbc611bd6	-0.013739547
125	0xbcfa0ff7	-0.03052519
126	0x3d95d7e0	0.073165655
127	0xbe00a9af	-0.12564729

actor.6.weight f4 [12, 128]
0	0x3ca1bbc1	0.019742848
1	0x3d5f38cf	0.054497536
2	0xbd86f2c7	-0.06589275
3	0xbbcef767	-0.0063161138
4	0xbc63b0a7	-0.013897098
5	0xbc9f36dd	-0.01943534
6	0x3bc9f584	0.006163301
7	0xbce0648b	-0.027391693
8	0xba3f1e46	-0.0007290583
9	0xbc12ba6b	-0.008955578
10	0x3c998d4a	0.01874413
11	0x3d85e9bf	0.06538724
12	0x3d013598	0.03154525
13	0x3d1b0258	0.037844032
14	0xbd056586	-0.032567523
15	0x3d761e36	0.060087405
16	0xbd403a0e	-0.046930365
17	0x3c975a42	0.018475655
18	0xbd2c0380	-0.041995525
19	0x3d361ee2	0.044463046
20	0x3db1c386	0.08679871
21	0xb920a170	-0.00015318929
22	0x3de48311	0.111578114
23	0xbcf97297	-0.030450149
24	0x3b781937	0.0037856826
25	0x3d322689	0.04349378
26	0xbca7071f	-0.020389138
27	0xbd23dda1	-0.040006284
28	0x3c93cf90	0.01804331
29	0x3d0275e0	0.031850696
30	0xbc14cce8	-0.009082057
31	0x3e4805e6	0.195335
32	0xbcba49d3	-0.02274028
33	0x3c183fac	0.009292524
34	0x3ca00b45	0.019536624
35	0xbdc28dfa	-0.09499736
36	0x3ca468bc	0.020069472
37	0x3d441922	0.04787553
38	0xbd64b703	-0.055838596
39	0x3da1bae0	0.07896972
40	0xbccf6972	-0.025318835
41	0xbd35e2f0	-0.044405878
42	0xbd8139f5	-0.063098826
43	0xbd5668aa	-0.05234591
44	0x3d651fe2	0.05593861
45	0xbd6c588c	-0.057701632
46	0xbc38daf4	-0.011282671
47	0x3dbda339	0.09259648
48	0xbca360c0	-0.019943595
49	0xbd21982d	-0.039451767
50	0x3b7780d1	0.003776599
51	0x3d00ec78	0.031475514
52	0xbb9787ec	-0.0046243574
53	0x3ce42f82	0.027854685
54	0x3c947fa9	0.01812728
55	0xbdbb9d80	-0.091609
56	0x3d159da4	0.03652729
57	0x3d368c57	0.044567432
58	0x3dcca5db	0.09992572
59	0x3d0d222a	0.03445641
60	0xbcee4ae4	-0.029088445
61	0x3c8f5564	0.017496772
62	0x3d6bb9fd	0.05755042
63	0x3c7f0a5b	0.015566434
64	0xbd8a312e	-0.067476615
65	0xbce5de78	-0.028060183
66	0x3d761cf9	0.060086224
67	0x3cba3919	0.022732304
68	0xbc487b9f	-0.012236505
69	0x3d897652	0.06712021
70	0xbcdce7dd	-0.02696603
71	0x3db7b765	0.089705266
72	0x3d4392e5	0.04774751
73	0x3e487e83	0.1957951
74	0xbb6eb44e	-0.0036423388
75	0xbc911391	-0.017709525
76	0xbdec7e72	-0.11547555
77	0xbcaea592	-0.021319184
78	0x3dbd1d9c	0.09234163
79	0xbd0c583b	-0.03426383
80	0x3ca1b4d4	0.019739546
81	0xbc607600	-0.013700008
82	0x3ceade2f	0.028670399
83	0x3cae1268	0.021249011
84	0x3d997bd2	0.0749432
85	0x3b5d8425	0.0033800688
86	0x3d8a74c5	0.06760553
87	0xbd147b47	-0.03625038
88	0xbd08e676	-0.03342291
89	0x3d052186	0.032502674
90	0x3d31cae0	0.043406367
91	0x3db7a0c5	0.08966211
92	0x3cd7d556	0.026346844
93	0xbd536731	-0.051612083
94	0x3c66b16b	0.014080386
95	0xbbc85f32	-0.006114864
96	0xbd6ee9f9	-0.058328602
97	0xbd5f974f	-0.05458766
98	0xbb780b01	-0.0037848356
99	0x3d1f1421	0.038837556
100	0x3c51bf2e	0.012801928
101	0x3ce98cc5	0.028509507
102	0xbcb4a8c5	-0.022053132
103	0x3c05dff7	0.008171073
104	0xbc31ed57	-0.010859809
105	0xbd16f1c8	-0.036851674
106	0xbd01dc39	-0.03170416
107	0xbd13e097	-0.036102857
108	0x3d370f56	0.04469236
109	0xbd16d36a	-0.036822714
110	0xbd0ae318	-0.03390798
111	0x3d012f20	0.031539083
112	0xbce4c011	-0.027923616
113	0x3d065e6d	0.032804895
114	0x3d3c826f	0.04602283
115	0xbd989639	-0.07450528
116	0x3c849db7	0.016188486
117	0xbc1adc14	-0.009451885
118	0x3a5cf227	0.00084284175
119	0xbb7dd05b	-0.0038728926
120	0x3dac6977	0.08418553
121	0x3db8299f	0.089923136
122	0xbd5ac12d	-0.053406883
123	0x3cceb896	0.025234502
124	0x3d2bf68e	0.04198318
125	0x3c8f10a1	0.017463984
126	0xbc07b71a	-0.008283401
127	0xbd27d40a	-0.0409737
128	0xbdcd6af1	-0.10030163
129	0x3d04e8d1	0.032448594
130	0xbda533ef	-0.08066546
131	0x3d41e513	0.047337603
132	0xbca87e39	-0.020568
133	0x3dfdc5b2	0.12391223
134	0xbd74e7be	-0.05979132
135	0x3ca7c1d1	0.020478161
136	0x3d82514f	0.06363165
137	0xbd9b3f63	-0.075804494
138	0xbbcddc23	-0.006282346
139	0xbd56b91e	-0.052422635
140	0x3d2b845c	0.041874275
141	0xbca4f921	-0.020138325
142	0x3cb5e89f	0.022205649
143	0x3b588ad8	0.0033041742
144	0xbc6db721	-0.014508993
145	0x3e0966f7	0.13418184
146	0xbd195214	-0.03743179
147	0xbd8b4b34	-0.06801453
148	0x3c54597d	0.012960789
149	0x3d007903	0.031365406
150	0xbdefae28	-0.117031395
151	0xbd221efd	-0.039580334
152	0x3d841316	0.06448953
153	0x3a18ce24	0.0005829057
154	0x3d49aeb9	0.049238894
155	0x3b8ad82c	0.0042371955
156	0x3d4996f2	0.04921622
157	0xbbdcf747	-0.006743345
158	0xbd82189c	-0.0635235
159	0xbe0ad5b9	-0.13558091
160	0xbc5976c3	-0.013272944
161	0x3cf56d23	0.029959267
162	0x3c52b95d	0.012861577
163	0xbd4cf7f7	-0.050041165
164	0x3aa654ad	0.001269003
165	0x3cab8eda	0.02094214
166	0x3b88dead	0.0041769356
167	0xbd8d4d8a	-0.06899555
168	0xbd371ace	-0.044703297
169	0xbc23d2e2	-0.009999009
170	0x3cea1e19	0.028578805
171	0xbc84b606	-0.016200077
172	0xbdd3a841	-0.10334826
173	0x3b19ba35	0.0023456935
174	0x3be87ee3	0.007095204
175	0xbd49067b	-0.049078446
176	0xbc278035	-0.010223438
177	0x3c8133ab	0.015771708
178	0x3d2c87cd	0.042121697
179	0x3cbf8509	0.023378866
180	0x3d662227	0.056184914
181	0xbcd1d71c	-0.025615267
182	0x3cc5a1f5	0.024125079
183	0xbd118679	-0.035528634
184	0x3ca0f06f	0.019645898
185	0x3d0e0a19	0.0346776
186	0x3ca1f7bb	0.019771447
187	0xbcb49ba3	-0.02204687
188	0x3db33528	0.08750373
189	0x3bfb1660	0.0076625794
190	0xbce3d6c1	-0.027812364
191	0xbcf25950	-0.029583603
192	0x3c85c73f	0.01633036
193	0xbdcbd6fd	-0.09953115
194	0x3cd5bd92	0.02609137
195	0x3c926b0f	0.017873315
196	0xbd3f5ec4	-0.046721235
197	0x3d29515a	0.04133735
198	0xbd1cecfe	-0.03831195
199	0x3d5e552b	0.05428044
200	0x3c81de0e	0.015852954
201	0xbb89e145	-0.0042077624
202	0x3d57259e	0.05252611
203	0xbcda5b46	-0.02665485
204	0xba8e4657	-0.0010854703
205	0x3c7f381e	0.015577344
206	0x3bf64970	0.0075160787
207	0xbcc10d14	-0.023565806
208	0x3d4feb63	0.05076159
209	0xbc8b283b	-0.016986957
210	0x3cf287f8	0.02960585
211	0x3c4adfc5	0.012382452
212	0xbb9b7925	-0.004744666
213	0xbc935f4c	-0.017989777
214	0xbd9279c6	-0.07152133
215	0xba9264fa	-0.0011169009
216	0xbd6c65c4	-0.05771424
217	0x3d50398b	0.050836127
218	0xbc9df8f8	-0.019283757
219	0x3c27f45e	0.010251133
220	0x3d49c485	0.04925968
221	0xbd179b95	-0.03701361
222	0x3d7d71a4	0.061875954
223	0x3d74a4f3	0.05972762
224	0x3d138d56	0.03602346
225	0x3d8e2ee5	0.06942538
226	0x3caaea44	0.02086366
227	0xbbac8360	-0.0052646846
228	0xbcad1185	-0.021126518
229	0x3ce405ca	0.027834792
230	0x3da9ac8c	0.08284864
231	0xbab50049	-0.0013809289
232	0xbcbd642d	-0.023119057
233	0x3cf1bffa	0.029510487
234	0x3d22bae1	0.039729003
235	0xbd8636ac	-0.065533966
236	0xbda2dfcd	-0.07952843
237	0x3c41ac21	0.011820824
238	0x3d071a96	0.03298434
239	0xbd46c7a5	-0.04853024
240	0xbcb765de	-0.022387441
241	0x3d399c86	0.045315288
242	0xbd5e0981	-0.054208282
243	0xbd517bd0	-0.051143467
244	0xba25cfdf	-0.00063252257
245	0xbdc17e31	-0.09447897
246	0xbd1a710e	-0.037705474
247	0xbd09635e	-0.03354203
248	0xbe37bbc0	-0.17942715
249	0xbd9d6745	-0.07685713
250	0xbb54ffd5	-0.003250112
251	0x3b4024d7	0.0029318833
252	0x3d83876d	0.06422315
253	0xbc6d28c1	-0.0144750485
254	0x3ba79c7f	0.0051150913
255	0xbd2ffc9c	-0.042965516

actor.6.bias f4 [12]
0	0xbdf3bf42	-0.11901714
1	0x3dc835ca	0.097758844
2	0xbc4cd828	-0.012502708
3	0x3d6c7c6a	0.057735838
4	0xbdc9b70d	-0.09849367
5	0xbbd38dfa	-0.006456134
6	0x3e084226	0.13306484
7	0xbc24d33e	-0.01006013
8	0x3d82855a	0.06373091
9	0x3db82c97	0.0899288
10	0x3de03dcc	0.10949287
11	0x3e04757d	0.12935443
