src/blind_locomotion/share/models/old_policy.onnx (onnx, 163093 bytes, 8 tensors)

actor.0.weight f4 [128, 45]
00000000: 6cd2 1dbe 060f 493e 3f0b 99be b0d0 0c3e
00000010: cfe1 00be b70a a1bd babf 433d 5747 26bf
00000020: 9e78 01bf 35fc cdbe 2afe 1b3e f847 09be
00000030: a640 7abd dac9 ad3e d722 4b3f d385 8f3e
00000040: 731d f5be 8825 343e 7e5c 8dbe fcf8 58be
00000050: 4efe 153f 2a3f b6bd f719 a93d 2fb2 32be
00000060: 6421 28bb ad1a 9e3d 89d1 edbc 6512 c1bd
00000070: 91d8 e23d af78 14bd 28a9 0a3e 8d72 453d
00000080: 09fd a93c 59cd 1fbe 5feb ca3e e88b 96be
00000090: b657 7fbe 73bc 093e 3583 9a3e c0b1 0abf
000000a0: f3f2 abbc e4a0 b6be 66c1 f33c c2d3 d6be
000000b0: 9a58 ec3c 72ee aebd 5357 c6bc d898 babe
000000c0: 7389 af3e 82d5 da3e a309 7e3e 8753 193e
000000d0: 7df2 aebb a44a f63e f676 7fbe 217c 803e
000000e0: 1151 c93e 8cd5 9dbd 5340 1a3f 1744 3b3f
000000f0: c148 9ebe 93f3 3b3f 1478 febe 0b32 0a3f
00000100: f505 1e3d 2afa 1ebe 6777 11bd 2063 4bbd
00000110: 88a1 333d 836a 3fbc 9998 4dbc 3fe4 aebd
00000120: ae9c a53a f2b5 1e3d a483 4b3d 1529 343b
00000130: eb58 4ebc cb4d 6dbd aa7d 10be 1991 d9bd
00000140: 8e99 313e ced3 63bc cfac 86be bdea f03d
00000150: 62df 2a3e af24 dbbd 8bcd 3d3d 1b17 a5bd
00000160: 1b1d b7bc 1ed7 b33e 54af e83d 3d78 53be
00000170: 512c d43e fa5a 5bbf c14d 69bf b2c3 c7bd
00000180: 8459 29bf 9443 19be 8718 b9be f0cd c2bc
00000190: b08f 693e aa50 b93d ce62 943d 03b2 c03e
000001a0: 0c9c d33e 3a9f 0abf b04e d8be 5624 4f3f
000001b0: 4cab 753e a25f 3f3e 6492 cfbe 4602 053e
000001c0: d16d e9bd 170e 9dbd 7ecf ed3d 56cb 14bd
000001d0: 8721 b8bd d2a8 193e d571 fdbd f479 003d
000001e0: c609 8f3d a01b 6f3d c804 fd3b c0bf 65be
000001f0: a2f9 a9be 2005 993e 88b0 1b3e e532 e3bd
00000200: c2ad 243e 9ab2 ac3d 0678 3cbe c432 e63d
00000210: bdf8 23be 2bb7 22be bc84 6d3e 732c 3ebd
00000220: ade2 f4bd f058 20bf 2354 773d 94d3 6f3e
00000230: ac0f bf3d 1521 1f3e 9a37 9bbc 5127 833f
00000240: 3f37 3f3c da82 acbe 6f6a 3bbd f67f 113f
00000250: c6ca d53e 6608 ca3d 293c 12bd de4f 863f
00000260: 51dc 3ebe 8410 6ebe e0f0 99be 655b bebe
00000270: 3ed7 e9bb fe04 10be c25a c23d 35e7 a73d
00000280: 92c3 59bd f19c 7dbd 31a6 7f3d d375 cbbd
00000290: c142 7abc 7186 11bd 3aee 933b 1aea eebc
000002a0: ac80 24be b42e 5e3d 636d 32be 9a5c 213e
000002b0: d222 d03d d6bc f1bc 7814 813d a6e1 e33c
000002c0: 275e 163e 59a6 2d3d 7103 1a3d 8aa7 c9bd
000002d0: a6f8 94bd 53d6 853e 9a30 0e3f ea32 493f
000002e0: 1d98 623d c470 eabd 2b07 28be 1c78 42bc
000002f0: 0170 1dbf 0dea 963e e653 573e 77bf 00bf
00000300: 4f67 3ebe f373 673f a8d0 303e c144 dc3d
00000310: 789b 2a3e 389e 803e 8c0d 54bd f5e2 113f
00000320: 74f6 833f f044 4cbd b21b b3bd 6c26 403d
00000330: 8114 a43d 1589 c9bc 02fb 1bbc f2e9 6a3d
00000340: 9121 463d b470 e43c 9186 f3bc 9ad6 c53a
00000350: 7c92 153d 649a f4bd 41cc a43c c66f b3bd
00000360: 4834 d93c 25e6 5f3d 6479 42bd a854 cc3d
00000370: c568 d8bd e05b 13bd e2b0 eebd 1fe8 14be
00000380: 769a 3f3b 63d4 b2bd af90 9c3c 7690 293d
00000390: 359c 343e 36e3 023e 72bc 313d 486f 1c3e
000003a0: 20be a33d 4367 dfbe 7299 37be 9e90 d43e
000003b0: 747c 473f 6c98 82be c8b8 c53d a8f9 b63e
000003c0: 95d3 763f 8f89 99bf 4067 8f3d 99ec 31be
000003d0: 2b25 c33e 7fc7 413e 32c2 2cbd b18f 5dbd
000003e0: de17 993d a559 abbd 7ddb 9d3c bb9b b0bc
000003f0: 3e0c 023d 8591 71bd 1dd9 0ebc 5405 10bb
-0.15412301 0.19634637 -0.29891393 0.13751483 -0.12586139 -0.07863372 0.047790267 -0.64952606
-0.5057467 -0.4023148 0.15233675 -0.1340636 -0.06109681 0.33943063 0.79350036 0.28031787
-0.4787403 0.17592442 -0.27609628 -0.2118873 0.58591163 -0.08898766 0.082569055 -0.17450784
-0.0025654668 0.07719932 -0.029030578 -0.094273366 0.11076463 -0.036247905 0.1354109 0.048204947
0.02075054 -0.15605678 0.396327 -0.29403615 -0.24935803 0.13450794 0.30178228 -0.54177475
-0.02098987 -0.35669625 0.029755305 -0.41958433 0.028850842 -0.085415736 -0.024211561 -0.36444736
0.34284553 0.4274102 0.24808364 0.1497327 -0.0053389654 0.4810382 -0.24947724 0.25094703
0.3931966 -0.077067465 0.602544 0.7315077 -0.30914882 0.7341854 -0.49700987 0.5398261
0.0385799 -0.15525118 -0.03551426 -0.04965508 0.04385522 -0.011683109 -0.012548589 -0.08539628
0.0012635195 0.038747735 0.04968609 0.0027490307 -0.012594442 -0.057935517 -0.14110437 -0.10623378
0.17343733 -0.013905479 -0.26303717 0.11763523 0.16686776 -0.10700356 0.0463386 -0.08061048
-0.022352746 0.3512506 0.11361566 -0.20651336 0.4144006 -0.85685694 -0.9113427 -0.09754123
-0.66152215 -0.14967185 -0.36151525 -0.02377984 0.22808719 0.090485886 0.07245408 0.37635812
0.41329992 -0.5414921 -0.42247534 0.8091482 0.23991126 0.18688825 -0.40541375 0.12989148
-0.11397899 -0.07668703 0.116118416 -0.03632673 -0.0899077 0.15005806 -0.12375227 0.031366304
0.06984286 0.058375955 0.0077215172 -0.22436428 -0.33198267 0.29886723 0.1520406 -0.11093692
0.16081908 0.08432503 -0.1840516 0.112401515 -0.16012855 -0.15890186 0.23195165 -0.04642911
-0.119572975 -0.6263571 0.060382973 0.23420554 0.09329161 0.15539964 -0.018947411 1.0246373
0.011670887 -0.33693582 -0.0457558 0.5683588 0.41756266 0.09864883 -0.035701904 1.0493124
-0.18638732 -0.23248488 -0.30066586 -0.37179103 -0.0071362546 -0.14064404 0.09489967 0.08198396
-0.053165026 -0.06191725 0.06241435 -0.099345826 -0.015274704 -0.035528604 0.004514483 -0.029164363
-0.1606471 0.05424376 -0.1742454 0.15757981 0.101628914 -0.02950899 0.06302732 0.027817558
0.14684354 0.04239497 0.03760094 -0.09846409 -0.072739884 0.2614008 0.5554291 0.78593314
0.055320848 -0.114472896 -0.16408984 -0.011869457 -0.6149903 0.29475442 0.21028098 -0.5029215
-0.18594097 0.904113 0.17267096 0.10755301 0.16660869 0.2512071 -0.05177073 0.56986934
1.0309587 -0.04987043 -0.08745517 0.046911642 0.08011723 -0.024601499 -0.009520294 0.057352014
0.048371855 0.027885772 -0.029727252 0.0015093863 0.03651665 -0.1194351 0.020116927 -0.087615535
0.026514187 0.054662842 -0.04747905 0.099770844 -0.10566858 -0.03597629 -0.116548315 -0.14541672
0.0029236353 -0.08731916 0.01911196 0.041397534 0.17637713 0.12781987 0.043392606 0.15276825
0.07995248 -0.4363347 -0.17929628 0.41516584 0.77924275 -0.25506914 0.09654385 0.35737348
0.964166 -1.1995105 0.07002115 -0.17375411 0.38114294 0.18923758 -0.042177387 -0.054092113
0.074752554 -0.08366708 0.0192697 -0.021558633 0.031749956 -0.05897667 -0.008718756 -0.0021975832

actor.0.bias f4 [128]
00000000: 660b 83bb d07b 3dbe 6cdb c0bc acd5 0f3e
00000010: 5b5e 1e3e 5237 2abe 833a dabd a1e9 2ebd
00000020: d36c c9bd e63a c63c 8549 8b3d ba14 6cbe
00000030: 2783 143d 15be 2e3e 3e5f 94bd 3aab 8bbd
00000040: 39ae 233d 02db 9dbc 13c8 713e 2ec9 9abe
00000050: 9c3f 50bd ee64 033e 5df7 77bb ad0e 06be
00000060: dbde 17be 3ef1 dbbd 42d7 f2bd c318 80be
00000070: 6812 43bc fd23 74bd 68eb f6bd 6030 c43b
00000080: c8ca 05bd 88d7 313e 94a0 213c 5424 8c3c
00000090: e707 a9bc 0380 313b cd0e ebbc 383a 4cbd
000000a0: b4ef 8c3d 236d 4ebd f94c 00be 7530 20bd
000000b0: 81f7 503d 3373 6a3d 015d 5cbe e585 393d
000000c0: 612f 1fbd 1313 e9bc d1eb 3c3e a8fc 2d3e
000000d0: 45ec 9e3d ad41 553e 2602 003d 7716 4dbe
000000e0: 7814 833d 484d 17be e019 063c 3044 c3bc
000000f0: 5cbf 3b3d 5b92 673d 5fa5 4e3e 7151 b1bc
00000100: 7dd1 18be f5f5 11be 834f f53d bb18 103e
00000110: 455c 253e 226a 2abd 6da3 573e 518b dd3d
00000120: 133c 3abe 3ec7 2bbd 400a 15be d890 aebd
00000130: ef27 ae3d 1a6d 663e 6cf6 11bd a1ef b5bc
00000140: 3224 eb3c bbd9 99bd 5cf4 e9bd 5466 cd3d
00000150: b5f4 953d b488 ec3d bfbf a8bc 9b08 80bc
00000160: 545b 7ebe a26a 443a fead 6bbe b632 423e
00000170: c899 33be f1c2 3fbe 0fdc 16be bfb4 c0bd
00000180: fcd3 d43b e957 943c 033c 0ebd 4d9d 213e
00000190: 3612 453e 1e9a 2e3e b936 173d 18ef 493e
000001a0: 1a2d 23be d2bd e63d 3924 16bd fb6b 903d
000001b0: 2286 13be de5c eabd db55 863e 47de c0bd
000001c0: 796c 063e 6648 cb3d 0419 3ebe cc11 923d
000001d0: 89f2 19bd 0caa 7abb f0b1 cbbd 38f7 d4bd
000001e0: ba8d a2bd 8d3b bf3d bf00 003d 2e60 18be
000001f0: 0782 eebd 374b 18be 2151 2a3e 80d9 863a
-0.0039991615 -0.18504262 -0.023542129 0.14046353 0.15465681 -0.16622666 -0.106556915 -0.042703275
-0.0983521 0.024198007 0.06801132 -0.23054782 0.03625789 0.17064698 -0.072447285 -0.06819768
0.039961074 -0.01926947 0.23611479 -0.30231613 -0.050841913 0.1283147 -0.003783665 -0.13091536
-0.14831106 -0.10739373 -0.118574634 -0.25018892 -0.011906244 -0.059604634 -0.12056619 0.005987212
-0.03266409 0.17367375 0.009864945 0.017107166 -0.020633651 0.0027084358 -0.028693581 -0.04986021
0.06881657 -0.05039705 -0.12529363 -0.039108712 0.051017288 0.05723877 -0.21519853 0.045293707
-0.038863543 -0.028451478 0.18449332 0.16990912 0.077599086 0.20825835 0.03125205 -0.20028101
0.064003885 -0.14775574 0.00818488 -0.023836225 0.04583679 0.05653606 0.20180272 -0.02164528
-0.14923663 -0.14253981 0.11978056 0.14071934 0.1614848 -0.041605122 0.21058436 0.10817588
-0.18186979 -0.04193806 -0.14554691 -0.085237205 0.085037105 0.22502556 -0.035635397 -0.02220899
0.028703783 -0.07512232 -0.11423561 0.10029283 0.07322065 0.115495116 -0.020599244 -0.015629103
-0.24839526 0.0007492696 -0.23015592 0.18964657 -0.17539132 -0.18726708 -0.14732383 -0.094094746
0.006494997 0.018108325 -0.0347252 0.15782662 0.19245228 0.17050979 0.036917422 0.19720113
-0.15935174 0.11266674 -0.03665564 0.07051846 -0.14406636 -0.11443494 0.26237378 -0.09417396
0.13127317 0.09925918 -0.1856423 0.07132301 -0.037584815 -0.0038248328 -0.09946048 -0.10398716
-0.079371884 0.0933753 0.03125071 -0.1488044 -0.116458945 -0.14872442 0.1663251 0.0010288209

actor.2.weight f4 [128, 128]
00000000: 98f1 a83d f9f7 5b3d 65c3 6dbd ce0c d03d
00000010: f42f 42be 7ef4 cf3d 3dc3 7abd 42fe 12bd
00000020: 2399 c4bc 2e6b 753d 2459 6f3d 8a27 d73c
00000030: fd6b 883d 3b35 8fbd 6a25 3bbd c995 cdbd
00000040: c642 fdbc 5efb 563d e26e 9bbd 7c1d 933c
00000050: 1bcd cdba 6440 96bd ca58 793e 1c39 96bd
00000060: 71cb 00bd 4386 273d 5f3b 013e a9ca 493a
00000070: f25b b03d 6cc7 563d 0e86 9f3c da1c 7dbd
00000080: 7845 fa3d 2b83 c0bc 70de ec3d 84ab d33d
00000090: c580 d33d bd2b c5bd 2c92 72bb 6106 3b3d
000000a0: 3999 b13d f311 103c 985d 8dba 8cda 8c3c
000000b0: 63cb 873c d6ca 60be a571 2f3e df52 b23d
000000c0: 62c2 0f3d 05d1 523d c448 a2bd 4ed4 d0bc
000000d0: 0ba7 3e3a 5f4c 893d 1df8 aabd 3b42 963d
000000e0: 5d10 a1bd 974e 8c3e c609 253e bc11 23bc
000000f0: 222b 05be 10c1 a4bd bbd2 0fbd 3b7c bd3d
00000100: 2038 353e f3be e9bd 643a aa3c 148a 8dbd
00000110: 9bc4 5abd d8b3 823d a3eb fdbd db87 28bd
00000120: d0b6 f63c adb9 d8bc 2160 0d3e c68b a43d
00000130: b747 e63d 2688 5fbe 3432 7ebd 7b17 0fbe
00000140: 8d24 d73c 1d68 dbbd 4398 183e 6f93 59be
00000150: 2ee4 48bd 906b d8bd 529c 7bbe dac7 0f3d
00000160: 37bb a2bd 8ad7 2cbe d9b2 14bd cb38 0dbe
00000170: 3c6b c5bc 293b bb3c e139 883c b78c 0abd
00000180: e579 f93c 913c 8b3c 94ed 0b3c fc1c 64be
00000190: 5525 cabd b789 08be 559e 0fbe eb20 0cbe
000001a0: 6094 cdbd 8d47 d1bc ac54 32be a87f a13d
000001b0: e634 533e da7b adba ce9c 9ebc 42ce fbbd
000001c0: f6c1 f43c 95ff 2f3e 2def 7ebe 16d9 f0bd
000001d0: d9c2 a6bd 7276 6b3c d182 d33d ba58 423d
000001e0: a0af 463e 3947 1c3c 94eb 863b 76b5 443e
000001f0: 0937 84bc a7af cfbd c00f 88be 7199 8ebd
00000200: e013 1fbd 4bd5 82bd bbaf e43d 91d3 54be
00000210: 3e52 d8bd cad2 453e 38df 193e 262a 57bb
00000220: 8695 93bd b927 ed3c df03 cebd 3236 d53d
00000230: aeb3 b03c c366 d6bd 44ad 21bd 34c1 4bbc
00000240: 6bdf 8fbd 4157 f33d 3d06 d8bc 6fb1 913c
00000250: d3e9 993c 9e70 643c d896 d23d efdf 8ebd
00000260: 0a07 9fbd 73c8 0e3e 3f0e 363d e3ac e53c
00000270: 3074 44bc 4e1d 763d 9be2 57bd dafc 02be
00000280: fd60 033e 9096 50bd e03e 23bd a061 c0bd
00000290: c6d0 7fbc 0c6c 453e 4eaa 1ebd f286 65bd
000002a0: 25e8 003e b416 a1bd 271f f63d cc49 923d
000002b0: f393 013e ba24 643d eedb 733d 6aac 0abe
000002c0: e359 75bd 7d14 9fbd 4b92 9e3d 109f 66bd
000002d0: 16c1 e03d 8a51 25bd c2f4 13bd c4e9 aa3d
000002e0: 155e 5ebc 7908 ac3d 01e9 85bc 6038 fb3d
000002f0: 3bfc cd3d d912 29bd 9548 053e 7bcd 22bc
00000300: 4d6c a1bd 8ec3 823d f219 1cbe 77a1 8dbd
00000310: 5c23 073e b0d9 443d 5468 5b3d 733c 833e
00000320: a34f 003d db6a 59bd 2178 1b3d 8110 ac3d
00000330: 2282 0dbe 9ea6 0ebe 3d41 f43c f6b1 a3bc
00000340: f5d5 03bd 81e1 983d 99f3 f53b b581 9dbc
00000350: 6224 033d c4eb 00bd dff9 023e b436 72bd
00000360: 1ab7 2ebe 6819 2fbe 8282 e63d fbd6 403e
00000370: 4cba b43d cfa5 1e3e 076e e43d 30ee 363d
00000380: 88c6 8a3c 7236 8cbd d5f5 983b 9e98 243c
00000390: 9f92 243a 891b b0bd c0af 40be 0799 59bd
000003a0: 8309 5abd 5045 803d 50b6 43bc 552d 933d
000003b0: 3440 703e d558 013e 5c70 b93c ee48 843e
000003c0: 8df8 113d 58d0 643b 14d9 493e e4a5 ecbd
000003d0: badf a53c 61be 8d3c 92dc 4abb a019 e7bc
000003e0: 3f84 61be 15f5 613e 9a19 f93c 7358 56bd
000003f0: 24eb 22bd 8332 263d ee5c 2ebe ec11 123e
0.08249205 0.053703282 -0.05804767 0.10158692 -0.18963605 0.10154055 -0.06122135 -0.03588701
-0.023998803 0.059916668 0.05843462 0.02626397 0.06661222 -0.06992575 -0.045689978 -0.10038335
-0.03091563 0.052485816 -0.075895086 0.017958395 -0.0015701385 -0.073365 0.24350277 -0.073351115
-0.031444017 0.040899526 0.12620305 0.000769774 0.08611287 0.052436277 0.019473102 -0.061795093
0.12220281 -0.023500046 0.11565864 0.103354484 0.10327295 -0.09627483 -0.0037013395 0.04566038
0.08671803 0.008793342 -0.0010785339 0.017194055 0.016576475 -0.21952376 0.17133196 0.08707213
0.035097487 0.051468868 -0.07924035 -0.02549186 0.0007272816 0.0670402 -0.08348105 0.07336851
-0.07864449 0.2740371 0.1611701 -0.009952959 -0.13004735 -0.08044636 -0.035113078 0.09252211
0.17697191 -0.11413374 0.020779796 -0.06911102 -0.053410154 0.06381959 -0.1239846 -0.041145187
0.030116469 -0.026455725 0.13806202 0.08034472 0.11244147 -0.2182928 -0.062059596 -0.13973801
0.026262546 -0.107132174 0.14901833 -0.21247648 -0.049045734 -0.10567391 -0.2457135 0.035102703
-0.07945865 -0.16879097 -0.036303375 -0.13791196 -0.024098985 0.022855358 0.016629161 -0.033825602
0.030453632 0.016996654 0.00854053 -0.22276682 -0.09870402 -0.13333784 -0.14025243 -0.13684432
-0.10038066 -0.025546813 -0.17415112 0.078856766 0.20625648 -0.0013235763 -0.01936188 -0.122952
0.029877644 0.1718734 -0.24895926 -0.11760156 -0.08142633 0.014371501 0.103276856 0.047447897
0.19402933 0.009538465 0.0041174386 0.19209847 -0.016139524 -0.10140925 -0.26574516 -0.069628604
-0.038837314 -0.06388339 0.111663304 -0.20783831 -0.105625615 0.19318691 0.15026557 -0.003283152
-0.07206254 0.028949605 -0.10059332 0.104107276 0.021570053 -0.10468819 -0.03947188 -0.0124362
-0.070250355 0.11881877 -0.026370162 0.017784802 0.018788254 0.013942866 0.102826774 -0.06976306
-0.077650145 0.13943653 0.04444718 0.02803654 -0.011990592 0.06008654 -0.052706342 -0.12791768
0.12829967 -0.050924838 -0.039854884 -0.093936205 -0.01561374 0.19279498 -0.038736634 -0.056036897
0.12588556 -0.078656584 0.120176606 0.07142982 0.12654094 0.055699088 0.059535913 -0.13542333
-0.059900176 -0.0776758 0.07742747 -0.056304038 0.10974328 -0.040360965 -0.03612209 0.083453685
-0.013572236 0.084000535 -0.016346456 0.12266612 0.10057875 -0.04127774 0.13015969 -0.009936686
-0.07881985 0.06384955 -0.15244272 -0.069155626 0.13197082 0.048059165 0.053566292 0.25632057
0.031325947 -0.05308042 0.03795636 0.08401585 -0.13819173 -0.13930747 0.029816264 -0.01998232
-0.032186467 0.074648865 0.0075058457 -0.019226888 0.03201712 -0.031474844 0.12790631 -0.0591342
-0.17062035 -0.17099535 0.11255361 0.18832009 0.08824596 0.15492938 0.111537986 0.044660747
0.01694037 -0.06846322 0.0046679773 0.010046152 0.0006277952 -0.08599002 -0.18817043 -0.053124454
-0.053231727 0.0626322 -0.011945322 0.07186381 0.23461992 0.12631543 0.022636585 0.2583689
0.035637427 0.0034914222 0.19711715 -0.115550786 0.020248283 0.017302694 -0.0030954224 -0.028210461
-0.22023104 0.22066148 0.030407716 -0.052330445 -0.03977503 0.040575515 -0.17027637 0.14264649

actor.2.bias f4 [128]
00000000: 8518 dabd 7c84 08be 6e49 23be bd6d bdbd
00000010: b312 aebc 1661 88bd cfda 363d 8c13 3bbe
00000020: f1f3 92bc bf73 85bc b757 333d 39ff 163d
00000030: 80eb f4bd a458 cfbd 8fb8 a83d d804 8d3c
00000040: 22f7 a6bd b4c9 3bbe 3e85 2abd a691 06be
00000050: bc83 82bd 0e30 883c c147 42be 6af6 6bbd
00000060: 77c4 82bb 2505 4f3d d52e cfbd 3210 bb3c
00000070: d297 3b3c 6e9d f13d f7a9 21be 02af 00be
00000080: 3ce7 a73d 7c69 84bd 65cd 893c edd1 f5bd
00000090: bd61 72be bd21 3ebd eebb 80bc 116e ff3b
000000a0: 65b6 1d3d 7386 c8bd 3ac4 e53c 52b6 46bd
000000b0: 18ea 31be f836 b7bc f013 2abc 8978 4abe
000000c0: c364 10be c738 20bd 91b7 2ebe 8a5b 05be
000000d0: 60e0 f7bd c175 0abe 808c 043d 7834 4cbd
000000e0: b661 03bd 8e35 0cbe 0c29 a3bd 96d2 a43d
000000f0: c624 2ebd 3943 4ebd 064e b8bd e38c ecbd
00000100: 1868 9ebd 3bb8 b2bd 1d91 1cbd 1597 54be
00000110: e08d c7bd 9509 42bd 8644 be3d 143c a1bd
00000120: 1e67 24bd ba80 1abd a16e 71bc 7207 f6bd
00000130: 0092 c5bd 3f39 0ebe 973c 3ebd ca05 4d3c
00000140: 8f8b 653d 92b2 903d 005c aabc 3c12 88bd
00000150: ddcb 2bbd 243c 02be 94f0 a93d fabd 50be
00000160: 2e29 8f3d a86a f6bc 22bc 8e3d 0953 c8bd
00000170: 0789 e0bd fe8c d2bd 9c12 fabd 0c0d b9bc
00000180: 9a3c 123d a7d8 8dbb 4782 fabd d2a9 69bd
00000190: afea bbbd 19d3 90bd 2329 15be c1e4 e4bd
000001a0: 312e 983d 5777 9f3d c9a8 2cbe 97af 46bb
000001b0: cc5d 87bd 6bc7 193d 5014 f3bc a5a2 00be
000001c0: 3144 44bd 90af 91bd cfac fbbd f6b9 cabd
000001d0: eedf 06bd 4212 c2bd 59f9 cabd 2534 db3c
000001e0: dfbb 9fbd c6e5 bd3c 3f5e e0bd 821d 3cbe
000001f0: bce4 9dbd b4ec 1abe f6fe adbd 6f6f dfbd
-0.10649208 -0.13331789 -0.1594598 -0.092494465 -0.02124915 -0.06659143 0.044642266 -0.18269175
-0.017938586 -0.016290544 0.043784823 0.036864493 -0.119589806 -0.10124329 0.08238327 0.017214224
-0.081526056 -0.18338662 -0.041630976 -0.13141498 -0.063727826 0.016624477 -0.18972684 -0.057608046
-0.0039907056 0.050542016 -0.101163544 0.022834871 0.011449771 0.117976055 -0.15787493 -0.1256676
0.08198401 -0.06465432 0.016821573 -0.12002931 -0.23670097 -0.046418894 -0.015714612 0.0077951034
0.038504023 -0.09791269 0.02804767 -0.048513718 -0.17374456 -0.022365078 -0.01038073 -0.19772543
-0.14100938 -0.039116647 -0.17062213 -0.130232 -0.12103343 -0.13521482 0.032360554 -0.049854726
-0.032075606 -0.13692304 -0.079668134 0.080479786 -0.04251554 -0.050357077 -0.08999257 -0.115503095
-0.07734698 -0.087265454 -0.03822433 -0.20760758 -0.097438574 -0.04737242 0.092904136 -0.07872787
-0.040137403 -0.03772042 -0.014735849 -0.12013139 -0.09646988 -0.13889025 -0.0464445 0.012513587
0.056041297 0.070653096 -0.020795822 -0.06644103 -0.041942466 -0.12718254 0.0829784 -0.2038497
0.06990276 -0.030080155 0.06969477 -0.09781463 -0.10963636 -0.102807984 -0.12210581 -0.022589229
0.035702325 -0.0043288055 -0.1223188 -0.05704672 -0.09175622 -0.07071514 -0.14566474 -0.11176444
0.07430685 0.07786434 -0.16861261 -0.0030317062 -0.06609687 0.037543695 -0.029672772 -0.12562044
-0.047916595 -0.07113564 -0.1228882 -0.098987505 -0.0329284 -0.09476139 -0.099108405 0.026758263
-0.077995054 0.023180854 -0.10955476 -0.18370631 -0.07709643 -0.15129358 -0.084958956 -0.10909926

actor.4.weight f4 [128, 128]
00000000: 48ca 633d 3b44 153e 3a1e d4bb 1cff 863d
00000010: 8d88 d33c e7ab 4a3d db22 a13d 11f1 9bbd
00000020: 52f2 973d 0ce9 c63d bb86 09be b1c7 36bd
00000030: 5ff8 10bd 351b 643d d205 d93c 47ef 1f3d
00000040: 3ad2 503d 457b 6ebd 906f 38bd cae6 a03d
00000050: 1ed9 7ebd 2199 af3c 071d 653d 013d 673d
00000060: 064d 4b3e e364 353e 628b d7bd d917 7dbd
00000070: 294a 003e d53e e73d 635e 103e a020 e33b
00000080: 16f5 ac3c 4eaa 823d 1f7a 1dbc 7570 8e3d
00000090: 0017 f03d cd89 c83c 5c76 eb3c 906e 183d
000000a0: bab1 2c3d 267b 913c 53a8 5fbc fe71 13be
000000b0: 1fa5 bfbc 2f53 e6bd 6904 6d3d 776f 1e3e
000000c0: fd86 3d3c b2a9 973d 9037 4ebc ea62 39bd
000000d0: 883a 5cbb a3b9 d3bd 46b4 cf3d 74b3 57bd
000000e0: b949 b5bd 0187 c4bc 3d0b 7d3d 518a e83d
000000f0: 53ea 4a3d c01a bebd 504f e63a 4862 4d3d
00000100: adcc 8d3d 9764 c73a e973 60bd 1822 cd3b
00000110: 46d9 fd3c 5201 1dbb b67a 7e3d 0575 e9bb
00000120: 63d0 00bc 9710 8c3c 941e 203d 6c1b 1a3e
00000130: 655a 33bd a535 a03d 8690 213e 53b8 263d
00000140: a635 8c3c f86b 093e 8256 873d 07a2 5dbd
00000150: 6364 01bd aa4f 0b3d 2da0 15bc 931e 6b3d
00000160: c559 d9bd 5334 18be 1695 1f3d 4f64 cabc
00000170: 1d1d 86bc 25fc cb3c f0d5 cfbd ebab 9a3c
00000180: aa20 b53d 0667 923d 5c6d 5ebd f256 b53c
00000190: 771b 1abd 7e34 203e f0c0 463c 2e22 a1bd
000001a0: c03c 143e c7ee 133e 3d7f 483d 86b6 5a3d
000001b0: c83c d5bd e784 c03c 19c3 d03c cfcf 383d
000001c0: 34ab c63c 03fd b83d 4ae1 40bd 58ea dc3a
000001d0: f2cc 87bc 0a45 08bd b5d5 c1bd 6a5a 3c3d
000001e0: a1c7 dfbd e3a5 aa3d 8c93 a1bd 875c 343d
000001f0: cb03 163d ee36 26be a255 5ebd d5dd d0bd
00000200: 7fb4 9a3d 3452 6fbd f95f a03c 550f 883d
00000210: 58b8 053e ded5 dc3d 4bac 7e3d d7c6 b33d
00000220: b6c0 d43d c39d 18bd 22ef 843c a93d 83bd
00000230: 68a2 9ebc 6d21 92bd 9055 ee3a 234e 613d
00000240: dedb 1ebd e55b 813c f9b3 a4bd 37e0 09bd
00000250: aba9 52bb 087b c4bc 11a4 933d 87e4 1f3e
00000260: 749c 2a3e 4c73 6a3d f1dd f0bd cd2a a03d
00000270: 95f1 64ba a3f2 943d bda5 b8bc 0bb0 fd3c
00000280: a481 323d 5f41 9ebd 179d 883c 6708 833d
00000290: 2a47 f6bc ad3d 893d a771 a03d d2ff 2a3e
000002a0: 1c2a c0bd 7cae 173e 8be1 f43d 6972 a2bd
000002b0: e750 603d 72b6 fcbd f342 1d3d 231c 1b3e
000002c0: 3c32 163e 2f35 813d 9baa 5ebd cda1 113e
000002d0: ed89 96bd 1772 a8bd bf72 d83c 5ae8 b53d
000002e0: 2c4d 65bd d588 053e 4006 803d 7774 003d
000002f0: fe48 dfbb 6fa3 bdbd ed20 5bb8 5140 393d
00000300: 49e2 bdbc 12ed 0fbd 4d78 b5bd 3d3d ec3d
00000310: 3458 58bd c099 9b3d 3a49 76bc 373c 8ebd
00000320: 63f7 a1bd ccdd 9abd d40a 06bd b994 13bd
00000330: 338e 123d 2d2b 56bc c67a 5f3d 1c10 b53c
00000340: 2905 3c3c 8f32 adbd 64a8 9c3b 4f80 903d
00000350: 92ff 52bd 4c81 f73c 5f50 5a3c 50ed 8fbc
00000360: 0938 283c 1df7 173d 3c00 f9bd c01b 303d
00000370: 84a4 cc3d 7977 343d 0dd7 5c3d d902 debd
00000380: 3e22 b53d aa76 993d 2830 a93d 3716 e93d
00000390: a833 59bd 39ee 2a3d 11b2 97bd ca45 d83c
000003a0: 0883 6cbc a622 363d f2ce eabc d031 9ebd
000003b0: 355a a53b 638c 20bd d5a5 9c3d 7dd7 a03d
000003c0: f599 393d 2eaa 01be d61e e9bc bd3d 36bd
000003d0: 5c35 21be 58e9 963d 8696 7a3d 25d7 4b3c
000003e0: b1e4 76bd 4deb 703b 8224 eabd 8725 afbd
000003f0: 94ea 60bd 8638 4dbd 3eb2 d0bd 712a d23d
0.055612832 0.14576809 -0.00647333 0.06591627 0.025821948 0.049480345 0.07867976 -0.07614339
0.07419266 0.09712419 -0.13430302 -0.044624034 -0.035393115 0.05569001 0.026492033 0.039046552
0.050981738 -0.058223028 -0.04502827 0.078565195 -0.062218778 0.021435322 0.055935886 0.056454662
0.19853601 0.17714266 -0.10524632 -0.06179032 0.1252829 0.11291281 0.14098506 0.0069313794
0.02111296 0.06380139 -0.0096116355 0.06955043 0.11723137 0.024479771 0.028742962 0.037214816
0.04216168 0.017758917 -0.013650971 -0.14398953 -0.023394166 -0.11246335 0.057865534 0.15472208
0.011567828 0.07405414 -0.012586489 -0.045260347 -0.0033604223 -0.10338142 0.10141806 -0.052661374
-0.08851952 -0.023990156 0.061778296 0.11354507 0.049539875 -0.09282446 0.0017571244 0.050142556
0.069238044 0.0015212473 -0.05479804 0.006260168 0.030987393 -0.0023957086 0.062128745 -0.0071245455
-0.007862183 0.017097754 0.03909166 0.15049523 -0.04378738 0.07822732 0.15777788 0.04070313
0.017115425 0.13420093 0.06608297 -0.0541096 -0.031589877 0.03401152 -0.009132427 0.057402205
-0.10612825 -0.1486371 0.03896054 -0.024706034 -0.016371304 0.024900505 -0.10148227 0.018880805
0.08844121 0.071485564 -0.054303512 0.022136185 -0.03762385 0.15645024 0.012130961 -0.078678474
0.144763 0.14446555 0.04894947 0.053396724 -0.10411984 0.023500873 0.025483655 0.045120057
0.024251558 0.09032633 -0.047089852 0.0016854508 -0.016577218 -0.033268966 -0.094645895 0.045984663
-0.10926748 0.08332422 -0.078894705 0.044033553 0.03662471 -0.16231892 -0.054280885 -0.10198561
0.07553958 -0.058428004 0.019577013 0.06643549 0.13058603 0.107829794 0.06217603 0.0877816
0.10388319 -0.03725983 0.016227309 -0.06408245 -0.01936455 -0.07135282 0.0018183459 0.055006158
-0.0387839 0.015790889 -0.080421396 -0.033661094 -0.0032144587 -0.023984447 0.072090276 0.1561452
0.16661245 0.057238862 -0.11761082 0.078206636 -0.00087335083 0.07272842 -0.022539968 0.030967733
0.043580666 -0.07727312 0.016676469 0.06398087 -0.03006323 0.06701217 0.078341775 0.1669915
-0.09383032 0.14812654 0.119570814 -0.07931978 0.054764654 -0.12339486 0.038393926 0.15147452
0.146676 0.06308972 -0.05436192 0.14221878 -0.07350526 -0.08224886 0.026421903 0.08882208
-0.0559818 0.13040479 0.06251192 0.03136107 -0.0068141213 -0.09259688 -5.2244333e-05 0.045227353
-0.02317919 -0.035138197 -0.08860836 0.11535118 -0.052818492 0.07597685 -0.015032107 -0.06945079
-0.079085134 -0.07561836 -0.03272517 -0.036030505 0.035780143 -0.013071817 0.054560445 0.022102408
0.01147584 -0.08456909 0.004780816 0.07055723 -0.051513262 0.03021302 0.013324826 -0.017569214
0.010267266 0.0371009 -0.12158248 0.042995214 0.09992316 0.04405925 0.053916026 -0.10840387
0.08844422 0.074933365 0.08261138 0.1138119 -0.05302778 0.041731093 -0.0740701 0.026400466
-0.014435537 0.044466637 -0.028663132 -0.07724345 0.005046154 -0.039196383 0.076488174 0.07853601
0.04531284 -0.12662575 -0.028457087 -0.044492472 -0.15743011 0.073687255 0.061178707 0.012441431
-0.06027669 0.0036761344 -0.114327446 -0.0855208 -0.05491121 -0.050102733 -0.10190247 0.10262001

actor.4.bias f4 [128]
00000000: 8e3f 98bd c5d5 433d 7a69 54bd 7f50 6ebc
00000010: 19f0 a9bd 2712 133d bc39 77be 7928 21be
00000020: 8b56 30bd 7b98 d23d 648b ecbd c0aa 93bc
00000030: e3e3 a2bc 9590 0e3d dd08 833d bd09 0bbe
00000040: f1c2 46bd 1ade 2f3d c5c2 cebc 0d09 d0bc
00000050: 362b 99bc 3445 bfbd 87eb 13bd c744 27bd
00000060: a73b eabd 26fd 9fbc ed50 a9bc 7e4c 383d
00000070: 099c 80be 5940 f0bd 9779 323d 53fb 0dbd
00000080: 6ba5 32be a274 193d 60a0 c33d 78d7 3cbe
00000090: b0df 713d a699 563c f0b1 d9bd b177 473d
000000a0: 1ff6 43be 417d 9a3d 7a05 39bd 9e50 863d
000000b0: 6099 213d 9e0a 04be b86d ddbd 0f3f 743c
000000c0: c6ce cb3b 4e38 a3ba 5878 84bd 4a6a 2ebd
000000d0: 2f28 51be 28d7 b73d 2c72 7abd 790b 443d
000000e0: 696c 7ebd 8f6d 06be fd4f 48bd 061c 7dbc
000000f0: d41d 46bb 5882 12bd f20f 98be 8534 873d
00000100: b03a 08be 91f9 d43b 070a efbc ecbe 4fbe
00000110: fd2a cfba 5a53 2dbc 3138 163d 8dd1 1bbe
00000120: a738 ea3b 421e 05be acf1 9fbd 36da 5f3d
00000130: 214b f7bd 3421 21be 6b95 b03c ecfc abbb
00000140: 9d30 cdbd 9fd4 1ebc 0996 3f3c f0c2 69be
00000150: a653 38bb 0ff8 2abd 4c63 b93c 1df4 733d
00000160: 3ac3 9a3c 3bd5 98bd 9cf5 b93d 1d63 20bd
00000170: 1cac 163d 58e9 afbc e28a 493b 4d4f f03d
00000180: a1d3 e9bd 7067 6abd 4a4a 1abe 023d 033e
00000190: d1a8 14be 9012 d2bc baf2 f1bd bbd8 68bd
000001a0: d2f9 c9bd c47e b13d bb92 b9bd dfa5 23bd
000001b0: b07c 04bd cd43 02be 799c 333c 5356 013d
000001c0: 225f 27be 65b3 40bc 1579 c4bd 3a12 13be
000001d0: 6e10 703d d063 bebd 11f3 393b 4b3e dcbc
000001e0: d8da 81bd affc d93c d415 29be a301 9d3d
000001f0: c683 51bd 7c15 8abc b096 a6bd 5a8e 8fbc
-0.07433997 0.04781129 -0.051858403 -0.014545559 -0.08297748 0.035905983 -0.24143118 -0.15738095
-0.043051284 0.102829896 -0.11550024 -0.018025756 -0.019884055 0.034805853 0.06398175 -0.13577934
-0.048525754 0.042936422 -0.025239358 -0.02539494 -0.018697362 -0.09339371 -0.03611329 -0.040837076
-0.11437159 -0.01952989 -0.020668471 0.044994824 -0.25119045 -0.11731023 0.04357299 -0.03466351
-0.17445914 0.037464745 0.095520735 -0.1844157 0.059051216 0.013098156 -0.10629642 0.04869813
-0.19136856 0.075434215 -0.04517124 0.06558345 0.03945291 -0.12894675 -0.10811943 0.014907612
0.0062197177 -0.0012452693 -0.06468266 -0.042581834 -0.20425485 0.08976585 -0.06114404 0.047862504
-0.062115107 -0.13127731 -0.048904408 -0.015448576 -0.0030230181 -0.035768837 -0.29699665 0.06601814
-0.13303638 0.006499477 -0.029179586 -0.20287675 -0.0015805658 -0.010578955 0.036674682 -0.15216656
0.0071478668 -0.12999824 -0.07809767 0.05465146 -0.120748766 -0.15735322 0.021555623 -0.0052486565
-0.10019038 -0.0096942475 0.011693486 -0.22828269 -0.002812603 -0.041740473 0.022630356 0.059558976
0.01889192 -0.074625455 0.090800494 -0.03915702 0.03678523 -0.021473572 0.0030752947 0.117338754
-0.11417318 -0.057227552 -0.15067402 0.12816241 -0.14517523 -0.025643617 -0.118138745 -0.056847315
-0.098621026 0.08666757 -0.0906119 -0.03995311 -0.032345474 -0.12721176 0.010962599 0.031576466
-0.16344884 -0.011761521 -0.09593407 -0.14362422 0.05860942 -0.092963815 0.0028373639 -0.026885172
-0.06340569 0.026609747 -0.16512233 0.07666328 -0.05115106 -0.016855948 -0.0813421 -0.017523933

actor.6.weight f4 [12, 128]
00000000: 05cb 15ba 3b04 84bc d194 14bb 188d d03b
00000010: f3d4 b0bd ca3e ec3a 0cc0 8e3d 9ceb 17bd
00000020: 37f4 c2bb 474f 8c3c 1af3 c6bd e6a3 0ebd
00000030: bbb0 1bbd 3169 083c 373a 3ebd 3be1 fcbc
00000040: 5d02 be3c 3fd2 d5bc f32a 5e3d 5131 3dbd
00000050: 7a5b 943d 83dc ac3d 7076 62bc 0f82 a7bd
00000060: 8f6e 47b9 3ec9 d3bc 5722 4a3d a36e 28be
00000070: 222b b13d e5aa 5c3d a108 64bd d27c 0abd
00000080: 4bb9 22bd 53e0 b2bd 7894 06bd ea80 193d
00000090: 3c52 77bc 7bd1 993d ca1f 7dbb 550c 0fbc
000000a0: 5f28 a3bd aa5d 9e3c 8166 763d 45ee a93c
000000b0: 3156 843b 5a62 80bc b9b9 b5bd 016e 98bc
000000c0: e7ba e63b c451 fbbd 6ae2 903b 6343 40bd
000000d0: 60db 753d b3ae 99bd a190 7b3c 578e 0dbc
000000e0: 818a b53c 5661 a03c 5043 cabd c004 37bd
000000f0: c5a5 893c 1b53 a43c a4ab c03d f50a aebb
00000100: d001 463c 4f77 973c c253 b13c 4f9a 653c
00000110: 5484 4dbd d257 7e3c 71fc 8e3d 157e 6b3c
00000120: 4c97 1fbd b202 6b3d 1086 d53c d35a 413c
00000130: 04c1 0bbd 2003 88bc aee5 8f3c ca94 e43c
00000140: e74e 1b3d 7834 8e3c 475f cd3b cf8d dd3b
00000150: 3520 3bbd 7061 823d f7b4 893c 5f61 f9bd
00000160: cba4 183d 4ee4 e93d ec9d 463b 29d1 78bd
00000170: 7da1 22bd 9855 193b 6be2 a63c 9d65 133d
00000180: bb66 ce3c 7b17 4e3c 5124 cfbd ec60 10bd
00000190: 15c7 a43c 45e9 c0bd bd5e 383d 9ceb 71bc
000001a0: 518d 3cbd 0259 cb3b a30e 543d 06d8 c43d
000001b0: 1b78 a3bd 64e6 2c3d 2d8c 7bbd e41f 093c
000001c0: 51c3 e03c 604a e93c 4116 22bd 76eb a2bd
000001d0: 760f debc 9184 d4bd 0ba0 273d 142e 3c3d
000001e0: aeee a23c ec49 31bc 5e80 543d e9e3 d23c
000001f0: 16bb 063d 876a d3bc 0921 053d 163d c13c
00000200: 2eba aa3d 069a 7bbd 1345 52bb 1e1b 7e3c
00000210: 8070 e6bc e0a0 183d d1bd 4abe b3d0 37bd
00000220: 5dd5 a13d 152c e03b bc78 4b3d 594d 7abb
00000230: 190f 333d 950e 0d3d 9a08 4c3d b4a3 5a3d
00000240: c0d8 b33d d1b4 d03d 00b3 50bc 5f05 2ebb
00000250: 26c7 14bd 3f25 5bbd d1b6 e13c 3001 293c
00000260: bfd2 27bd 7cc4 39bc c3e9 043c 9c7a 87bc
00000270: 9397 b9bc 71cd abbd 6b50 bb3c 6274 223d
00000280: f413 17bd aee9 853d f920 68bd 7bcf 97bc
00000290: ddb2 6b3a ba31 32bd af87 31bd 89cd c4bc
000002a0: 32c2 d9bc ae70 01bc 3323 233d ecc8 9c3d
000002b0: 1780 e83c 9376 8dbc 70b3 203d deab 763d
000002c0: de2d 983d 8a21 42bb 9255 59bd 9bd3 de3d
000002d0: d766 fdbd 0465 86bd 2fdb 92bd 03a2 a4bc
000002e0: f141 97bd 653d 9b3c ec48 d53c 3299 4f3d
000002f0: c93a 2d3b b93c 78bc 378c a2bc 09eb 8fbb
00000300: c0a8 ee3d 934a e03a ae3b 7f3c bf64 88bd
00000310: df77 b63d caed 173d 5ebd cb3c 1c82 cebc
00000320: c36c 78bc 6b84 cdbc 06d1 a2bd c2dd c2bd
00000330: f34f 16bc 3f82 8bbd d244 8b3c 371c 3a3c
00000340: eb8e 2cbd ba26 8dbc 2dbc 3c3d cc43 753c
00000350: 48cc 29bc c235 3b3d 5fce 13bc dc75 8abd
00000360: e281 98bb bc74 81bd c6f5 e6bc 7ee0 3cbd
00000370: 60e7 fbbc b6d2 3fbd b3f1 a53d 798f db3c
00000380: f7e4 033d 0302 623d 3991 cf3c d793 873d
00000390: b200 9ebd 5851 02bd e4f1 97bd 813b 06bc
000003a0: 3a63 14bd 3dc1 b13c 5dcd 0cbd f537 653c
000003b0: 6f23 e63d a60f 673b 100d 923c 64df 7d3c
000003c0: 9af9 3bbb 8851 3a3d 8758 ec3c de51 3f3d
000003d0: 3d8e 123d 9f35 8ebb 5ead 973c 75a9 0ebc
000003e0: d103 3ebc d441 a03c 854d 41bc 4cbe 903c
000003f0: f14b 36bc e88f 31bd 1f10 07bb 81ce bbbc
-0.0005714151 -0.016115298 -0.002267171 0.006364476 -0.08634367 0.0018024084 0.06970224 -0.03708993
-0.005949523 0.017127646 -0.09714337 -0.034824274 -0.03801034 0.008325861 -0.046442237 -0.030869117
0.023194486 -0.02610123 0.05424018 -0.04618961 0.0724401 0.08440497 -0.013822183 -0.081791036
-0.00019019305 -0.025852796 0.049349155 -0.16448455 0.08650805 0.053873915 -0.05567229 -0.033810444
-0.03972749 -0.08734193 -0.032856435 0.037476458 -0.01509529 0.07510658 -0.0038623684 -0.0087309675
-0.079666846 0.019331772 0.06015635 0.020743499 0.004038595 -0.015671898 -0.088733144 -0.018607141
0.0070413235 -0.12271455 0.004421522 -0.046939265 0.060023665 -0.07504024 0.015354306 -0.0086398935
0.02216077 0.019577663 -0.0987612 -0.044682264 0.016802678 0.020059159 0.09407738 -0.005311365
0.012085393 0.018489508 0.021646384 0.014013841 -0.050175026 0.015523868 0.06981743 0.014373322
-0.038962647 0.057375617 0.026064903 0.011801439 -0.03411962 -0.016603053 0.017565574 0.02790298
0.037917044 0.017359003 0.0062674615 0.0067612897 -0.045685012 0.06366241 0.016809924 -0.12176775
0.037266534 0.11420499 0.003030653 -0.060746346 -0.03970479 0.0023396965 0.020371636 0.035985578
0.02519547 0.01257884 -0.10114349 -0.035248682 0.020114461 -0.09419493 0.045012224 -0.014765646
-0.046033207 0.006205679 0.05177177 0.09611516 -0.07981893 0.042211905 -0.06141298 0.00836942
0.027436884 0.028477848 -0.039572004 -0.07955067 -0.027106982 -0.103768475 0.040924113 0.04594238
0.019889202 -0.010820847 0.051880233 0.025743442 0.032893263 -0.025807632 0.032502208 0.023588698
0.08336292 -0.061426185 -0.0032084628 0.015509395 -0.028129816 0.037262797 -0.19798972 -0.044876765
0.07902024 0.0068411925 0.04967569 -0.0038193075 0.04371557 0.034437735 0.04981289 0.053378776
0.08781576 0.10190738 -0.012737989 -0.0026553494 -0.036322735 -0.053502318 0.027552994 0.0103152245
-0.040972468 -0.011338349 0.008112374 -0.016537957 -0.022655284 -0.08388794 0.022865495 0.039661773
-0.036884263 0.065387115 -0.05667207 -0.018531552 0.0008991191 -0.043504454 -0.04334229 -0.024023788
-0.026581857 -0.0079004 0.03982849 0.0765551 0.02838139 -0.017268455 0.039233625 0.0602225
0.074306235 -0.0029622042 -0.05306012 0.10880204 -0.12373131 -0.06562236 -0.07170712 -0.020096784
-0.07385624 0.018950174 0.026035748 0.050683208 0.0026432744 -0.015151196 -0.01984225 -0.004392032
0.1165328 0.0017112069 0.015578194 -0.06659841 0.08909582 0.037092008 0.02487057 -0.025208525
-0.01516265 -0.025087556 -0.07950024 -0.09514953 -0.009174335 -0.06811952 0.01700059 0.011359266
-0.042128485 -0.01723038 0.046077896 0.014969777 -0.010363646 0.045705564 -0.009021371 -0.06760761
-0.004654155 -0.063210934 -0.028193366 -0.04611253 -0.030749977 -0.04683181 0.08102741 0.026801812
0.03220078 0.0551777 0.025337802 0.06619995 -0.07714976 -0.031815857 -0.07419184 -0.008192898
-0.036227442 0.021698589 -0.034375537 0.013990392 0.11237227 0.003525713 0.017828494 0.015495155
-0.002868271 0.04548791 0.028850807 0.046708934 0.03578018 -0.004339888 0.018515285 -0.008707394
-0.01159759 0.01956264 -0.011798267 0.017668866 -0.011126504 -0.04335013 -0.0020608974 -0.022925617

actor.6.bias f4 [12]
00000000: 95d4 38be 9490 fa3d 5a21 87bd 7a22 103d
00000010: 3870 253c 6a0d 763d 0120 f23d 489a 173d
00000020: 724a 433e 790f 9a3d 4a96 5b3e 3c80 393e
-0.18049844 0.12234607 -0.06598158 0.03518913 0.010097556 0.060071386 0.118225105 0.03701237
0.19071367 0.075224824 0.2144405 0.18115324
