src/unitree_ros2_python/share/models/flat_policy_v5.onnx (onnx, 163093 bytes, 8 tensors)

actor.0.weight f4 [128, 45]
0.08630844 -0.17570326 0.09485096 0.27434614 0.21194798 0.25136793 0.28895554 -0.29681322
0.092067 -0.37801668 -0.5846893 -0.86611825 0.050084002 0.0585864 -0.21295185 -0.26867628
-0.3413383 0.18925144 0.55961555 0.020989666 0.38948596 -0.033393413 -0.09308044 -0.0061699916
0.013914113 0.010824536 -0.048760366 0.12954979 -0.043906003 0.05873365 -0.02748146 0.04135342
-0.049341366 0.32406905 -0.49035054 -0.27106106 -0.12099281 -0.052668147 -0.32600355 -0.06728912
0.20010939 0.17458351 -0.14267941 -0.10721408 0.20576118 -0.20333824 -0.021934908 0.07273239
-0.13907687 0.7092403 0.24698463 -0.26214856 -0.2743146 -0.29919776 -0.68229276 0.12874453
0.21984679 -1.0370407 0.079293735 -0.44200695 0.1458108 -1.1474159 -0.17484884 -0.17088825
0.0020647324 0.058703557 -0.039796025 -0.08307698 0.006158564 -0.030903252 -0.037303206 -0.08814952
-0.021241404 -0.17544407 -0.03051147 0.06252657 -0.030169582 -0.07459775 -0.10652423 -0.19716871
0.07559912 -0.22685508 -0.07990498 0.010784056 0.093859434 -0.14106758 -0.023762148 -0.07223767
0.18370792 -0.0035915922 0.31748474 0.1147496 -0.11469167 -0.29417118 -0.65360004 -0.05223009
0.10444007 0.021256724 -0.14629893 -0.0435868 -0.09184626 0.66486514 -0.39908457 -0.34215876
-0.23161395 -0.76369464 0.5742913 0.44540069 0.04884201 0.21974477 0.48210347 -0.03819412
-0.044872757 -0.048300795 0.07445688 8.9092755e-05 -0.023589652 0.043793354 -0.079564735 -0.08315656
0.13237289 0.014502893 -0.0009852472 0.17457557 -0.10361057 0.32404345 -0.46401632 -0.04369773
0.025276436 -0.15684782 0.35565487 -0.25231743 -0.21974511 0.03247007 -0.055414364 0.23203737
0.24869278 -0.13262556 0.44524574 -0.5979419 0.0036462091 -0.21495172 -0.014656055 0.34063682
-0.4071596 -0.5559911 0.12428712 0.7598264 -0.028164297 0.1787354 -0.07816945 -0.34820578
0.04974367 -0.20666543 0.31051496 -0.036044557 0.014467418 -0.0015546437 0.039041657 -0.022856204
0.059332583 0.12840298 0.036110368 -0.018033596 -0.046487227 0.11151013 -0.02747641 -0.16356213
0.07353963 -0.0028893303 0.114449464 -0.05147176 -0.1684879 0.2781604 0.103906885 0.07408745
-0.22872452 0.115064256 -0.2922142 -0.30100808 -0.14417697 0.15594262 0.109031975 0.54095304
0.26531172 0.05763622 -0.14875859 0.15307306 -0.1996647 0.11312992 -0.09641257 -0.3056715
0.06772081 0.8617234 -0.44364703 0.05812836 0.85856307 0.17875646 -0.021724682 0.5703619
0.5091593 -0.05023076 -0.07165347 0.045078974 0.0049729003 -0.031124623 0.13332881 -0.035803217
0.033551764 0.017477967 -0.09135413 0.029923119 -0.04588454 -0.0155586945 -0.20036219 0.22020504
-0.081849195 0.10522399 -0.16003627 -0.13589965 0.04737128 0.17123754 0.066199325 -0.20373201
0.14473963 -0.008624494 -0.16115697 0.3794263 0.26584446 0.57065105 0.21596533 -0.32367334
0.40766662 -0.24627797 -0.14701068 -0.15115473 -0.8779289 -0.20389478 -0.5842747 0.22323999
0.15418266 -0.86752415 0.031898797 0.24895853 -0.4009341 0.6151037 0.021434925 0.049327496
-0.028143538 -0.084860295 0.08582704 0.12760419 0.027706614 -0.05703041 0.007817151 -0.06538454
00000000: 7bc2 b03d 8eeb 33be 3841 c23d 1977 8c3e
00000010: e408 593e 4cb3 803e fbf1 933e e7f7 97be
00000020: a08d bc3d 678b c1be 33ae 15bf edb9 5dbf
00000030: e224 4d3d 4bf8 6f3d 0d10 5abe f08f 89be
00000040: e5c3 aebe 21cb 413e f742 0f3f 85f2 ab3c
00000050: b46a c73e 88c7 08bd f5a0 bebd a42d cabb
00000060: 05f8 633c 6559 313c f3b8 47bd b3a8 043e
00000070: c8d6 33bd b292 703d cc20 e1bc 3462 293d
00000080: 2c1a 4abd 61ec a53e 3a0f fbbe 84c8 8abe
00000090: 14cb f7bd 8eba 57bd f0e9 a6be e1ce 89bd
000000a0: 7ae9 4c3e 05c6 323e 8d1a 12be 0e93 dbbd
000000b0: 0fb3 523e e637 50be d6b0 b3bc b8f4 943d
000000c0: 2b6a 0ebe c690 353f 8ae9 7c3e 5638 86be
000000d0: f772 8cbe 7330 99be bdaa 2ebf 9bd5 033e
000000e0: 841f 613e c0bd 84bf c164 a23d bc4e e2be
000000f0: 6d4f 153e 86de 92bf 930b 33be 54fd 2ebe
00000100: 7650 073b 2473 703d 2801 23bd 4424 aabd
00000110: c7cd c93b d128 fdbc 3fcb 18bd bc87 b4bd
00000120: 7402 aebc 9ca7 33be 31f3 f9bc ee0d 803d
00000130: 3326 f7bc b5c6 98bd 6029 dabd 98e6 49be
00000140: b6d3 9a3d b34c 68be 39a5 a3bd 9caf 303c
00000150: 6039 c03d 0574 10be d6a8 c2bc 58f1 93bd
00000160: ee1d 3c3e eb60 6bbb 5c8d a23e d701 eb3d
00000170: 77e3 eabd 9b9d 96be 5552 27bf 38ef 55bd
00000180: ade4 d53d 9522 ae3c 63cf 15be 1388 32bd
00000190: e419 bcbd 9a34 2a3f d054 ccbe 6f2f afbe
000001a0: 352c 6dbe 7e81 43bf c104 133f 8f0b e43e
000001b0: 8f0e 483d c604 613e 44d6 f63e 7071 1cbd
000001c0: 7fcc 37bd 0ed7 45bd d97c 983d 4fd7 ba38
000001d0: 163f c1bc a960 333d d6f2 a2bd fd4d aabd
000001e0: c28c 073e 8b9d 6d3c 6923 81ba f0c3 323e
000001f0: c731 d4bd 06e9 a53e 8c93 edbe 64fc 32bd
00000200: 8710 cf3c b79c 20be 6518 b63e c02f 81be
00000210: dd04 61be 56ff 043d 2cfa 62bd 349b 6d3e
00000220: 52a9 7e3e ffce 07be 40f7 e33e b812 19bf
00000230: 3df5 6e3b 4e1c 5cbe f31f 70bc f367 ae3e
00000240: 3977 d0be 6f55 0ebf 3f8a fe3d fc83 423f
00000250: d0b8 e6bc 6a06 373e 4e17 a0bd 0748 b2be
00000260: 05c0 4b3d 1aa0 53be d1fb 9e3e 75a3 13bd
00000270: c008 6d3c 30c5 cbba 25ea 1f3d ef3c bbbc
00000280: b906 733d 127c 033e 77e8 133d 31bb 93bc
00000290: 6469 3ebd 6c5f e43d 3516 e1bc d57c 27be
000002a0: f29b 963d eb5a 3dbb 7b64 ea3d 0dd4 52bd
000002b0: 1888 2cbe 0a6b 8e3e 22cd d43d 29bb 973d
000002c0: c336 6abe cfa6 eb3d 1a9d 95be bb1d 9abe
000002d0: 21a3 13be 6caf 1f3e 284c df3d e67b 0a3f
000002e0: f0d6 873e f513 6c3d 2c54 18be 2fbf 1c3e
000002f0: e774 4cbe a9b0 e73d f473 c5bd fa80 9cbe
00000300: 35b1 8a3d e899 5c3f b425 e3be 0118 6e3d
00000310: caca 5b3f ef0b 373e f6f7 b1bc 3d03 123f
00000320: 4458 023f c5be 4dbd 0ebf 92bd bba4 383d
00000330: b6f3 a23b 11f9 febc 5987 083e 65a6 12bd
00000340: 936d 093d f42d 8f3c e017 bbbd 5421 f53c
00000350: 6df1 3bbd e5e9 7ebc bf2b 4dbe 6e7d 613e
00000360: 8da0 a7bd ad7f d73d 8ce0 23be 4729 0bbe
00000370: 6308 423d e558 2f3e 8393 873d 209f 50be
00000380: a036 143e c04d 0dbc 5506 25be 2a44 c23e
00000390: c41c 883e 3016 123f 0426 5d3e 83b8 a5be
000003a0: aeb9 d03e 4b30 7cbe f889 16be 4ec8 1abe
000003b0: f3bf 60bf cbc9 50be 0793 15bf 0699 643e
000003c0: 0fe2 1d3e 1016 5ebf 50a8 023d fcee 7e3e
000003d0: 3c47 cdbe 7077 1d3f 4c98 af3c a10b 4a3d
000003e0: 478d e6bc 3ccb adbd 16c6 af3d acaa 023e
000003f0: fbf8 e23c b898 69bd 8213 003c 54e8 85bd

actor.0.bias f4 [128]
0.061590675 -0.14392602 0.07578831 0.09316962 -0.06487526 -0.10164715 0.083332136 0.057591412
-0.19651303 0.100067735 0.019998586 0.06202944 -0.17239179 0.03500524 -0.13353217 -0.22299951
-0.12629028 0.033770945 -0.099524364 0.029008364 -0.032545615 0.10331469 -0.1320477 -0.22455944
0.012732566 -0.017943865 0.09738229 0.33579585 -0.034934223 0.036732856 -0.18248424 0.05582079
0.049188454 0.03930348 0.10826159 -0.16188598 0.018940037 -0.025965534 0.019852543 -0.15983829
-0.13604772 0.09511017 -0.076360136 0.16289702 0.28370404 0.036374506 0.0650088 0.105678834
0.0015998796 -0.053389847 -0.120448455 0.121728145 0.10040744 0.040283352 -0.13085388 0.23261341
0.11326087 0.21622443 0.034929924 0.0026434804 -0.17428951 -0.043452784 0.21128902 0.0846002
0.18328017 0.20891088 -0.1860224 0.07035419 -0.19033608 -0.0071729594 0.07552517 -0.20586969
-0.14914863 -0.21458822 -0.104961514 -0.11307428 0.14409056 0.11009498 -0.25745547 0.05150708
-0.00013975972 0.07709995 -0.15548767 0.06254991 -0.07006158 0.16977273 0.07935272 0.035685416
0.11694544 -0.031212099 -0.08719391 0.09357409 -0.06389627 0.16432597 0.00734826 -0.037600063
-0.13580059 0.046498913 0.046294436 -0.07315833 0.04023908 -0.1363664 0.1961277 -0.10260615
-0.059977524 -0.069304265 -0.117660746 0.051692553 0.06680735 0.105563454 -0.105599925 -0.042500068
-0.09469057 0.15444164 -0.05428473 0.123417445 -0.20797873 -0.054844204 0.09394642 -0.09881856
0.11328916 -0.17235191 -0.08638654 -0.15433663 0.07553353 -0.062957644 -0.03850393 -0.115405716
00000000: 8146 7c3d 5861 13be e736 9b3d b7cf be3d
00000010: 52dd 84bd 622c d0bd 0aaa aa3d f9e4 6b3d
00000020: b63a 49be 50f0 cc3d 13d4 a33c 9512 7e3d
00000030: 7987 30be a861 0f3d a8bc 08be fc59 64be
00000040: 3d52 01be 6753 0a3d 6ed3 cbbd f3a2 ed3c
00000050: 8d4e 05bd a796 d33d 8337 07be e9f2 65be
00000060: 419c 503c 03ff 92bc 5e70 c73d 6fed ab3e
00000070: 3017 0fbd 3175 163d 26dd 3abe 57a4 643d
00000080: d579 493d b0fc 203d 41b8 dd3d 70c5 25be
00000090: 2328 9b3c acb5 d4bc cda1 a23c a6ac 23be
000000a0: 1850 0bbe 1fc9 c23d b462 9cbd 7ace 263e
000000b0: a841 913e 6ffd 143d 5523 853d 256e d83d
000000c0: 0db3 d13a 50af 5abd aead f6bd 9b4c f93d
000000d0: 6aa2 cd3d 2800 253d 8ffe 05be 3632 6e3e
000000e0: 51f5 e73d f069 5d3e ae12 0f3d 3e3e 2d3b
000000f0: f378 32be 8cfb 31bd 265c 583e df42 ad3d
00000100: ccad 3b3e bcec 553e a87c 3ebe dc15 903d
00000110: 76e7 42be 250b ebbb f1ac 9a3d 81cf 52be
00000120: 6bba 18be 04bd 5bbe 10f6 d6bd 7d93 e7bd
00000130: 7a8c 133e 7a79 e13d 34d1 83be 17f9 523d
00000140: 778c 12b9 94e6 9d3d 2938 1fbe 2b1a 803d
00000150: 727c 8fbd e7d8 2d3e ae83 a23d df2a 123d
00000160: 1781 ef3d 84b0 ffbc b892 b2bd c6a3 bf3d
00000170: 0cdc 82bd 1145 283e acc9 f03b 8602 1abd
00000180: 4f0f 0bbe a575 3e3d 3c9f 3d3d 09d4 95bd
00000190: bcd1 243d a2a3 0bbe b3d5 483e 2c23 d2bd
000001a0: feaa 75bd 65ef 8dbd 1ef8 f0bd 92bb 533d
000001b0: 4bd2 883d a731 d83d c644 d8bd 8d14 2ebd
000001c0: 21ed c1bd f325 1e3e aa59 5ebd 49c2 fc3d
000001d0: 60f8 54be 51a4 60bd fb66 c03d 6361 cabd
000001e0: 2604 e83d 057d 30be 6deb b0bd 6c0a 1ebe
000001f0: 53b1 9a3d f0ef 80bd 4cb6 1dbd d559 ecbd

actor.2.weight f4 [128, 128]
0.0725115 -0.045550354 -0.06957633 -0.10215445 -0.1983256 0.10573658 0.055746224 -0.018137073
-0.07863382 0.049388234 -0.020844752 -0.060904823 0.0894274 0.008850833 -0.06709426 -0.10317905
-0.041705187 -0.14688864 0.0736282 0.06832171 0.06837154 0.021152169 -0.1679547 0.057779085
-0.06991621 0.024598915 -0.09175592 0.102706745 0.08852145 -0.118041605 -0.12101146 -0.09061669
0.25975746 0.09301067 -0.20172395 0.065195315 -0.061631672 -0.05680085 -0.11527645 -0.042074796
0.108587086 -0.0021996526 0.045339786 -0.116044745 -0.069816194 0.10325756 -0.03330648 -0.03600536
0.01968216 -0.0061200503 0.09449553 0.081861995 -0.03937197 0.009628064 -0.066397965 -0.05999597
0.10570432 -0.16975254 0.061077766 0.038867183 -0.12766978 -0.34841993 -0.02736549 -0.15336287
-0.13354848 0.057840176 -0.04420992 -0.040541235 0.15714987 0.06455688 0.05266818 0.033923116
0.20530611 0.1331986 -0.16315813 -0.12773556 0.0073522828 0.12451895 -0.02561371 -0.06985988
-0.01348801 0.09396346 -0.07857627 -0.14940079 0.061711095 -0.106078185 -0.1652821 -0.0017000478
-0.07218275 0.022910072 -0.15980549 0.031400945 -0.068164155 -0.02482658 -0.23223177 -0.08117317
0.06251232 -0.02108163 -0.08243514 0.14617918 0.0015052401 -0.00011098744 -0.0050980155 0.14784172
-0.10661104 0.032538343 0.0005752615 -0.05988101 -0.040239837 -0.16348554 0.04434676 -0.13328807
-0.08716967 -0.09060991 0.05340697 -0.12757973 0.16074416 -0.118788734 -0.19358574 -0.14625384
-0.022013528 0.05495391 0.092717245 0.17133227 -0.089537494 -0.03806259 0.06627103 0.15808013
0.12004668 0.12241587 -0.007806894 0.051150616 -0.07580278 0.03931168 -0.11180923 -0.12636836
-0.036841743 0.029033003 -0.035255276 0.14211544 0.05526351 0.015749315 0.014598397 0.11129822
0.019741448 -0.09447111 -0.06472401 0.02525659 0.15196371 -0.024625242 0.035320777 0.010195303
-0.040992208 0.07953341 0.019050889 0.07676381 0.070446536 -0.10452088 -0.062337223 -0.12857991
0.10843812 0.09061503 0.042340826 -0.010810522 -0.13353801 0.016851272 -0.038061816 0.06694107
-0.03148278 -0.1001442 -0.17997119 0.17219257 0.033330277 -0.009447715 -0.14911014 0.038993824
-0.021977419 0.063884415 -0.06368641 -0.17212193 -0.14538899 0.041149344 0.03080684 0.08821366
-0.10990494 0.135405 -0.062131613 -0.18736468 -0.25180626 0.12303244 -0.11739892 0.034645263
-0.08959626 0.051320482 0.09468737 0.09118327 0.032427598 -0.019689055 -0.14791022 0.15119007
-0.0036995155 0.004940203 0.14297456 -0.16747719 -0.022490462 -0.031256624 -0.024830157 -0.052374553
-0.005006796 -0.051236734 0.2753596 -0.039856043 0.05771542 0.044284392 0.0077294153 -0.06760066
0.0058087367 -0.032745518 -0.020387352 0.08412028 0.12610863 -0.056798365 -0.01966305 -0.006134471
-0.013173558 -0.070875786 0.21327524 0.06386218 0.010301347 0.059890818 -0.21882482 0.008398812
-0.11234287 -0.00705828 0.03740191 -0.15956414 -0.014902013 0.08120533 -0.17411895 -0.029878782
-0.104118854 -0.012594731 -0.16670045 -0.0892727 -0.006707418 -0.04795467 -0.053694535 0.043151494
-0.06593907 0.028038314 0.08850798 -0.06419708 0.14533727 -0.038506333 -0.053776406 0.124511786
00000000: e980 943d 0293 3abd 097e 8ebd 5a36 d1bd
00000010: de15 4bbe 6c8c d83d 2756 643d 3394 94bc
00000020: c50a a1bd 514b 4a3d 9dc2 aabc 5677 79bd
00000030: b625 b73d 1603 113c b768 89bd 8a4f d3bd
00000040: 0fd3 2abd fa69 16be 62ca 963d 41ec 8b3d
00000050: 6106 8c3d 5047 ad3c 51fc 2bbe c3a9 6c3d
00000060: 3b30 8fbd aa83 c93c 87ea bbbd ea57 d23d
00000070: bc4a b53d ccbf f1bd dbd4 f7bd 3e95 b9bd
00000080: eefe 843e 617c be3d b990 4ebe 1f85 853d
00000090: 7e71 7cbd 02a8 68bd 0f16 ecbd 9f56 2cbd
000000a0: e862 de3d 0c28 10bb 36b6 393d dea8 edbd
000000b0: cbfb 8ebd b378 d33d 606c 08bd 5b7a 13bd
000000c0: 7b3c a13c b48a c8bb df86 c13d 43a7 a73d
000000d0: 8144 21bd 07bf 1d3c a8fb 87bd 56be 75bd
000000e0: 827b d83d 9cd3 2dbe ae2c 7a3d 3233 1f3d
000000f0: debb 02be 1964 b2be 982d e0bc 280b 1dbe
00000100: efc0 08be d2e9 6c3d 7615 35bd 910e 26bd
00000110: e5eb 203e 6636 843d 97ba 573d f7f2 0a3d
00000120: c43b 523e 3765 083e ed12 27be 1ccd 02be
00000130: 6beb f03b cb03 ff3d d8d3 d1bc b212 8fbd
00000140: d0fc 5cbc ea6f c03d 98ec a0bd 85fc 18be
00000150: c6c4 7c3d 853f d9bd b63f 29be 23d4 deba
00000160: 8dd4 93bd e7ad bb3c 0da4 23be 479e 003d
00000170: a699 8bbd 1d61 cbbc 2ace 6dbe 1e3e a6bd
00000180: 7606 803d 62b3 acbc c1d3 a8bd ffaf 153e
00000190: 7a4b c53a eec1 e8b8 410d a7bb d263 173e
000001a0: e456 dabd ed46 053d 25cd 163a ca45 75bd
000001b0: 87d2 24bd c168 27be f3a4 353d ab7c 08be
000001c0: 0386 b2bd b091 b9bd 44c1 5a3d 43a4 02be
000001d0: 1e9a 243e 8247 f3bd 573b 46be 91c3 15be
000001e0: b755 b4bc 5a17 613d 8ae2 bd3d ba71 2f3e
000001f0: 6f5f b7bd 85e7 1bbd 1bb9 873d c2df 213e
00000200: 09db f53d 2cb5 fa3d f9d0 ffbb 4f83 513d
00000210: 7d3e 9bbd 4905 213d 3dfc e4bd b566 01be
00000220: 5ee7 16bd 9fd6 ed3c d667 10bd b686 113e
00000230: fe5b 623d b504 813c 1d2e 6f3c 52f0 e33d
00000240: d1b8 a13c 127a c1bd 068e 84bd e9e6 ce3c
00000250: 609c 1b3e e0ba c9bc 85ac 103d 330a 273c
00000260: 72e7 27bd 6ae2 a23d 9c10 9c3c 5836 9d3d
00000270: 4646 903d 0b0f d6bd 5155 7fbd 74aa 03be
00000280: ce14 de3d 5f94 b93d 936d 2d3d 9e1e 31bc
00000290: 30be 08be ae0b 8a3c b5e6 1bbd 6618 893d
000002a0: 16f4 00bd 6718 cdbd 5e4a 38be 4053 303e
000002b0: 5485 083d 97ca 1abc 54b0 18be fdb7 1f3d
000002c0: fd09 b4bc d5d5 823d 056e 82bd bb40 30be
000002d0: dae0 14be 378c 283d a05e fc3c 5da9 b43d
000002e0: d715 e1bd 9ca7 0a3e b87d 7ebd 87dc 3fbe
000002f0: c0ec 80be 6ff8 fb3d d86e f0bd 31e8 0d3d
00000300: 3e7e b7bd 6d35 523d 74eb c13d 4bbe ba3d
00000310: cdd2 043d f14a a1bc c775 17be 92d1 1a3e
00000320: 9273 72bb 6de1 a13b ec67 123e 247f 2bbe
00000330: eb3d b8bc f206 00bd 9d68 cbbc b386 56bd
00000340: 0d10 a4bb 9cdd 51bd effb 8c3e 1740 23bd
00000350: 0167 6c3d 8d63 353d 0947 fd3b 3772 8abd
00000360: 3757 be3b 2a20 06bd 6003 a7bc 4147 ac3d
00000370: 9f22 013e 67a5 68bd 6814 a1bc ac03 c9bb
00000380: e8d5 57bc 5327 91bd d364 5a3e 2dca 823d
00000390: fbc6 283c 1350 753d 9d13 60be 2c9b 093c
000003a0: 0514 e6bd 2549 e7bb bf32 193d c864 23be
000003b0: 9327 74bc fb4e a63d 3d4c 32be 59c4 f4bc
000003c0: 443c d5bd 215a 4ebc 86b3 2abe 9bd4 b6bd
000003d0: e6c9 dbbb 1e6c 44bd cdee 5bbd 9fbf 303d
000003e0: 100b 87bd 9bb0 e53c ac43 b53d c279 83bd
000003f0: 4bd3 143e d1b8 1dbd a644 5cbd 0900 ff3d

actor.2.bias f4 [128]
-0.099016584 -0.12946397 0.024538632 -0.15733638 -0.20958588 -0.065495335 -0.039741244 0.077998064
-0.18455584 -0.0977556 -0.063572615 -0.16232789 -0.098833635 -0.082125716 -0.10554174 -0.080852635
-0.14942375 -0.13972938 -0.13856731 -0.054658066 -0.14971086 -0.025773302 -0.18414934 -0.0060702064
-0.10461078 -0.22383262 -0.030852044 -0.0325478 -0.047223486 -0.16598354 -0.013167703 -0.116811424
-0.14981145 0.016812226 0.026532918 -0.043147188 0.020543065 0.012847016 0.13044496 -0.11073693
-0.09699745 -0.060716618 -0.109296136 -0.052626617 -0.087019496 0.0068983333 -0.0005134016 0.008648649
-0.062859096 -0.11074966 -0.118588224 -0.22079447 -0.010815511 -0.045252714 -0.08902402 -0.07130029
-0.04920714 -0.0077052135 -0.05690629 -0.016597405 -0.055763226 -0.09569979 -0.04126159 -0.013199623
0.06914973 0.014760057 0.027009895 -0.14617239 -0.007025386 -0.07519903 0.030576404 -0.055234063
-0.06581707 -0.07989325 0.059046477 -0.026288278 -0.0066701686 -0.077036865 -0.1200009 -0.02755025
-0.01110653 0.061997417 -0.117416166 0.031493116 -0.024302367 -0.18595295 -0.12975007 -0.0028950647
-0.053286858 -0.022331923 -0.019701367 -0.019417198 -0.01692127 0.0037694294 -0.043082394 -0.0897159
-0.09054843 -0.1204918 0.07202196 -0.16703029 -0.21365619 -0.07636826 -0.086628504 -0.08229638
-0.09413981 -0.05862351 -0.04300221 -0.13028973 -0.1488775 0.041796505 -0.08309046 -0.11985201
-0.052073315 -0.09479405 -0.035866585 -0.08086374 0.037286885 0.015147217 -0.11257436 0.016596932
-0.055788673 -0.17527108 -0.13792129 0.093810916 -0.021664409 -0.09342055 -0.08518805 0.029375711
00000000: 35c9 cabd 3492 04be 3e05 c93c ca1c 21be
00000010: ae9d 56be 6b22 86bd b7c7 22bd 73bd 9f3d
00000020: 35fc 3cbe 1734 c8bd 5c32 82bd 4839 26be
00000030: 4a69 cabd 8731 a8bd 4526 d8bd 1196 a5bd
00000040: 8a02 19be 3815 0fbe 97e4 0dbe 23e1 5fbd
00000050: ce4d 19be 8822 d3bc a591 3cbe 95e8 c6bb
00000060: 2d3e d6bd 6134 65be 6dbd fcbc d850 05bd
00000070: 6a6d 41bd 97f7 29be 59bd 57bc d43a efbd
00000080: 2c68 19be cbb9 893c 905b d93c 1bbb 30bd
00000090: ee49 a83c 4a7c 523c 5d93 053e 0bca e2bd
000000a0: 99a6 c6bd fdb1 78bd a7d6 dfbd 028f 57bd
000000b0: 4737 b2bd 6a0b e23b cc95 06ba 10b3 0d3c
000000c0: 45bc 80bd b8d0 e2bd 62de f2bd f217 62be
000000d0: 8b33 31bc e95a 39bd 3a52 b6bd e305 92bd
000000e0: 6d8d 49bd 047c fcbb 9216 69bd 48f7 87bc
000000f0: fb67 64bd 40fe c3bd ea01 29bd 3b43 58bc
00000100: 609e 8d3d 2bd4 713c db43 dd3c 37ae 15be
00000110: 3635 e6bb f301 9abd 5e7b fa3c 1d3d 62bd
00000120: 1acb 86bd 129f a3bd b8da 713d 845a d7bc
00000130: 6e91 dabb 81c5 9dbd 08c3 f5bd 10b1 e1bc
00000140: 2af8 35bc 01f1 7d3d e377 f0bd edfe 003d
00000150: c215 c7bc 736a 3ebe 34dd 04be 20bb 3dbb
00000160: 5243 5abd 70f1 b6bc c364 a1bc d110 9fbc
00000170: 7a9e 8abc 8808 773b 2a77 30bd f8bc b7bd
00000180: 7571 b9bd 68c4 f6bd 4080 933d fd09 2bbe
00000190: b0c8 5abe f666 9cbd 496a b1bd 018b a8bd
000001a0: 5fcc c0bd 351f 70bd 1623 30bd ac6a 05be
000001b0: 5873 18be d032 2b3d 552b aabd f874 f5bd
000001c0: d44a 55bd 6223 c2bd d7e8 12bd e39b a5bd
000001d0: 22ba 183d 082c 783c 638d e6bd 4af6 873c
000001e0: aa82 64bd 437a 33be 3d3b 0dbe f01f c03d
000001f0: 8f79 b1bc 4653 bfbd 1377 aebd 55a5 f03c

actor.4.weight f4 [128, 128]
0.0077170827 -0.019191656 0.024100637 -0.05856905 -0.00047469558 -0.026075592 -0.01548726 0.040574215
-0.050808635 -0.053271577 0.034674447 -0.03766631 -0.043450207 0.105238274 0.10833695 -0.02465146
0.027880378 -0.038699552 -0.023271786 0.034979805 0.0145375775 0.046935793 0.067113675 0.12199937
-0.036087904 0.05342037 -0.041701354 0.0019263235 -0.04140021 0.08725405 0.009431837 0.013653751
0.03903925 -0.10437681 -0.03426784 -0.026421968 -0.0023849565 -0.15959589 -0.028183082 -0.016256385
-0.0025197233 -0.013296017 0.044300262 -0.12471094 0.036622643 0.08356087 0.044381436 0.024419889
-0.0727872 0.008951817 -0.037394814 0.013477001 0.05188004 0.069203146 -0.15076222 0.00907556
0.025912324 0.03402345 0.00030145585 0.0034061421 0.03744549 -0.04147017 -0.06656453 -0.03782836
-0.028874917 -0.011155273 -0.09563413 0.05766089 -0.030495945 0.06227737 -0.041537195 -0.00510999
-0.009619735 0.05758023 -0.07430995 -0.043013614 -0.02775931 -0.09416631 -0.0026396469 0.021270724
-0.03785229 0.0048769093 -0.032482766 0.034926463 -0.057217184 -0.01382493 -0.046157032 -0.0016621447
-0.07721265 -0.025213238 -0.031178644 -0.05992012 -0.08936767 0.04077686 0.11079623 -0.009092458
-0.0066036643 -0.0335037 -0.003099904 -0.06528904 -0.039546534 0.044711173 0.013968931 -0.057725333
0.08637659 -0.023911906 0.045989916 0.00024267111 -0.04049622 -0.15301877 -0.0288596 -0.0034045298
-0.06471935 -0.011938812 0.03349625 0.0025712568 -0.07200298 -0.07851837 -0.0942846 -0.015698913
0.023996383 -0.07226485 -0.017786922 -0.057207003 0.023565767 -0.0496787 -0.07951236 -0.03101925
-0.016164185 0.15929726 0.14329039 -0.032890584 0.06415889 -0.12794471 0.0038921104 0.043068618
0.030989686 0.09629827 0.054858938 -0.17346369 -0.055645898 -0.00062825286 0.031004082 0.14793098
0.06553821 0.09363312 -0.050818495 0.055840295 0.04855234 -0.08003734 0.21090919 0.05816211
0.09865645 0.022377057 0.07525597 -0.13442224 -0.09352405 0.0130141275 0.08228404 -0.13576886
0.07770805 0.09929575 0.013349203 -0.037875798 -0.12673603 -0.08338293 -0.06962824 -0.020106882
-0.015016825 0.06519244 0.07384632 0.07172625 -0.043011405 0.034838893 0.03181774 0.0040553445
-0.06729738 0.08518892 -0.054881234 0.07729811 -0.08295696 -0.002481815 0.028529972 0.030999247
-0.008518337 -0.07990457 -0.044161547 -0.0032293173 -0.05845676 -0.07370598 0.044075787 0.13551101
0.07178348 -0.042135235 -0.13091503 -0.07361504 0.04364526 0.004904193 -0.084294274 -0.14428636
0.14042696 -0.015882539 -0.017920969 -0.11043536 0.033635505 0.1394503 -0.009242374 -0.07701411
0.007199335 0.0035277696 0.0865728 0.0020940774 -0.07227766 0.17175198 -0.049788617 0.019247249
0.05093773 0.08378733 0.031925295 -0.07960636 -0.017197423 -0.106914155 -0.0700166 0.07743488
-0.07734968 -0.09147356 0.07208026 0.080349825 0.03367141 0.05964516 0.17399572 0.05712864
0.016274612 0.03286036 0.09789835 -0.039738845 0.083292544 -0.09789385 -0.08995747 -0.09443596
0.06663007 0.0040137446 0.21448006 0.14833751 -0.01018277 -0.038526684 0.014030492 0.08581814
-0.12012748 0.18525842 0.16180809 0.042666443 -0.039364003 0.029870447 0.027602537 0.12163115
00000000: 95df fc3b d237 9dbc b36e c53c 1ae6 6fbd
00000010: 90e0 f8b9 7b9c d5bc 47be 7dbc 2631 263d
00000020: b71c 50bd 4c33 5abd cb06 0e3d fd47 1abd
00000030: d8f8 31bd 2a87 d73d c3df dd3d dcf1 c9bc
00000040: 6465 e43c 6c83 1ebd 79a4 bebc fc46 0f3d
00000050: 052f 6e3c bf3f 403d e572 893d ceda f93d
00000060: e9d0 13bd 51cf 5a3d 0acf 2abd b17c fc3a
00000070: 4493 29bd 40b2 b23d fe87 1a3c fcb3 5f3c
00000080: 9fe7 1f3d 82c3 d5bd 6f5c 0cbd e272 d8bc
00000090: ee4c 1cbb 1b6d 23be 35e0 e6bc 1c2c 85bc
000000a0: f121 25bb 8ad7 59bc 3174 353d 7368 ffbd
000000b0: a001 163d f621 ab3d 4fc9 353d 380c c83c
000000c0: 7511 95bd a4aa 123c 4e2b 19bd a4ce 5c3c
000000d0: 2a80 543d 61ba 8d3d 6961 1abe a8b1 143c
000000e0: 1546 d43c 2c5c 0b3d b80c 9e39 9539 5f3b
000000f0: 7160 193d a0dc 29bd fc52 88bd e9f1 1abd
00000100: 178b ecbc 9bc4 36bc d4db c3bd d32d 6c3d
00000110: a2d2 f9bc 8e16 7f3d e822 2abd b471 a7bb
00000120: 189c 1dbc 3fd9 6b3d d12f 98bd 0b2f 30bd
00000130: 7e67 e3bc 44da c0bd edfd 2cbb f13f ae3c
00000140: 010b 1bbd 7bce 9f3b a60c 05bd 0d0f 0f3d
00000150: 915c 6abd f681 62bc 280f 3dbd 52dc d9ba
00000160: aa21 9ebd fe8b cebc 5b6a ffbc cd6e 75bd
00000170: 6606 b7bd a305 273d 22e9 e23d 88f8 14bc
00000180: 8d63 d8bb 2d3b 09bd c227 4bbb 43b6 85bd
00000190: 8cfb 21bd 1023 373d f1dd 643c 6671 6cbd
000001a0: 36e6 b03d e7e2 c3bc ec5f 3c3d 8875 7e39
000001b0: 5ddf 25bd f4b0 1cbe f86a ecbc 881e 5fbb
000001c0: 948b 84bd 029b 43bc 5d33 093d 8882 283b
000001d0: 4c76 93bd 3dce a0bd 4918 c1bd 029b 80bc
000001e0: 1094 c43c 98ff 93bd e1b5 91bc e451 6abd
000001f0: ff0c c13c e47b 4bbd 60d7 a2bd 151c febc
00000200: c16a 84bc d21e 233e b7ba 123e 47b8 06bd
00000210: bc65 833d f003 03be c712 7f3b b868 303d
00000220: 15de fd3c 0738 c53d c4b3 603d 77a0 31be
00000230: f4ec 63bd 56b1 24ba 46fc fd3c 387b 173e
00000240: e638 863d b9c2 bf3d 0e27 50bd cbb8 643d
00000250: d2de 463d 9eea a3bd 94f8 573e 653b 6e3d
00000260: 650c ca3d 1750 b73c cd1f 9a3d fca5 09be
00000270: 8a89 bfbd 3539 553c 8984 a83d fe06 0bbe
00000280: 6625 9f3d 925b cb3d 9eb6 5a3c a723 1bbd
00000290: 17c7 01be abc4 aabd 4099 8ebd 30b7 a4bc
000002a0: 2109 76bc 9d83 853d bd3c 973d 36e5 923d
000002b0: ba2c 30bd 3ab3 0e3d 5253 023d b2e2 843b
000002c0: 35d3 89bd 8777 ae3d 25cb 60bd 794e 9e3d
000002d0: 57e5 a9bd f2a5 22bb b0b7 e93c 22f2 fd3c
000002e0: 7f90 0bbc 02a5 a3bd bde2 34bd f4a2 53bb
000002f0: 5b70 6fbd 29f3 96bd d088 343d 66c3 0a3e
00000300: 3803 933d ff95 2cbd 970e 06be 7bc3 96bd
00000310: 5fc5 323d 5ab3 a03b 7aa2 acbd cebf 13be
00000320: 16cc 0f3e 191c 82bc ffce 92bc ef2b e2bd
00000330: 62c5 093d 0fcc 0e3e 546d 17bc 93b9 9dbd
00000340: 66e8 eb3b 2732 673b 154d b13d ca3c 093b
00000350: 4f06 94bd c0df 2f3e 26ef 4bbd 68ac 9d3c
00000360: 15a4 503d b198 ab3d 19c4 023d a908 a3bd
00000370: 9ce1 8cbc cff5 dabd dd64 8fbd 2e96 9e3d
00000380: 8269 9ebd 7d56 bbbd d19e 933d 738e a43d
00000390: 08eb 093d 7c4e 743d ef2b 323e b9ff 693d
000003a0: 5652 853c 9698 063d ee7e c83d 33c5 22bd
000003b0: 4895 aa3d 927c c8bd 9f3b b8bd a467 c1bd
000003c0: 5975 883d bb85 833b a9a0 5b3e cae5 173e
000003d0: a2d5 26bc 28ce 1dbd 26e0 653c 6cc1 af3d
000003e0: 6505 f6bd 62b4 3d3e 05b1 253e 02c3 2e3d
000003f0: 263c 21bd deb2 f43c b71e e23c c119 f93d

actor.4.bias f4 [128]
-0.056223754 -0.030799227 0.05170959 0.056707077 -0.15289763 0.06549598 -0.087120704 -0.082808964
-0.09999017 -0.09808957 0.0004168549 0.04709026 -0.16134219 -0.08690216 -0.02150996 -0.16658965
-0.09072131 -0.15564382 -0.13452034 -0.04470495 -0.019489456 0.045109075 -0.09895512 0.06781169
-0.08690025 -0.02229279 0.07185645 -0.01598347 -0.085907914 -0.028280912 -0.11734886 -0.027867837
-0.21033944 -0.08552367 -0.0043705166 -0.1366572 0.05049246 -0.0123320045 0.040941704 0.04276805
-0.06891596 -0.07280989 0.0061399806 -0.05133117 0.059682295 -0.104333185 -0.09246411 -0.106027745
-0.07928842 -0.14549385 -0.051864885 -0.17395914 -0.025424238 0.079158306 -0.14900349 -0.082322225
-0.044910382 -0.17162666 0.054898854 0.06527643 -0.074923865 -0.07971545 -0.13123862 -0.12971468
0.0463393 -0.09938121 0.0030891984 -0.10360574 0.07831059 -0.10143579 -0.0771525 0.024039466
-0.13511945 0.006640629 0.00035895055 -0.03795924 -0.040126126 0.1136961 -0.10389662 -0.026790759
0.0047114086 -0.0034826589 -0.1321961 -0.038472746 -0.005191559 -0.07901083 -0.1654888 0.070122935
-0.1549117 -0.086120136 -0.046266403 -0.12098037 -0.008597071 0.0559944 -0.12841302 -0.1829254
-0.039989844 -0.05498351 -0.03176945 -0.06265185 0.090347834 -0.0016903917 -0.058157716 -0.031300604
-0.052636825 0.018201202 0.06787695 0.010693003 -0.031076679 -0.094904505 0.06575913 0.012960813
-0.023945086 -0.0812761 0.061853267 -0.007285893 -0.11894003 -0.09752105 -0.007853136 0.076948196
-0.06176461 -0.15528116 -0.05046468 0.061322715 -0.12419555 -0.10559052 0.04048183 -0.081647836
00000000: e14a 66bd a94e fcbc 6fcd 533d ae45 683d
00000010: 3291 1cbe c222 863d 576c b2bd bf97 a9bd
00000020: a5c7 ccbd 2fe3 c8bd 518d da39 b7e1 403d
00000030: e336 25be c2f9 b1bd a835 b0bc 7a96 2abe
00000040: 18cc b9bd 1861 1fbe b3bf 09be 8a1c 37bd
00000050: 5aa8 9fbc 4bc4 383d fba8 cabd dbe0 8a3d
00000060: c2f8 b1bd 5e9f b6bc 7929 933d c4ef 82bc
00000070: 7df0 afbd 5fad e7bc 9954 f0bd 174b e4bc
00000080: 3963 57be 0927 afbd 8d36 8fbb ddef 0bbe
00000090: 2fd1 4e3d 2d0c 4abc 7db2 273d 8d2d 2f3d
000000a0: d023 8dbd 5a1d 95bd e431 c93b a240 52bd
000000b0: 6c75 743d a3ac d5bd d35d bdbd 1325 d9bd
000000c0: f861 a2bd 57fc 14be 4670 54bd 5822 32be
000000d0: 7e46 d0bc c01d a23d 5f94 18be 8e98 a8bd
000000e0: f3f3 37bd e6be 2fbe 9fdd 603d a6af 853d
000000f0: af71 99bd db41 a3bd 6b63 06be edd3 04be
00000100: 47ce 3d3d 6088 cbbd 2674 4a3b 3f2f d4bd
00000110: 4d61 a03d 91bd cfbd 2102 9ebd 6aee c43c
00000120: c15c 0abe a299 d93b 8731 bc39 267b 1bbd
00000130: 4b5b 24bd 80d9 e83d c0c7 d4bd 4b78 dbbc
00000140: 2962 9a3b 523d 64bb 6a5e 07be 9995 1dbd
00000150: f41d aabb 6ed0 a1bd e575 29be 9d9c 8f3d
00000160: 2ca1 1ebe c15f b0bd d781 3dbd 8ec4 f7bd
00000170: bbda 0cbc 625a 653d b47e 03be cc50 3bbe
00000180: 64cc 23bd 6436 61bd af20 02bd 9d4f 80bd
00000190: 4908 b93d 2290 ddba c936 6ebd 1035 00bd
000001a0: b699 57bd b01a 953c 1203 8b3d b531 2f3c
000001b0: 8594 febc 4b5d c2bd b9ac 863d 9759 543c
000001c0: 7c28 c4bc 1574 a6bd da59 7d3d 80be eebb
000001d0: d596 f3bd 1eb9 c7bd 71aa 00bc 0497 9d3d
000001e0: e3fc 7cbd 0602 1fbe 0db4 4ebd 872d 7b3d
000001f0: 3d5a febd d83f d8bd 46d0 253d fb36 a7bd

actor.6.weight f4 [12, 128]
-0.040088564 0.039990067 -0.025672516 0.02019466 -0.02971606 -0.008434671 0.033621993 0.014172004
-0.026848994 0.029141806 -0.0017349314 0.010820645 0.043035556 0.009276854 0.01403435 0.029176924
0.053487957 -0.023621954 0.121150754 -0.033465754 -0.010174196 0.027116233 -0.068152376 0.020394932
0.10759185 -0.044288825 -0.003783732 0.040879756 -0.0003397448 0.0056228945 0.02707637 -0.0018810162
0.05346251 -0.015892383 -0.002001491 0.05764462 -0.04497566 -0.006109125 -0.007718484 0.013989505
-0.058613632 0.077499874 0.0048089745 0.029777404 -0.06523043 0.027768975 -0.0381541 0.031997055
-0.06055137 0.0043285894 -0.0059463815 0.0014290165 0.011982613 -0.017851887 0.02108726 0.032040168
0.056419138 0.11375941 0.00027349062 -0.05390168 0.014574328 -0.053935803 -0.0071237455 -0.027149664
0.011955001 -0.027092502 0.065055035 0.045291636 0.03377006 -0.020139845 0.02787609 0.013072223
-0.04978495 -0.028913101 0.013293846 0.042576194 -0.0145709505 0.017925616 0.024405599 0.006384084
0.0074381386 0.01801256 0.054328956 0.0019014241 0.04195043 -0.008934491 0.088894285 0.017287232
0.002198505 0.018740408 0.05025051 0.04480824 -0.0137793785 -0.032854717 -0.050761815 -0.044685647
-0.07390589 0.036891486 -0.0055971798 0.05197391 0.023724899 0.014832942 -0.035114687 -0.00663631
0.051969584 0.006569342 0.012100848 -0.012957552 0.10011256 0.0015564131 -0.010256274 0.017718218
0.014575646 0.102202736 0.0053455816 -0.02123406 -0.040191993 -0.009245425 0.045518685 -0.029847376
0.026023371 -0.013915743 -0.076148786 -0.006902389 -0.058596753 0.03462038 0.050044913 -0.05458459
0.0026474292 -0.05926776 0.059741944 -0.022453908 0.014136357 0.05662748 -0.048671804 -0.020226272
0.018083949 0.0065246793 -0.028289985 -0.03799013 0.015118526 0.0017585608 -0.032513894 0.052512795
-0.02469613 0.05700276 -0.11027137 0.004183629 0.031322412 -0.010962557 -0.10572689 -0.02732208
0.090850264 -0.00047450355 0.0058275512 -0.01921446 -0.063798 0.021441322 -0.004029149 0.004196264
-0.09289806 0.051191304 0.009031286 -0.12964547 -0.044670995 -0.038512148 0.016427003 0.055151407
0.013416152 -0.0077267974 -0.02288504 0.023347724 -0.011126904 -0.01884365 -0.096307546 0.0011149226
-0.0035114416 -0.16553995 0.036237 -0.012734474 -0.021332765 -0.079465166 0.022242226 -0.04018571
0.011995317 -0.052739006 0.02596508 -0.073380366 -0.0014222367 -0.066536136 -0.019829083 -0.029502718
0.024336115 -0.018616507 0.004247876 -0.07203504 -0.0146799255 -0.036936495 0.015658306 0.030027948
-0.040742442 -0.0037753917 -0.008256695 -0.06257183 -0.016590443 0.0054131546 0.019486796 0.014330596
-0.031232227 -0.006345162 -0.01657847 -0.014098051 0.013959156 0.075216256 -0.05563595 -0.050344236
0.037263397 -0.13377164 0.030734172 0.025529953 -0.007258046 -0.019664334 -0.033458453 -0.0752857
0.007929485 -0.005971211 0.00048298517 -0.043301634 0.028524676 0.009511187 -0.025329955 -0.0033433544
-0.004142637 0.00033250888 0.04378297 0.018340364 0.006410494 -0.009152265 0.0022564856 0.0024060095
-0.0010187388 0.021682607 -0.018810818 0.013166516 0.056868892 0.061545506 0.042552184 0.015181068
-0.0110855745 -0.038739733 -0.0026105903 0.049969718 -0.009853985 0.0009513533 -0.008073013 -0.04013458
00000000: e833 24bd a0cc 233d 2b4f d2bc 466f a53c
00000010: 186f f3bc 9331 0abc 37b7 093d b131 683c
00000020: 6cf2 dbbc ccba ee3c a366 e3ba 1349 313c
00000030: 0d46 303d f2fd 173c 55f0 653c 7204 ef3c
00000040: 3016 5b3d d482 c1bc e31d f83d 6313 09bd
00000050: acb1 26bc dd22 de3c 7993 8bbd 4613 a73c
00000060: 1e59 dc3d 3368 35bd 7df8 77bb 8871 273d
00000070: c61f b2b9 4240 b83b 43cf dd3c 6e8c f6ba
00000080: 81fb 5a3d be30 82bc 722b 03bb c41c 6c3d
00000090: 6638 38bd 0e2f c8bb 56eb fcbb 3d34 653c
000000a0: d914 70bd 41b8 9e3d 9a94 9d3b beef f33c
000000b0: 8897 85bd c37b e33c 7947 1cbd 580f 033d
000000c0: b704 78bd d7d6 8d3b ddd9 c2bb d64d bb3a
000000d0: b952 443c 1f3e 92bc 31bf ac3c 8d3c 033d
000000e0: c117 673d b2fa e83d 4a63 8f39 02c8 5cbd
000000f0: 2ac9 6e3c caeb 5cbd 4f6e e9bb f968 debc
00000100: e9de 433c 18f1 ddbc 933b 853d b983 393d
00000110: 7952 0a3d 51fc a4bc 665c e43c e12c 563c
00000120: 4eeb 4bbd 2bdb ecbc 6ece 593c 6064 2e3d
00000130: ffba 6ebc bed8 923c 40ee c73c 9431 d13b
00000140: a1bb f33b 148f 933c 0a88 5e3d 3539 f93a
00000150: 37d4 2b3d f961 12bc 350e b63d f49d 8d3c
00000160: cb14 103b 7c85 993c 7bd3 4d3d d888 373d
00000170: e7c2 61bc ab92 06bd 9feb 4fbd 4c08 37bd
00000180: f95b 97bd 871b 173d 8c68 b7bb 98e2 543d
00000190: b85a c23c de05 733c 6bd4 0fbd 6775 d9bb
000001a0: 0fde 543d a343 d73b a342 463c ea4b 54bc
000001b0: d007 cd3d 8f00 cc3a ee09 28bc cc25 913c
000001c0: b1ce 6e3c ab4f d13d fd29 af3b 0df3 adbc
000001d0: 5ca0 24bd 207a 17bc cd71 3a3d 7c82 f4bc
000001e0: f72e d53c dbfe 63bc e5f3 9bbd 702d e2bb
000001f0: 2603 70bd 19ce 0d3d e5fb 4c3d 1794 5fbd
00000200: 7e80 2d3b c0c2 72bd f8b3 743d 42f1 b7bc
00000210: 2e9c 673c 37f2 673d 165c 47bd 91b1 a5bc
00000220: ca24 943c facc d53b 66c0 e7bc 8a9b 1bbd
00000230: b2b3 773c 827f e63a 4a2d 05bd a817 573d
00000240: 8a4f cabc ba7b 693d f5d5 e1bd d316 893b
00000250: ee4b 003d 4c9c 33bc 5787 d8bd 8ed2 dfbc
00000260: b40f ba3d cac6 f8b9 0bf5 be3b a567 9dbc
00000270: 87a8 82bd b6a5 af3c f406 84bb d080 893b
00000280: 5741 bebd f9ad 513d f6f7 133c c8c1 04be
00000290: eff8 36bd eabe 1dbd ec91 863c 71e6 613d
000002a0: 6ccf 5b3c 1331 fdbb 6879 bbbc ba43 bf3c
000002b0: 9e4d 36bc 005e 9abc e43c c5bd 9822 923a
000002c0: 3720 66bb 4e83 29be 406d 143d 41a4 50bc
000002d0: 0dc2 aebc a2be a2bd 5435 b63c c599 24bd
000002e0: 0288 443c db04 58bd b8b4 d43c 7248 96bd
000002f0: 586a baba 1944 88bd 9a70 a2bc afaf f1bc
00000300: 885c c73c a581 98bc c431 8b3b 1b87 93bd
00000310: 1284 70bc b94a 17bd d945 803c 2cfd f53c
00000320: 8ce1 26bd 906c 77bb 1747 07bc a925 80bd
00000330: aee8 87bc d560 b13b c6a2 9f3c e0ca 6a3c
00000340: bada ffbc 14eb cfbb 92cf 87bc 83fb 66bc
00000350: f2b4 643c fb0a 9a3d 86e2 63bd c235 4ebd
00000360: 81a1 183d 6ffb 08be 3bc6 fb3c 3124 d13c
00000370: e7d4 edbb 1917 a1bc bb0b 09bd 642f 9abd
00000380: acea 013c 26aa c3bb 2c39 fd39 0e5d 31bd
00000390: 95ac e93c cfd4 1b3c c480 cfbc 2e1c 5bbb
000003a0: f5be 87bb 9654 ae39 c655 333d 883e 963c
000003b0: 1f0f d23b 62f3 15bc 8ce1 133b 24ae 1d3b
000003c0: 3487 85ba b99f b13c 2519 9abc 5fb8 573c
000003d0: 5bef 683d 2417 7c3d 334b 2e3d 04ba 783c
000003e0: 45a0 35bc 8ead 1ebd 7016 2bbb 0cad 4c3d
000003f0: 9c72 21bc 3d64 793a ac44 04bc 2864 24bd

actor.6.bias f4 [12]
-0.0209745 0.12651278 -0.02123159 -0.041240655 -0.13465407 -0.11276125 0.10995975 0.104047336
0.1885496 0.009554024 0.08870832 0.059790023
00000000: b7d2 abbc 918c 013e dfed adbc f6eb 28bd
00000010: c2e2 09be 5fef e6bd 9432 e13d c516 d53d
00000020: 2513 413e 7b88 1c3c b5ac b53d 62e6 743d
