src/unitree_ros2_python/share/models/flat_policy.onnx (onnx, 164629 bytes, 8 tensors)

actor.0.weight f4 [128, 48]
0.31895673 -0.120622404 0.20834817 0.07123104 -0.12277865 0.11203487 0.049984176 -0.61030746
0.022416761 -0.13267188 -0.6760555 -0.0014130779 0.435036 0.9528592 0.7036817 0.8673763
0.13504502 0.032947663 0.11017871 -0.81825304 -0.028043633 -0.14108977 0.21539205 -0.3911943
0.09109479 -0.06270407 -0.114756934 0.068356104 -0.02498815 -0.0059302077 0.011347744 -0.0115713645
-0.029129645 0.045373887 -0.036619574 0.046469834 0.2905193 -0.07560943 -0.06759155 0.093648344
-0.093029216 -0.031914935 0.021681104 -0.119633466 -0.2524849 -0.00083674333 0.035071086 -0.039479006
0.76263106 -0.21737978 -0.5565013 -0.16099113 0.0666107 -0.11318689 0.5629142 1.1100265
-0.11112713 -0.5571772 0.724632 0.5626529 -0.5187806 -0.124421105 -0.22430566 0.077202424
-0.39516187 -0.20792083 0.18032415 0.012527338 -0.32311317 0.48167065 -0.071294375 0.5311893
0.009820608 -0.058156792 -0.03083651 0.044623442 0.06672636 -0.027841901 -0.019879391 0.023283351
0.04164365 -0.017091008 -0.0067220377 0.032856874 -0.117868036 -0.09145615 0.08523514 0.21180804
-0.041419722 0.12999763 0.07177794 -0.1090963 -0.0712694 0.085191816 -0.041976277 -0.15979466
0.32238072 0.43433324 0.085787125 0.16260535 -0.07431458 -0.13961525 -0.11169168 -0.0933185
-0.022324592 0.006230072 0.20053518 -0.11578098 -0.9556646 -0.38976094 -0.3553977 -0.46515203
0.34850672 0.08199149 -0.13099362 -0.8581425 -0.13359965 -0.15745924 -0.27912098 0.29334274
0.05406499 0.03414138 -0.0986293 0.23649146 -0.000113347945 -0.032198057 -0.001160067 0.009287314
0.08488567 -0.006929492 -0.025981471 0.058564313 -0.17016637 -0.255355 -0.12387749 0.13390368
-0.082714446 -0.005095497 -0.09789747 -0.05374492 -0.13272509 -0.20850827 0.08241413 0.07143099
0.044117305 -0.2999392 -0.03901056 0.14021868 0.20840839 0.0012914868 -0.25255376 -0.50351125
-0.06558669 0.18729497 0.4923938 0.12778041 0.8979482 0.79846793 -0.013869254 1.0086405
0.23056719 -0.66325665 0.5484542 0.6621166 0.2422562 -0.39965612 -0.298349 -0.17587803
-0.017856505 0.012018975 0.05518383 -0.00991226 0.019017983 -0.02523761 -0.034418173 -0.008742545
0.01660742 0.019279785 0.035258092 -0.007603496 -0.02349189 0.108653724 0.06648439 0.096634276
-0.0017423212 -0.108347654 0.12956354 0.027728979 0.05619776 0.0028117127 -0.06538156 0.028971618
-0.88053775 0.07887354 -0.84230465 -0.011721208 0.39663988 -0.03788818 -0.026693694 -0.24779484
0.01469724 0.01844529 -0.026269305 -0.12732118 0.19270125 -0.6793081 0.15626733 0.5039016
0.2669008 -0.120482184 0.2643667 0.21353553 0.796846 0.30969033 0.09030584 0.36142656
-0.05551794 0.06769023 -0.010024618 -0.03923117 0.039068144 -0.039438505 -0.000614284 0.05150851
0.124418914 0.06098047 0.027319735 0.10547005 0.22645703 0.21892384 -0.037736256 -0.055287708
0.10906929 0.3210969 -0.18929796 0.082301944 0.19880265 -0.030336672 -0.08605069 -0.14536908
-0.06377601 0.17446393 0.8742639 -0.13853212 -0.12808858 0.13351437 0.23336212 0.011140661
0.0022064515 -0.37434074 -0.27153072 -0.14363925 0.102782324 0.24219094 0.18929484 0.16496079
00000000: 4c4e a33e e108 f7bd 3959 553e 94e1 913d
00000010: 5f73 fbbd 8a72 e53d 35bc 4c3d 1c3d 1cbf
00000020: 5ba3 b73c 23db 07be f911 2dbf 0737 b9ba
00000030: 0abd de3e 95ee 733f 7c24 343f 600c 5e3f
00000040: 3e49 0a3e 21f4 063d 60a5 e13d 0879 51bf
00000050: c3bb e5bc d679 10be bc8f 5c3e 9f4a c8be
00000060: e88f ba3d fe6a 80bd af05 ebbd 49fe 8b3d
00000070: f3b3 ccbc 3052 c2bb e3eb 393c d295 3dbc
00000080: 4ba1 eebc f8d9 393d 68fe 15bd 2757 3e3d
00000090: f2be 943e 1ed9 9abd 706d 8abd b4ca bf3d
000000a0: 1a86 bebd 3cb9 02bd 929c b13c 6402 f5bd
000000b0: b345 81be e558 5bba b3a6 0f3d bdb4 21bd
000000c0: ca3b 433f ce98 5ebe df76 0ebf dcda 24be
000000d0: 316b 883d 87ce e7bd 251b 103f 5915 8e3f
000000e0: 9f96 e3bd 2aa3 0ebf 7c81 393f 050a 103f
000000f0: cece 04bf 7ed0 febd 62b0 65be 4e1c 9e3d
00000100: a852 cabe 33e9 54be e5a6 383e 773f 4d3c
00000110: 176f a5be 899d f63e c902 92bd 06fc 073f
00000120: 9ee6 203c d135 6ebd d99c fcbc 12c7 363d
00000130: d4a7 883d b314 e4bc 1bda a2bc babc be3c
00000140: 8892 2a3d 7102 8cbc 8a44 dcbb ee94 063d
00000150: cc64 f1bd 5d4d bbbd c38f ae3d 35e4 583e
00000160: baa7 29bd 191e 053e 5000 933d e26d dfbd
00000170: b1f5 91bd 0c79 ae3d 51ef 2bbd 36a1 23be
00000180: 160f a53e ed60 de3e 29b1 af3d 0482 263e
00000190: 3e32 98bd 4df7 0ebe 9cbe e4bd c51d bfbd
000001a0: 10e2 b6bc a225 cc3b 1859 4d3e 941e edbd
000001b0: 6fa6 74bf bf8e c7be b0f6 b5be 6828 eebe
000001c0: 796f b23e 28eb a73d 3123 06be 3aaf 5bbf
000001d0: 59ce 08be ff3c 21be f2e8 8ebe 0531 963e
000001e0: 4073 5d3d d5d7 0b3d 29fe c9bd d12a 723e
000001f0: 37b5 edb8 1ce2 03bd 640d 98ba d129 183c
00000200: 8ad8 ad3d cb10 e3bb 18d7 d4bc 22e1 6f3d
00000210: 1840 2ebe e4bd 82be 7bb3 fdbd 0c1e 093e
00000220: 3166 a9bd 20f8 a6bb 787e c8bd a223 5cbd
00000230: 16e9 07be 3183 55be bdc8 a83d 694a 923d
00000240: 59b4 343d a191 99be 89c9 1fbd 7c95 0f3e
00000250: 0269 553e 1b47 a93a ba4e 81be 1de6 00bf
00000260: 5152 86bd 41ca 3f3e 0a1b fc3e ded8 023e
00000270: efdf 653f 6568 4c3f de3b 63bc 221b 813f
00000280: ce19 6c3e 30cb 29bf 7f67 0c3f 7980 293f
00000290: 0212 783e ba9f ccbe 33c1 98be 5f19 34be
000002a0: ce47 92bc 3ceb 443c 7108 623d 0867 22bc
000002b0: 9acb 9b3c 1bbf cebc 12fa 0cbd e43c 0fbc
000002c0: 490c 883c a4f0 9d3c ca6a 103d bf26 f9bb
000002d0: 1072 c0bc d885 de3d f828 883d 31e8 c53d
000002e0: 995e e4ba 60e5 ddbd 4eac 043e e227 e33c
000002f0: 9f2f 663d b644 383b c4e6 85bd e355 ed3c
00000300: ec6a 61bf 7388 a13d 47a1 57bf 4f0a 40bc
00000310: 6214 cb3e a330 1bbd bcac dabc eebd 7dbe
00000320: b1cc 703c 941a 973c ba32 d7bc 7c60 02be
00000330: 7a53 453e 23e7 2dbf 8b04 203e b2ff 003f
00000340: 39a7 883e 5dbf f6bd 125b 873e 0fa9 5a3e
00000350: 19fe 4b3f bb8f 9e3e 45f2 b83d e70c b93e
00000360: c866 63bd 2da1 8a3d 4c3e 24bc ddb0 20bd
00000370: eb05 203d 458a 21bd e707 21ba 96fa 523d
00000380: 58cf fe3d a8c6 793d a3cd df3c ae00 d83d
00000390: 5ae4 673e 922d 603e 5591 1abd 5d75 62bd
000003a0: b85f df3d d066 a43e 53d7 41be ec8d a83d
000003b0: ec92 4b3e 9d84 f8bc 583b b0bd a2db 14be
000003c0: ff9c 82bd aca6 323e c2cf 5f3f 5ddb 0dbe
000003d0: a729 03be feb7 083e 7bf6 6e3e 5287 363c
000003e0: 1d9a 103b 97a9 bfbe 1306 8bbe 2b16 13be
000003f0: 8a7f d23d e700 783e 82d6 413e 7beb 283e

actor.0.bias f4 [128]
0.09714285 -0.05862729 -0.24919228 0.07457541 -0.091269135 -0.0044703097 0.34508005 0.23403648
-0.3044308 0.106990024 0.090587884 0.009179089 -0.0830198 -0.06131598 -0.17047478 -0.18439949
-0.040569045 0.17214656 0.01687482 -0.25735953 0.16017848 -0.12702143 -0.014293609 0.00797571
0.18835999 0.054924127 0.12968 -0.14254187 -0.08485339 0.14444216 -0.14569628 0.10064674
0.15160233 -0.11709993 -0.1347313 -0.21640098 0.16522846 -0.043138873 0.054356463 0.16131079
-0.32144138 -0.061085746 0.111658596 -0.31592155 0.08427128 -0.01403144 0.010614583 0.05069588
0.00079783547 0.072530895 0.04034452 0.24604443 -0.056381315 -0.08785161 -0.10190377 0.16147421
0.058067884 -0.0229622 0.11807594 -0.073443025 0.049651098 -0.12477358 0.23013987 -0.30984053
-0.06746197 -0.09430449 -0.04532967 0.07568595 0.08048844 -0.12308689 -0.10154643 -0.18433473
-0.008914126 -0.22449498 -0.19839542 -0.06073177 -0.0842812 -0.056036778 -0.057012573 -0.21538544
-0.17752673 0.11095173 0.1996679 -0.29280496 -0.18242869 -0.20175955 0.14468238 -0.19471745
-0.13683447 -0.17004807 0.027600754 0.16842623 0.109936334 -0.033723865 -0.22113176 0.050137114
0.07556356 0.011754611 -0.17165266 0.04873515 0.14729287 -0.090886556 -0.33082673 -0.09643387
-0.20321934 0.25290072 -0.020158514 -0.008281403 -0.083017804 0.13839498 -0.07768136 0.26624334
0.0560805 -0.09766089 -0.19005165 0.08367178 -0.030822322 0.008620742 -0.28619877 -0.020042092
-0.18097754 -0.28674713 0.09903459 -0.04012503 0.014803127 -0.07763076 -0.14545932 -0.16205128
00000000: d5f2 c63d 2b23 70bd 432c 7fbe feba 983d
00000010: 50eb babd ad7b 92bb 55ae b03e 42a7 6f3e
00000020: 5bde 9bbe 961d db3d 2486 b93d e463 163c
00000030: 4906 aabd 7726 7bbd f190 2ebe 38d3 3cbe
00000040: ba2b 26bd 3047 303e 103d 8a3c a1c4 83be
00000050: d405 243e e811 02be be2f 6abc 8dac 023c
00000060: 71e1 403e 1ff8 603d d5ca 043e 7ff6 11be
00000070: 9dc7 adbd a5e8 133e 6831 15be e11f ce3d
00000080: a43d 1b3e 17d2 efbd 00f7 09be 3898 5dbe
00000090: a631 293e 63b2 30bd e2a4 5e3d a82e 253e
000000a0: f793 a4be 0c35 7abd 43ad e43d 78c0 a1be
000000b0: 6c96 ac3d 20e4 65bc cae8 2d3c 7ca6 4f3d
000000c0: d525 513a 148b 943d 4c40 253d 12f3 7b3e
000000d0: 18f0 66bd 8beb b3bd ecb2 d0bd 7f59 253e
000000e0: 97d8 6d3d 391b bcbc ccd1 f13d 4c69 96bd
000000f0: f35e 4b3d 4a89 ffbd c9a9 6b3e 6ba3 9ebe
00000100: 8029 8abd b622 c1bd 9bab 39bd 3c01 9b3d
00000110: 20d7 a43d fb14 fcbd 93f7 cfbd 3ec2 3cbe
00000120: 8e0c 12bc 03e2 65be 2b28 4bbe e0c1 78bd
00000130: 9f9b acbd d286 65bd 0486 69bd 008e 5cbe
00000140: 91c9 35be a93a e33d be75 4c3e 88ea 95be
00000150: 96ce 3abe 0e9a 4ebe 9e27 143e 0364 47be
00000160: 561e 0cbe 1521 2ebe fa1a e23c ed77 2c3e
00000170: 4d26 e13d 0922 0abd 5d70 62be 935c 4d3d
00000180: 11c1 9a3d 6996 403c b7c5 2fbe 829e 473d
00000190: f1d3 163e bb22 babd 1f62 a9be 1f7f c5bd
000001a0: bb18 50be 347c 813e 7823 a5bc b9ae 07bc
000001b0: 3d05 aabd 6ab7 0d3e 6817 9fbd 0c51 883e
000001c0: abb4 653d 6f02 c8bd e69c 42be 1c5c ab3d
000001d0: 187f fcbc 033e 0d3c a588 92be 502f a4bc
000001e0: 2d52 39be 85d0 92be a6d2 ca3d 255a 24bd
000001f0: d188 723c e0fc 9ebd 4af3 14be c5f0 25be

actor.2.weight f4 [128, 128]
0.06576114 0.13139063 0.11988538 -0.054507796 0.046830885 -0.023891162 0.074910305 0.08249058
-0.06091961 0.1586207 0.17526777 -0.018545052 -0.16398023 0.13058288 -0.10857589 -0.13770148
-0.13328394 0.09314651 -0.0065046414 -0.16564289 0.034825064 0.2130135 0.02427841 0.056658316
0.14258996 0.005990265 0.0034765138 -0.14068145 0.021101741 0.25309914 0.088092215 0.07064542
-0.05468074 0.03877504 0.043285284 -0.032563202 -0.110619076 -0.03303306 -0.052074783 -0.27812466
-0.004723446 0.23515877 -0.14124551 0.018452322 -0.13598013 0.104624204 0.058913447 0.108298816
-0.15397713 -0.008097081 -0.1966931 -0.14218564 -0.065205336 -0.081222266 0.06811294 -0.017854275
0.10840495 0.02186241 0.12863661 0.0033757254 0.04483989 -0.061047897 0.059782676 -0.025792085
-0.01309546 0.06394843 -0.04125143 0.16919911 0.046170574 -0.089547366 0.049563095 -0.043874513
0.05870562 -0.28567728 -0.22997616 0.025318716 -0.010470898 -0.055143107 0.030386534 0.12552926
0.09823446 -0.09759695 -0.057609566 -0.16496393 0.005428336 -0.19640665 -0.076849945 -0.14538066
0.013691506 0.12071219 0.00731179 0.19148032 -0.06805098 0.1140047 -0.092506886 0.0034719845
-0.0508157 0.030119838 -0.20116358 -0.14598873 -0.035910252 0.13528493 0.0276172 -0.0584332
0.26161012 0.09278215 -0.042862933 -0.19720604 0.033041876 0.09917788 0.028052337 0.0727469
-0.034147065 -0.08214592 -0.0791502 -0.06346246 -0.07585574 -0.06703256 -0.0954434 0.024468914
0.02164013 -0.1502906 -0.07944803 -0.25232285 0.13112104 -0.026612608 0.029222235 -0.056658406
0.16225278 0.05339737 0.1687065 0.1635206 -0.12110933 -0.055019874 0.11440157 0.06637407
0.042044494 0.0041051796 0.06686609 -0.018994315 -0.0138879735 0.03448397 -0.10325001 0.23136455
0.027693963 -0.12098265 -0.24485296 -0.07569812 0.11932139 -0.087276496 -0.16660902 0.18181916
0.18430735 0.22069667 -0.075361304 -0.23224364 0.06576003 -0.037301846 -0.04056419 -0.11768797
-0.18341897 -0.0703027 0.029707927 -0.0035279533 -0.084346935 -0.07970557 -0.10214981 0.0858435
0.00324356 -0.091784485 0.068537585 0.008372316 0.23677307 0.07310747 0.17568205 0.06695197
0.054188702 0.06246861 -0.07942323 -0.103444055 -0.084458694 -0.00018827537 0.21561937 0.09972399
-0.048873384 0.114095345 -0.0029453936 0.010682736 -0.23784296 0.057802744 -0.018077785 -0.008506061
0.011206009 0.018917546 -0.08907984 -0.08455093 0.083294176 0.12696491 0.11150787 0.0632933
0.03840908 0.11500952 0.062293082 0.01333974 0.045391228 0.051851705 0.015519896 0.14243123
-0.07148208 -0.14342342 -0.059922867 -0.02104357 -0.11239839 -0.02630517 0.2442623 0.20148197
0.034712475 -0.065469496 -0.13680065 -0.074165076 0.21624722 0.1973521 0.25034463 0.008001915
0.067998566 0.08352987 -0.017895376 0.056236908 0.21830003 0.07530256 -0.010820959 -0.005812045
0.18722956 -0.059726663 0.124980316 -0.011586158 0.046812043 -0.0017892089 -0.015616495 -0.00033262232
0.026045928 -0.043976326 0.040692937 -0.07940475 0.010154734 -0.03657266 0.0056233346 0.12787238
-0.04462706 -0.050461415 0.027538769 -0.10236174 0.031745836 0.14418587 -0.06042753 0.17274012
00000000: c7ad 863d 448b 063e 7786 f53d 9143 5fbd
00000010: bed1 3f3d 66b7 c3bc 936a 993d d2f0 a83d
00000020: d786 79bd 776d 223e 6579 333e cbeb 97bc
00000030: 6fea 27be 85b7 053e 095d debd 9e01 0dbe
00000040: 967b 08be 99c3 be3d e324 d5bb 4a9e 29be
00000050: baa4 0e3d 3620 5a3e 84e3 c63c 8d12 683d
00000060: 1a03 123e fc49 c43b 39d6 633b cc0e 10be
00000070: 8fdd ac3c 3696 813e b169 b43d 8cae 903d
00000080: e9f8 5fbd 94d2 1e3d e94b 313d fe60 05bd
00000090: 418c e2bd ad4d 07bd 5e4c 55bd 5b66 8ebe
000000a0: 23c7 9abb 76cd 703e aaa2 10be 5329 973c
000000b0: 603e 0bbe 3745 d63d 3a4f 713d c5cb dd3d
000000c0: 2eac 1dbe 9fa9 04bc ea69 49be 1d99 11be
000000d0: 608a 85bd dc57 a6bd cc7e 8b3d 2143 92bc
000000e0: 6a03 de3d cc18 b33c 51b9 033e 463b 5d3b
000000f0: 08aa 373d 5c0d 7abd aede 743d ec49 d3bc
00000100: 578e 56bc 65f7 823d 42f7 28bd 8842 2d3e
00000110: 5b1d 3d3d 9c64 b7bd ac02 4b3d c3b5 33bd
00000120: 4e75 703d 4b44 92be df7e 6bbe 3269 cf3c
00000130: 218e 2bbc bddd 61bd 2eed f83c be8a 003e
00000140: 262f c93d e9e0 c7bd 02f8 6bbd 4eec 28be
00000150: 2fe0 b13b d31e 49be 8163 9dbd abde 14be
00000160: 5752 603c f437 f73d bd97 ef3b 6b13 443e
00000170: 505e 8bbd 4c7b e93d 4074 bdbd 3c8a 633b
00000180: 2024 50bd e1bd f63c d3fd 4dbe 127e 15be
00000190: a116 13bd 2288 0a3e 773d e23c a757 6fbd
000001a0: c3f1 853e 9104 be3d 0b91 2fbd 61f0 49be
000001b0: eb56 073d c61d cb3d 04ce e53c 54fc 943d
000001c0: cbdd 0bbd 1f3c a8bd 8019 a2bd 9bf8 81bd
000001d0: 415a 9bbd 5e48 89bd d477 c3bd 0873 c83c
000001e0: a446 b13c c7e5 19be a6b5 a2bd 7630 81be
000001f0: 9844 063e af02 dabc 7863 ef3c a512 68bd
00000200: 9825 263e 33b7 5a3d 66c1 2c3e f271 273e
00000210: 2b08 f8bd 855c 61bd 5f4b ea3d 21ef 873d
00000220: d936 2c3d be84 863b 17f1 883d f799 9bbc
00000230: 628a 63bc 103f 0d3d be74 d3bd d4ea 6c3e
00000240: 73de e23c c0c5 f7bd bcba 7abe 9e07 9bbd
00000250: c65e f43d 05be b2bd 8e9b 2abe cd2e 3a3e
00000260: 11bb 3c3e 4ffe 613e 0757 9abd 47d1 6dbe
00000270: 32ad 863d d2c9 18bd a326 26bd 6406 f1bd
00000280: 2fd2 3bbe ddfa 8fbd 0a5e f33c 3c35 67bb
00000290: 16be acbd ad3c a3bd eb33 d1bd b8ce af3d
000002a0: e891 543b 81f9 bbbd 6f5d 8c3d 0a2c 093c
000002b0: a474 723e 5fb9 953d ffe5 333e 1d1e 893d
000002c0: f9f4 5d3d 16df 7f3d a5a8 a2bd 7ada d3bd
000002d0: aef8 acbd c96b 45b9 53cb 5c3e 173c cc3d
000002e0: 752f 48bd d2aa e93d 8107 41bb a406 2f3c
000002f0: 1b8d 73be 92c2 6c3d dd17 94bc 015d 0bbc
00000300: 6999 373c f8f8 9a3c 7e6f b6bd 0a29 adbd
00000310: 2396 aa3d 1703 023e 3d5e e43d eb9f 813d
00000320: d752 1d3d 1c8a eb3d 0827 7f3d ed8e 5a3c
00000330: 27ec 393d 7462 543d 2947 7e3c 7ed9 113e
00000340: 3265 92bd 97dd 12be ae71 75bd 9163 acbc
00000350: 2131 e6bd f17d d7bc e51f 7a3e 4a51 4e3e
00000360: ab2e 0e3d df14 86bd 7815 0cbe dce3 97bd
00000370: e96f 5d3e ab16 4a3e 2c2d 803e 771a 033c
00000380: d542 8b3d b511 ab3d 5399 92bc ac58 663d
00000390: 0b8a 5f3e 3b38 9a3d 644a 31bc f872 bebb
000003a0: 1bb9 3f3e f2a3 74bd aef5 ff3d ded3 3dbc
000003b0: fcbd 3f3d e383 eaba 54dc 7fbc d063 aeb9
000003c0: 455e d53c 8520 34bd a3ad 263d f59e a2bd
000003d0: 0b60 263c 37cd 15bd f343 b83b faf0 023e
000003e0: ddca 36bd a1b0 4ebd fc98 e13c 08a3 d1bd
000003f0: ec07 023d 76a5 133e dc82 77bd c9e2 303e

actor.2.bias f4 [128]
-0.04644862 -0.058916852 -0.034397595 0.044858817 -0.13816547 -0.04579096 -0.20424853 -0.16060488
-0.14009917 -0.049189735 -0.054434787 -0.10035593 -0.0625576 -0.07572629 -0.20214993 -0.11893713
0.038520843 -0.023836032 -0.057022084 -0.17792188 -0.21898621 -0.12845424 -0.15160045 -0.31468368
-0.021201951 0.047189124 -0.16298501 -0.04353941 0.0058601946 0.014781608 -0.2517459 -0.26923373
-0.14265878 0.010444751 -0.28098625 0.015940802 -0.15423426 -0.0694086 0.026551541 -0.22731492
-0.295548 -0.18956615 -0.008151052 -0.2218027 -0.11999724 -0.10684386 -0.21575598 -0.20564951
-0.15848087 -0.07615484 -0.22295061 -0.009093575 -0.23446408 -0.0496416 -0.23773934 -0.1273997
-0.1627551 -0.21275705 -0.07790162 -0.22548807 0.106771626 -0.08763502 0.121059224 -0.18008395
-0.31324607 -0.17696646 -0.1378006 -0.26110277 0.01399557 -0.13722424 -0.08297724 -0.06281201
-0.2307558 -0.28114808 -0.32783827 -0.19341785 -0.24451491 -0.037296403 -0.21752508 -0.32659546
-0.16899337 0.046647914 -0.23309222 -0.05308729 -0.23522638 -0.08379605 -0.053787936 -0.1292185
-0.11579783 -0.10512913 -0.11714033 -0.2973196 -0.1974091 -0.18305367 0.061769452 -0.12929341
-0.07483655 -0.1503711 0.07549235 -0.14741111 -0.05666746 -0.20721821 -0.167475 -0.055150136
-0.05621876 -0.264564 -0.25967857 -0.24373108 0.020326538 -0.1958597 -0.2457609 -0.22797382
-0.057548348 -0.17817074 -0.06976817 -0.20231606 -0.16096061 -0.04899101 -0.1944842 -0.1540827
-0.18647411 -0.12651773 -0.13604064 -0.12812263 -0.08429431 -0.14505456 -0.118837476 -0.29776397
00000000: e840 3ebd cc52 71bd 7ee4 0cbd e1bd 373d
00000010: 407b 0dbe 4d8f 3bbd 8726 51be 9b75 24be
00000020: 2876 0fbe 2d7b 49bd 03f7 5ebd 6987 cdbd
00000030: 331e 80bd 6316 9bbd 6400 4fbe 4f95 f3bd
00000040: 08c8 1d3d c843 c3bc fd8f 69bd 2731 36be
00000050: ec3d 60be 8289 03be 263d 1bbe 381e a1be
00000060: b7af adbc 6249 413d 8be5 26be 6156 32bd
00000070: e006 c03b 8f2e 723c d7e4 80be 01d9 89be
00000080: 2515 12be 7620 2b3c 6edd 8fbe 4996 823c
00000090: 96ef 1dbe 1926 8ebd 9e82 d93c 3ec5 68be
000000a0: 1152 97be a11d 42be fd8b 05bc 3f20 63be
000000b0: 1dc1 f5bd f4d0 dabd 23ef 5cbe c995 52be
000000c0: cf48 22be 12f7 9bbd 2a4d 64be 38fd 14bc
000000d0: 5a17 70be fe54 4bbd f171 73be 1175 02be
000000e0: 46a9 26be fcdc 59be e28a 9fbd 58e6 66be
000000f0: 15ab da3d fd79 b3bd e6ed f73d ed67 38be
00000100: ca61 a0be b236 35be 9a1b 0dbe 43af 85be
00000110: ad4d 653c 8384 0cbe f9ef a9bd 95a3 80bd
00000120: 404b 6cbe a4f2 8fbe 6bda a7be 540f 46be
00000130: 1e62 7abe 1dc4 18bd e5be 5ebe 8537 a7be
00000140: 990c 2dbe e211 3f3d baaf 6ebe 0f72 59bd
00000150: 2fdf 70be 439d abbd bd50 5cbd db51 04be
00000160: 6a27 edbd f14d d7bd 45e7 efbd 463a 98be
00000170: 9c25 4abe 6c72 3bbe f701 7d3d 7e65 04be
00000180: e843 99bd e2fa 19be bc9b 9a3d f0f2 16be
00000190: 231c 68bd 0331 54be 917e 2bbe 1ce5 61bd
000001a0: a445 66bd ef74 87be 97f4 84be a494 79be
000001b0: d783 a63c 728f 48be bfa8 7bbe f871 69be
000001c0: d1b7 6bbd 6472 36be 9de2 8ebd f12b 4fbe
000001d0: dcd2 24be ccaa 48bd de26 47be dbc7 1dbe
000001e0: 12f3 3ebe dd8d 01be 3d4e 0bbe 9432 03be
000001f0: 7fa2 acbd 2f89 14be 1061 f3bd 8574 98be

actor.4.weight f4 [128, 128]
0.053304877 -0.1694296 -0.13319872 -0.0017434291 -0.056997743 0.052783646 -0.15817162 0.17158982
0.01782007 0.047660448 0.0069100456 -0.013840912 0.16023391 0.10221944 -0.0072115827 -0.078651994
0.08865368 0.0466371 -0.16280042 0.014854168 -0.018617075 -0.10135205 -0.004310902 -0.12592825
0.018403336 0.08384303 -0.047208283 0.05737797 0.023035321 0.046146117 0.06361437 -0.02722766
-0.014483623 0.022176344 -0.04545479 0.010943887 0.11260147 0.12647012 0.039681595 0.058963727
0.0090701915 0.075149074 -0.033668626 0.059047744 -0.08686513 0.11344753 0.008939159 -0.0026687365
0.046560653 0.012896907 -0.0036254073 -0.28986442 0.058881138 0.025601663 -0.06878706 0.1640223
0.07181172 0.046640456 -0.032737482 -0.13877179 0.09115372 -0.14584894 0.0018565704 -0.15437652
0.06118081 0.020576674 0.06159962 0.12059713 -0.007882833 0.08947049 0.1233074 -0.044350818
-0.07631812 -0.0065654265 0.06856987 -0.02211631 -0.06178491 0.086042576 0.045118764 0.05576281
-0.07449733 0.0629477 -0.065164596 -0.09652464 0.00989549 -0.113813624 0.0026662373 0.11477186
-0.06843968 0.15442592 0.22629414 0.016327534 -0.024873827 -0.128845 0.049615506 -0.17050293
-0.11788064 0.07578663 -0.19459349 0.08920451 0.06525946 -0.12599812 -0.008734939 -0.069332376
-0.103265606 0.076795906 -0.029446477 -0.0066347364 0.082074344 0.024240948 0.058801107 0.10991415
-0.07871442 0.05446811 0.06681839 -0.104431465 0.17921183 0.06991758 0.09730061 -0.018055286
0.0910497 -0.002903038 -0.0520907 0.005265998 0.14104226 0.09183695 0.017392138 0.024727771
-0.060827117 -0.07539057 -0.010654788 -0.0039266525 0.08590974 -0.06060601 0.066463076 0.00394938
-0.06722819 0.03875866 -0.060258154 -0.16376935 -0.10386376 0.0997867 -0.18506005 0.09985509
-0.21108563 -0.046453275 -0.111342594 -0.016805172 0.021960335 -0.104581006 -0.25564054 0.16481878
0.030382045 0.06021289 -0.027213687 -0.2739278 -0.12182617 -0.05935497 -0.0024847412 -0.04031124
-0.14280044 0.08872547 0.291919 -0.0010119517 -0.030529857 -0.017958988 0.115361154 0.07172162
0.06713379 -0.07033471 -0.20777246 0.016977148 0.059169378 0.044621136 -0.04089518 0.038355034
0.021672463 -0.20595692 -0.01265263 0.07100009 -0.059354044 0.11535616 0.12679592 0.03656834
0.0601373 -0.0023919833 -0.08126274 0.09226008 -0.036253173 0.10843637 0.0073031965 0.038972918
-0.05648883 0.1712787 -0.049885653 0.20432648 -0.064175606 0.099103406 0.022330616 -0.056909893
0.08699878 -0.15728575 0.0704141 -0.012946408 0.02077857 0.0704324 0.06064117 -0.106223606
-0.07455744 0.058720473 0.13031065 0.01508812 0.07861666 -0.037809767 0.041747887 0.03188568
-0.021746535 -0.20810749 -0.09668387 0.13315783 -0.083710976 -0.117744625 0.10042143 0.07160256
-0.006094684 0.15144266 0.03624549 0.113075726 -0.121402524 -0.17100029 -0.09987268 0.011446975
0.069001295 -0.044818364 0.09551335 -0.1104804 0.27261436 0.1904591 -0.1294501 0.09998514
0.090328276 0.032974314 0.036892995 -0.118137926 0.13354358 0.026385633 -0.12799147 0.15149522
-0.0828184 -0.01825057 -0.10488368 0.05920539 -0.05383935 0.033630054 0.040929377 -0.0053164484
00000000: 3756 5a3d f47e 2dbe 3f65 08be c683 e4ba
00000010: 7776 69bd aa33 583d bef7 21be 3eb5 2f3e
00000020: 65fb 913c 9a37 433d aa6d e23b fec4 62bc
00000030: 5c14 243e 6d58 d13d 244f ecbb 4c14 a1bd
00000040: 1090 b53d 8b06 3f3d 27b5 26be e55e 733c
00000050: d682 98bc aa91 cfbd 7842 8dbb 56f3 00be
00000060: 98c2 963c e5b5 ab3d 795d 41bd 2a05 6b3d
00000070: 92b4 bc3c b603 3d3d 4048 823d 8b0c dfbc
00000080: b84c 6dbc 2aab b53c cd2e 3abd fd4d 333c
00000090: 999b e63d 6281 013e 2b89 223d f383 713d
000000a0: 249b 143c c2e7 993d 1de8 09bd 0cdc 713d
000000b0: 58e6 b1bd 2e57 e83d 8d75 123c f8e5 2ebb
000000c0: 62b6 3e3d 8c4d 533c 3e98 6dbb 1c69 94be
000000d0: 592d 713d 94ba d13c 3be0 8cbd 76f5 273e
000000e0: 0612 933d 100a 3f3d bd17 06bd 311a 0ebe
000000f0: cdae ba3d 6d59 15be 2a58 f33a e114 1ebe
00000100: bb98 7a3d 6a90 a83c e24f 7c3d a1fb f63d
00000110: ff26 01bc 4e3c b73d 9788 fc3d 34a9 35bd
00000120: ad4c 9cbd ca22 d7bb 5c6e 8c3d 442d b5bc
00000130: 2c12 7dbd 1737 b03d 74ce 383d 8b67 643d
00000140: 0e92 98bd b9ea 803d 0475 85bd b6ae c5bd
00000150: b120 223c 1e17 e9bd 0abc 2e3b 820d eb3d
00000160: 1a2a 8cbd d421 1e3e a7b9 673e 52c1 853c
00000170: 32c4 cbbc f2ef 03be a139 4b3d 5298 2ebe
00000180: 686b f1bd 0536 9b3d 8443 47be dbb0 b63d
00000190: c0a6 853d a705 01be fd1c 0fbc 22fe 8dbd
000001a0: eb7c d3bd 2c47 9d3d bd39 f1bc 3468 d9bb
000001b0: 9816 a83d f494 c63c 6ed9 703d ab1a e13d
000001c0: 0735 a1bd f419 5f3d 14d8 883d 2ae0 d5bd
000001d0: 4e83 373e f330 8f3d 8b45 c73d aee8 93bc
000001e0: 4478 ba3d e540 3ebb 0f5d 55bd 658e ac3b
000001f0: 626d 103e 0315 bc3d f579 8e3c e591 ca3c
00000200: db25 79bd 5f66 9abd 6c91 2ebc 26ab 80bb
00000210: 72f1 af3d 023e 78bd cb1d 883d cd69 813b
00000220: efae 89bd 67c1 1e3d 41d1 76bd 27b3 27be
00000230: 86b6 d4bd f85c cc3d 6280 3dbe d380 cc3d
00000240: d526 58be ca45 3ebd 9607 e4bd 00ab 89bc
00000250: 29e6 b33c 912e d6bd 51e3 82be 41c6 283e
00000260: c4e3 f83c cba1 763d 3def debc 4440 8cbe
00000270: 0080 f9bd 321e 73bd 0ad7 22bb 661d 25bd
00000280: 473a 12be b3b5 b53d 6876 953e 77a3 84ba
00000290: c019 fabc ba1e 93bc 7842 ec3d c9e2 923d
000002a0: 717d 893d a50b 90bd 4ec2 54be a913 8b3c
000002b0: 975b 723d a7c4 363d b481 27bd 2b1a 1d3d
000002c0: 738a b13c 5fe6 52be fa4c 4fbc 7f68 913d
000002d0: 3a1d 73bd da3f ec3d cad6 013e afc8 153d
000002e0: 8852 763d d2c2 1cbb 146d a6bd daf2 bc3d
000002f0: 357e 14bd e313 de3d a74f ef3b 11a2 1f3d
00000300: d560 67bd af63 2f3e e654 4cbd f63a 513e
00000310: 806e 83bd baf6 ca3d b2ee b63c 591a 69bd
00000320: 6b2c b23d 840f 21be 4535 903d 2c1d 54bc
00000330: d237 aa3c dd3e 903d e062 783d c38b d9bd
00000340: 92b1 98bd e184 703d 2870 053e 2934 773c
00000350: c501 a13d 6ade 1abd d5ff 2a3d 8f9a 023d
00000360: ca25 b2bc 211a 55be 3102 c6bd 875a 083e
00000370: a970 abbd 1824 f1bd c0a9 cd3d 5da4 923d
00000380: eab5 c7bb c913 1b3e 2776 143d 3f94 e73d
00000390: e3a1 f8bd b31a 2fbe 0c8a ccbd 188c 3b3c
000003a0: 8d50 8d3d 7693 37bd 819c c33d 8c43 e2bd
000003b0: 1c94 8b3e b607 433e 918e 04be 02c5 cc3d
000003c0: 08fe b83d 1310 073d 1c1d 173d 4cf2 f1bd
000003d0: a6bf 083e af26 d83c 3210 03be 9021 1b3e
000003e0: b19c a9bd 3882 95bc 41cd d6bd 5a81 723d
000003f0: a686 5cbd abbf 093d 90a5 273d 9a35 aebb

actor.4.bias f4 [128]
-0.09845129 -0.15490496 -0.047613535 0.06730478 -0.27883714 -0.061061062 -0.046614647 -0.20077755
0.038987383 -0.15223587 -0.24544089 -0.054825813 -0.036324523 0.006926987 -0.029502148 0.015947968
-0.16679314 -0.06852441 -0.08810844 -0.15322107 0.052072316 -0.19018868 -0.06250846 0.015415186
-0.009266072 -0.17039856 -0.10139831 -0.16001666 -0.074267216 -0.22183901 -0.14230669 0.13078658
-0.011290347 0.083429724 -0.20718253 -0.1692696 -0.1426563 -0.007756089 -0.16282654 -0.1376639
-0.21134691 0.005275866 -0.10619054 -0.024182698 -0.07063517 -0.01421756 -0.04683165 -0.23344798
-0.2434223 -0.09197148 -0.07159109 -0.058059804 -0.051355187 -0.18616268 -0.054362692 -0.025626667
-0.12713666 -0.24426827 0.07437805 -0.015232756 -0.075376995 -0.09775822 -0.1282695 0.010474731
-0.1594094 -0.079837486 -0.06071712 0.11542776 -0.13934492 0.009731134 -0.19763944 -0.16070984
-0.008360886 -0.1709874 0.08262721 0.031423073 -0.13062897 -0.13881408 -0.052740492 -0.021608034
-0.021935245 -0.2544571 -0.29022872 -0.12242754 -0.01609998 -0.17983562 -0.055502247 0.12530304
-0.03483162 -0.003995417 -0.10534571 -0.03850326 -0.018304007 -0.22105585 -0.085688725 -0.12226905
-0.07468017 0.092259206 -0.08551307 -0.1961236 -0.018409936 -0.14922863 -0.14239928 -0.07738867
-0.14948344 -0.00868021 -0.21508144 -0.19696593 -0.034356922 -0.22894469 -0.09465591 -0.06272201
-0.017026866 -0.11787444 -0.1374256 -0.18421772 0.004572501 -0.027949005 -0.2387708 -0.2179654
-0.08207597 0.037488718 -0.049124938 -0.0052199196 -0.19493298 -0.15930393 -0.12112762 -0.14548436
00000000: d4a0 c9bd 689f 1ebe 6906 43bd 17d7 893d
00000010: bec3 8ebe 2a1b 7abd 00ef 3ebd a198 4dbe
00000020: 3cb1 1f3d b8e3 1bbe db54 7bbe 0891 60bd
00000030: 06c9 14bd c7fb e23b 7dae f1bc 50a5 823c
00000040: d2cb 2abe 8756 8cbd 3372 b4bd fce5 1cbe
00000050: c849 553d d2c0 42be 6f04 80bd fa8f 7c3c
00000060: b9d0 17bc f67c 2ebe eba9 cfbd 68db 23be
00000070: 6919 98bd c429 63be d8b8 11be ebec 053e
00000080: 26fb 38bc 34dd aa3d a827 54be 0355 2dbe
00000090: 7e14 12be ca26 febb 00bc 26be c4f7 0cbe
000000a0: 536b 58be 2ce1 ac3b 6d7a d9bd cb1a c6bc
000000b0: 2ca9 90bd c5f0 68bc 8bd2 3fbd fd0c 6fbe
000000c0: b243 79be 8b5b bcbd 599e 92bd 1ed0 6dbd
000000d0: d159 52bd 6ea1 3ebe 6aab 5ebd 04ef d1bc
000000e0: 1d30 02be 7621 7abe 8553 983d cf92 79bc
000000f0: 415f 9abd 7635 c8bd 1459 03be 359e 2b3c
00000100: 383c 23be d681 a3bd 84b2 78bd 6465 ec3d
00000110: 6fb0 0ebe 566f 1f3c fe61 4abe 1f91 24be
00000120: 19fc 08bc 5217 2fbe 7438 a93d 7bb5 003d
00000130: 9ac3 05be 4725 0ebe 6a06 58bd 5503 b1bc
00000140: 8bb1 b3bc 3348 82be dc98 94be 4abb fabd
00000150: 1be4 83bc d426 38be 5356 63bd 714f 003e
00000160: 9aab 0ebd fdeb 82bb 7ebf d7bd 98b5 1dbd
00000170: 49f2 95bc 775c 62be 927d afbd 3268 fabd
00000180: ebf1 98bd 65f2 bc3d 7a21 afbd a0d4 48be
00000190: 6fd0 96bc 64cf 18be 1ed1 11be f37d 9ebd
000001a0: 3012 19be 7137 0ebc 4f3e 5cbe 70b1 49be
000001b0: d8b9 0cbd 7a70 6abe f5da c1bd 6674 80bd
000001c0: ed7b 8bbc 2868 f1bd 4cb9 0cbe 92a3 3cbe
000001d0: ebd4 953b 50f5 e4bc 5580 74be 5232 5fbe
000001e0: 7217 a8bd c58d 193d 3b37 49bd dc0b abbb
000001f0: 839c 47be 9220 23be c211 f8bd daf9 14be

actor.6.weight f4 [12, 128]
-0.047048938 -0.051200666 -0.0664432 0.012974128 0.03204689 -0.00087196793 -0.01976038 0.05176464
-0.061557915 -0.0005022603 0.009650742 0.01923091 -0.0047888523 -0.045210738 -0.041784633 0.013617131
0.07310946 0.12132111 -0.0018408342 -0.09640505 -0.016810082 -0.02293852 0.02993148 -0.027363744
0.014422593 0.013999909 0.026857624 0.072996415 -0.01986927 -0.026951736 -0.026809072 -0.03988845
0.010632912 -0.02467057 0.05998912 0.019083133 0.021026436 -0.028544845 -0.012239852 -0.048533686
0.062195055 -0.07207313 -0.08808922 -0.051147968 -0.014403208 -0.07374399 0.10338259 -0.12903847
0.06739853 0.08909929 0.066279076 0.0070516807 -0.023970691 -0.078827605 0.013211681 -0.052865814
-0.09575934 -0.01775066 -0.035441514 0.0074262023 0.12864266 -0.0067315823 -0.0024050265 -0.005737238
0.019562967 0.018884009 -0.027212199 0.038876273 0.05435449 -0.041371875 -0.071257405 0.021491252
-0.03647031 0.048267305 0.024684872 -0.019841956 0.0055813873 -0.0055731563 0.02675541 -0.008736764
-0.15479612 0.11301011 0.037265427 0.04117201 0.019926153 0.028319418 0.012291327 0.029033663
0.03228322 0.046760082 -0.009885877 -0.052826323 0.03776698 -0.083344795 -0.030352306 0.03572067
0.07547468 0.014848527 0.044188324 -0.02229266 0.041668005 0.013635317 -0.012124838 0.028637528
0.097681336 0.034706503 0.006392619 -0.028712114 -0.020468207 0.017247064 -0.052737456 -0.063986786
-0.048020944 0.022790404 0.030181754 -0.0446746 0.008922677 -0.019427873 0.025841158 0.0018014429
-0.0641454 0.04027186 0.01794817 0.025137655 0.0931023 -0.0032556348 0.013511768 -0.00044065222
-0.0076638847 -0.06947851 0.007172921 0.073237054 -0.01380248 -0.011941484 -0.040083766 -0.03432161
0.021125073 0.036275428 -0.10753324 -0.05817191 -0.019737998 0.032285407 0.0070308694 0.006859792
-0.06631575 -0.10712981 -0.048471753 0.030403974 -0.00725467 -0.0015102671 0.009630329 -0.029259035
-0.00015740274 0.008142518 -0.021727167 -0.056001123 -0.02619702 0.0057627372 0.08789956 -0.020014046
0.06498899 -0.024364328 -0.04075808 0.009768769 -0.021845296 0.012912922 -0.061351206 -0.012776822
0.086221725 0.03102707 0.037778754 0.026513347 0.045868725 0.03968477 0.065697655 -0.027816068
-0.036662143 0.0019098961 0.007455505 0.009101872 -0.026554205 0.006396274 0.018137569 0.052479066
0.11946864 0.015705893 0.0083163865 0.024759222 -0.0034085328 -0.062896736 0.06834861 0.057227127
-0.057340942 0.056127153 0.00049233297 0.02374092 -0.06756857 -0.052643467 -0.04226852 0.009709804
0.117295586 0.03762641 0.04650668 0.019254286 0.043672953 0.03146652 0.020413969 -0.027088076
0.0062472825 -0.061525606 0.13650945 -0.06727917 0.000827579 -0.019054888 0.020835398 0.10832408
-0.016734945 -0.003614657 0.03600964 -0.036111124 -0.02056017 0.043036833 -0.008834968 -0.016441392
0.007345661 0.010287081 -0.04999097 -0.028055707 -0.09119284 -0.0027873865 -0.06017412 0.056634143
0.04165728 -0.019986613 -0.09011584 0.004217685 0.018659774 0.011775104 -0.04631447 0.0006803377
0.062624425 -0.01895422 -0.095024884 0.04536853 -0.008448883 0.08502139 -0.022700042 -0.035986014
0.070534885 0.11555654 0.019593446 -0.057933282 0.06529887 -0.07428062 -0.035544958 -0.049597885
00000000: 63b6 40bd cab7 51bd 5f13 88bd 7091 543c
00000010: 9a43 033d c794 64ba 85e0 a1bc 2907 543d
00000020: 2724 7cbd 1eaa 03ba 251e 1e3c 248a 9d3c
00000030: ceeb 9cbb e52e 39bd 5d26 2bbd 631a 5f3c
00000040: 6aba 953d 3477 f83d 2548 f1ba 0370 c5bd
00000050: 4cb5 89bc 90e9 bbbc dd32 f53c ee29 e0bc
00000060: bd4c 6c3c e05f 653c 8504 dc3c 257f 953d
00000070: e1c4 a2bc e3c9 dcbc b39e dbbc 1262 23bd
00000080: aa35 2e3c ef19 cabc 27b7 753d 3b54 9c3c
00000090: a23f ac3c e1d6 e9bc a989 48bc 42cb 46bd
000000a0: 3ec0 7e3d 149b 93bd 1f68 b4bd 8880 51bd
000000b0: 6ffb 6bbc 1707 97bd 40ba d33d a922 04be
000000c0: 3e08 8a3d b079 b63d 53bd 873d c911 e73b
000000d0: 2f5e c4bc 5e70 a1bd ce75 583c d389 58bd
000000e0: 791d c4bd d569 91bc 1f2b 11bd 8057 f33b
000000f0: e7ba 033e 9b94 dcbb a69d 1dbb 71ff bbbb
00000100: 8442 a03c a3b2 9a3c 1eec debc ba3c 1f3d
00000110: d0a2 5e3d 8e75 29bd 67ef 91bd 6c0e b03c
00000120: e461 15bd f0b3 453d ee37 ca3c 998b a2bc
00000130: 12e4 b63b 069f b6bb 292e db3c a524 0fbc
00000140: e082 1ebe d871 e73d a2a3 183d fba3 283d
00000150: 2c3c a33c 20fe e73c 9061 493c 01d8 ed3c
00000160: 693b 043d 8087 3f3d 60f8 21bc 6a60 58bd
00000170: 8cb1 1a3d adb0 aabd 66a5 f8bc d64f 123d
00000180: 7892 9a3d 3c47 733c d1fe 343d 199f b6bc
00000190: 12ac 2a3d aa66 5f3c 42a7 46bc 4099 ea3c
000001a0: 270d c83d 6828 0e3d 2d79 d13b ab35 ebbc
000001b0: f1ac a7bc b749 8d3c 3b03 58bd 810b 83bd
000001c0: 9cb1 44bd f1b2 ba3c ba3f f73c b7fc 36bd
000001d0: 6b30 123c 3427 9fbc d6b0 d33c 651e ec3a
000001e0: aa5e 83bd 1bf4 243d 0a08 933c 7ced cd3c
000001f0: 6bac be3d 7d5c 55bb 7660 5d3c 5707 e7b9
00000200: 5321 fbbb c04a 8ebd d30a eb3b 4ffd 953d
00000210: cc23 62bc 37a6 43bc e02e 24bd d194 0cbd
00000220: 7d0e ad3c 8b95 143d 633a dcbd ab45 6ebd
00000230: 95b1 a1bc b43d 043d 3563 e63b 1bc8 e03b
00000240: 8dd0 87bd e066 dbbd 518a 46bd c111 f93c
00000250: 95b8 edbb 28f4 c5ba 87c8 1d3c a5b0 efbc
00000260: 7a0c 25b9 3268 053c 2cfd b1bc 6f61 65bd
00000270: 229b d6bc 58d5 bc3b af04 b43d 7ff4 a3bc
00000280: f318 853d b397 c7bc f2f1 26bd 300d 203c
00000290: e8f4 b2bc b890 533c 674b 7bbd e055 51bc
000002a0: 0495 b03d 7b2c fe3c e5bd 1a3d 8532 d93c
000002b0: d8e0 3b3d 7f8c 223d 7e8c 863d 86de e3bc
000002c0: 0b2b 16bd 7b55 fa3a 4f4d f43b 0520 153c
000002d0: 3488 d9bc d697 d13b 3d95 943c 4af4 563d
000002e0: f9ab f43d a5a9 803c 7441 083c dad3 ca3c
000002f0: b161 5fbb 01d0 80bd 5bfa 8b3d fe66 6a3d
00000300: 56de 6abd 96e5 653d e80f 013a 517c c23c
00000310: 6461 8abd ada0 57bd c121 2dbd df15 1f3c
00000320: ab38 f03d 271e 1a3d ca7d 3e3d 2abb 9d3c
00000330: 69e2 323d 0ae3 003d 323b a73c d0e7 ddbc
00000340: 01b6 cc3b 4602 7cbd 22c9 0b3e a9c9 89bd
00000350: e3f1 583a ff18 9cbc ffae aa3c 04d9 dd3d
00000360: b917 89bc e2e3 6cbb d87e 133d 42e9 13bd
00000370: cd6d a8bc 6447 303d 8bc0 10bc 19b0 86bc
00000380: dfb3 f03b 258b 283c 55c3 4cbd 15d5 e5bc
00000390: 50c3 babd 96ac 36bb 2379 76bd 34f9 673d
000003a0: d3a0 2a3d f7ba a3bc a78e b8bd 8234 8a3b
000003b0: 62dc 983c 5eec 403c 3eb4 3dbd b158 323a
000003c0: 3c41 803d e145 9bbc 689c c2bd 5ad4 393d
000003d0: 2f6d 0abc b21f ae3d 70f5 b9bc 1266 13bd
000003e0: 9874 903d e8a8 ec3d 6f82 a03c 734b 6dbd
000003f0: 6abb 853d 7020 98bd 9797 11bd 2727 4bbd

actor.6.bias f4 [12]
0.06424599 -0.06760634 -0.024411727 -0.0449716 -0.16081135 -0.15998945 0.15844564 0.02577457
-0.056032762 -0.08407205 0.053131294 0.015093393
00000000: 6793 833d 3175 8abd 1afb c7bc 2434 38bd
00000010: bbab 24be 46d4 23be 933f 223e 3125 d33c
00000020: 9c82 65bd f82d acbd 33a0 593d 474a 773c
