src/unitree_ros2_python/unitree_ros2_python/share/models/flat_policy.onnx (onnx, 163093 bytes, 8 tensors)

actor.0.weight f4 [128, 45]
00000000: 79e8 093e d5d0 98be 5b30 09bf 0714 913f
00000010: 85b7 49bc 2520 1b3d 81cd b8be 0448 e63d
00000020: 60e4 313f 68a4 0f3e 72fb 16be 5d95 963e
00000030: 87b9 473f a74a 013f f77c bfbd 6c5c 39be
00000040: 74c9 663e 86e5 003f 4827 393e ba1c 973f
00000050: 90eb 1b3f 84ab 4d3c d23c 7ebd 822c 7e3d
00000060: a869 fdbb 6791 4f3d 48fb b4b9 3bb3 89bd
00000070: d92d b0bc 1542 d8bd eaa8 c8bb c73c 69bd
00000080: 58c4 c23c 3363 46be 916d da3a 8f1c 903e
00000090: b7a9 fcbc 413a eb3c 60f9 833c 89a9 8e3d
000000a0: 7b23 6c3d b1e4 303e 2a0e 24be cfad 0dbe
000000b0: 767d b53c f9c2 b0bd bfd6 943e edfb 8cbe
000000c0: cb24 0e3f f8c3 543f 32f1 6c3e 7f35 ccbe
000000d0: af2a 303f e6ae b5be f20f 03ba daaa cf3d
000000e0: 491c c2bf 2fe3 213f 4fdc a4bd 27fc 51bf
000000f0: d3c0 1cbf 0e95 253f cbdc c0bc d4aa 343f
00000100: c7a7 7c3e 1152 b53c 09ba e8bc 70e3 703d
00000110: 35a3 89bb 1d5c 43bd 4f7a d8bd 0b14 be3d
00000120: d93a 80bd 529a e63b 643c 7b3c 61f8 2f3e
00000130: 3f34 823d 28de 51bd 04d3 12be 2bf3 37bd
00000140: ce19 ea3d dca2 ca3d 21fc 773d ecb6 223e
00000150: 1c06 253e e3b7 90be 9b81 8abd 5728 5ebe
00000160: f3f2 d9bd db97 a8bd 7e68 a8bd a57d 90bd
00000170: f8ce 743e ae78 45bf 9d33 a83f 3410 3c3e
00000180: 8774 c33e 3960 92be 121f 53bd e9a7 823f
00000190: b17b 633e eeee 0b3f e906 07bb b3b5 823d
000001a0: c7e4 4bbd a97a bebe 4b0f 69bf f552 9b3d
000001b0: cc50 953e daf6 abbf 6342 7fbe 08d7 b6bc
000001c0: 1e7b 3cbd 8475 e8bb 5bb6 02bd 9499 1a3d
000001d0: 4dc3 1fbc 1ca3 66bb 2d49 4c3d a765 113c
000001e0: 1871 71bc d3ea 763c 026a fc3c 89ae 343e
000001f0: 7d74 343d 6bbd 003e f4c2 523c 8d80 19be
00000200: 9087 923d 0808 40bc 4bbb b93d 370e 94bc
00000210: 10b4 af3d 5843 b23c a422 1d3e 052b 0c3e
00000220: 6e8c 3e3e c696 273f 0de8 7e3d 8913 d1bf
00000230: 0083 47bc eb91 61be a581 453e 0eb5 3bbf
00000240: e6f0 863e fab8 213e 3253 00bf e894 1dbf
00000250: 8b66 843f 316c fe3c 450e 84bd 4fa0 043f
00000260: e030 553f cdde 99bd 0b1b ad3c 00b7 08bd
00000270: 0ca1 ee3d d021 c83c 4f8d 03bd e54a 173d
00000280: 79fc d7bc 409f 25bd 5546 3cbc ac84 2b3c
00000290: 1659 65bd 1d82 d0bc da80 4ebc 11bd b3ba
000002a0: ae37 dfbd d66a 44be 36d9 54bd b350 a8bc
000002b0: 98cc 2dbb dbd1 d03d cbe3 fb3d 0497 963d
000002c0: 8914 013e 22a0 bd3c 9fb8 36bd 6c43 ce3d
000002d0: 453b a13c b926 c9be 9255 e13e fdcf 86be
000002e0: f61e 56bf 778d 143d a977 83be 122a 573f
000002f0: f317 d5be bf60 183e 6ed8 a4be 1800 c43e
00000300: d06f ba3b d7e6 753e 07b2 21be 3b04 0abf
00000310: e801 2dbf 0705 c43e 476c e83e 27c9 61be
00000320: c907 913e 3c54 1bbe 23ee ad3d 68c8 893c
00000330: 1616 1f3d d6bd babc 3159 57bc e81b 0abd
00000340: 4f00 8fbd f371 5b3c 1cea 8bbd 039c 12bd
00000350: 04cf 93bb aae5 173e 446e a83e 3510 21bc
00000360: 0afe 3dbd 717a 74bd 0cb5 a0bd eabb 7abc
00000370: f8e0 d03d 3780 5ebe 9fc5 5b3e f35c 713b
00000380: d38d 8dbe d92c 20be c8b9 20be 307a 0cbe
00000390: 27e1 83bf b3bf 033f 58ad 29bd 9a16 febe
000003a0: b9e2 93be fa28 fbbe 7735 45bf 4089 4a3f
000003b0: 6ec2 543d b890 bfbf ccdf a1bb c253 33be
000003c0: 84a3 88bf ce3c 2bbf bbed 62bd e912 673e
000003d0: a88e 33be 1325 0abf f388 87bd b9c7 cebc
000003e0: 78d7 c8bd 6b17 233d 756c 8d3c 2e2b c93b
000003f0: a8dc fb3b 0631 e2bd f383 8bbd c1b9 81bc
0.13467588 -0.29846826 -0.5358941 1.1334237 -0.012311821 0.037872452 -0.36094287 0.11244205
0.694891 0.1402756 -0.14744356 0.2941083 0.7801747 0.50504535 -0.09350007 -0.18101662
0.22537786 0.50350225 0.18081391 1.1805642 0.60906315 0.0125531 -0.06206972 0.062054165
-0.0077335425 0.050675776 -0.00034519495 -0.067236386 -0.021506237 -0.10559479 -0.0061236518 -0.056942727
0.023775265 -0.19373779 0.0016664733 0.28146788 -0.030842645 0.028714301 0.016110122 0.0696593
0.057651024 0.17274739 -0.16021028 -0.13835834 0.022154551 -0.08630938 0.29070088 -0.27535954
0.5552489 0.83111525 0.23138884 -0.39884564 0.6881513 -0.35485 -0.00049996295 0.10140009
-1.5164882 0.6323728 -0.08049833 -0.8202538 -0.61231726 0.64680564 -0.023542782 0.70573163
0.24673377 0.022133859 -0.028409021 0.05881065 -0.004200364 -0.047695268 -0.105702035 0.09281167
-0.06261224 0.0070374394 0.0153342225 0.17184593 0.063576214 -0.051237255 -0.14338309 -0.044909637
0.11430703 0.09894344 0.060543183 0.15890092 0.16115612 -0.28265294 -0.067630015 -0.21695076
-0.10642042 -0.08232089 -0.08223055 -0.07055215 0.23907077 -0.7713727 1.3140751 0.18365556
0.3817484 -0.28589037 -0.051543303 1.0207492 0.22215153 0.5466145 -0.0020603484 0.063823126
-0.049778726 -0.37202957 -0.9103896 0.07584182 0.29163206 -1.3434708 -0.24927668 -0.022319332
-0.04601585 -0.007094087 -0.03191219 0.03774412 -0.009751153 -0.0035192436 0.049874473 0.008874333
-0.014736436 0.015070635 0.030812267 0.17644705 0.044056404 0.12572257 0.012863863 -0.14990444
0.07154763 -0.011720665 0.090689264 -0.018073184 0.08579266 0.021760628 0.15345246 0.13688286
0.18608257 0.65464437 0.06223302 -1.6334087 -0.012177229 -0.2202832 0.19287737 -0.7332314
0.26355666 0.15793219 -0.50126946 -0.6155534 1.0343794 0.031057449 -0.06448034 0.5180711
0.832777 -0.07513199 0.02113106 -0.033377647 0.11651811 0.024430186 -0.032117184 0.03693666
-0.026365506 -0.040435076 -0.011491378 0.010468643 -0.055993162 -0.025452668 -0.012603963 -0.0013712962
-0.10899292 -0.1918138 -0.05196496 -0.020546293 -0.0026519652 0.10196277 0.122993074 0.07353023
0.1260549 0.023147646 -0.044609662 0.100714535 0.019681582 -0.39287356 0.44010597 -0.26330557
-0.8364099 0.036267724 -0.2567723 0.8404857 -0.41619834 0.14880656 -0.32196373 0.38281322
0.0056895986 0.2401384 -0.15790568 -0.53912705 -0.67581034 0.38285086 0.4539511 -0.2204939
0.28326252 -0.15168852 0.084926866 0.016819194 0.038839422 -0.022795599 -0.0131438235 -0.03371802
-0.06982481 0.013393867 -0.06831762 -0.035793316 -0.004510762 0.14833704 0.32896626 -0.009830524
-0.04638485 -0.05968708 -0.07847032 -0.015303591 0.101991594 -0.21728598 0.21462105 0.0036829084
-0.27647266 -0.15642108 -0.1569587 -0.13718486 -1.0303086 0.51464385 -0.04142508 -0.4962662
-0.28883913 -0.490547 -0.77034706 0.79115677 0.051943235 -1.496604 -0.0049400087 -0.1751242
-1.0674901 -0.66889656 -0.0554025 0.22565807 -0.17534888 -0.5396282 -0.06617918 -0.02524172
-0.098067224 0.039817255 0.01726363 0.0061391806 0.0076862164 -0.11044507 -0.06812277 -0.015835645

actor.0.bias f4 [128]
00000000: e2a5 bbbe 9f4b bbbe 0a8d 66b9 7f83 563e
00000010: 9d2a 303e e2f9 363e ab48 a2bd 7d8d dfbe
00000020: ffd8 83bc 5579 173d c55b 0dbe 4395 9a3d
00000030: 6f1c 2dbd 33ca 8ebe 6320 6e3d c4ed 2cbe
00000040: 2d61 a2bc 2df3 30be 86c6 713e 6d27 57be
00000050: 64e7 743e bf37 763e 5470 a9be 8287 b3bc
00000060: bdfb 19be 35cc 81be f5bc 4e3e ffd8 8b3e
00000070: 150b 33be 68dc 97be 0abf 94bd 6d80 ab3e
00000080: a304 493e 8bc3 e63d 7cb3 a2be a297 4c3d
00000090: 203c 35bd bed8 91bb 837e 4dbc 23a9 d9be
000000a0: 6737 34bd 77eb fdbd 165d 29be d611 123c
000000b0: 484b a93d 980c 9cbe 1273 933e 3ee9 b7bc
000000c0: 0308 b3bc 1b03 63be d96d 90bd 2a92 6b3e
000000d0: 0bdf 63be e55d 05be 860f 5abd 21a6 663d
000000e0: 0329 ca3d 863d a9bd 9c5f dbbc 34a6 123e
000000f0: 5e89 eabe 1682 b23d e906 e9be b153 3abe
00000100: b21f a0bc fb01 07be 0883 0a3e 3f39 83bc
00000110: ffb2 b5be 539c 74be 83ef 913d 1ea0 0c3e
00000120: 3b70 deba 4b3c f5bd 7a4d 9e3d 60ab 04be
00000130: a28b 5dbe e4f9 b03d 4ea3 773e 12d9 14bf
00000140: 20c3 d73b 7e0f 8bbd 7c4e f83e e976 c6bc
00000150: 306a 9f3e b045 1ebe 3301 22be 9698 8ebd
00000160: ee4f 8a3b 1c60 95bc 417d 48be 8f8e 07be
00000170: 3d42 1a3e 6cb4 dabc c1d3 b4be 0126 50bd
00000180: 06f8 4a3d 4c74 d2be 4ca1 ad3d cadf 37be
00000190: 30a2 633e 493c 64bd 6aec 42be 9c2b 3e3e
000001a0: 9f98 1bbe 8902 553e 1e26 3a3d 235f 05be
000001b0: b072 07be ba20 56be 0133 3cbe 2b7e 61be
000001c0: d3b4 863e c5c9 14be cb7f b6bc 1394 0a3d
000001d0: 5cf1 b43d c5f4 d43c 7f1a 3bbd d267 563c
000001e0: 4a02 bfbc 7a28 753e 3740 9abd 4d87 113e
000001f0: e1ca 863e 22bb 0c3d 8b90 72bd 87e4 b9be
-0.36649996 -0.36581132 -0.0002198705 0.209486 0.17203756 0.1786876 -0.079240166 -0.43662634
-0.016094683 0.036980946 -0.13804539 0.07548001 -0.042263445 -0.2788864 0.058136355 -0.16887575
-0.019821728 -0.17280264 0.23610887 -0.21011133 0.23916394 0.24044703 -0.33093512 -0.021915201
-0.15037437 -0.2535111 0.20189269 0.27313992 -0.17484696 -0.29660344 -0.07263 0.3349642
0.19630675 0.112677656 -0.3177756 0.049949296 -0.044246793 -0.0044508865 -0.01254237 -0.42511854
-0.04399815 -0.12398427 -0.16539416 0.008915385 0.08266312 -0.30478358 0.2879873 -0.022450086
-0.021854406 -0.22169153 -0.07052202 0.23004976 -0.22253053 -0.13024099 -0.05323746 0.056310777
0.098711036 -0.08263688 -0.026778989 0.14321214 -0.45807928 0.08716218 -0.45513085 -0.18195988
-0.019546364 -0.13184349 0.13526547 -0.016018508 -0.35488126 -0.23887758 0.07125761 0.13732955
-0.0016970703 -0.119743906 0.07729621 -0.12956 -0.21635297 0.08641413 0.2418339 -0.58143723
0.00658454 -0.06790064 0.4849738 -0.024226623 0.31135702 -0.15456271 -0.1582077 -0.06962697
0.004220954 -0.018234305 -0.1957903 -0.13237976 0.1506433 -0.02669736 -0.35317805 -0.050817493
0.04955294 -0.41104352 0.084780306 -0.17956463 0.22229838 -0.055721555 -0.19035497 0.18571323
-0.15194939 0.20801748 0.045446508 -0.13024573 -0.13227344 -0.20910922 -0.18378831 -0.22020786
0.26309833 -0.14530094 -0.022277733 0.03383262 0.08835098 0.025995621 -0.045679566 0.013086276
-0.023316521 0.23941222 -0.07531779 0.1421177 0.2632666 0.03435815 -0.05921988 -0.36307165

actor.2.weight f4 [128, 128]
00000000: b60a c939 4fd4 88be f73a f8bd edd0 e93d
00000010: a34b 01bd 4f68 5ebd b84b 3c3e dee3 ccbd
00000020: 3642 a1bd dc0d fc3d 86f6 a53d c219 ae3d
00000030: 2d85 7abe 3a1a dabd 0ea3 1a3e 755d c0bd
00000040: fdd3 d93d 803d 173e 7a46 6b3d d40f c1bd
00000050: a217 4abe 4f9e 35be f7e4 d7bd 545b 22bc
00000060: ab2f debc b6ae 35be ca98 2abe 66d7 52bd
00000070: c480 19be 118d ad3d cf84 4a3e 9dc5 fbbd
00000080: 8df1 483d a00b ba3c b44b 893e 8ce7 b33b
00000090: 6e3a 643c 9810 203d d793 4f3e 0cdd aabd
000000a0: 8c55 833c 636f f5bd 19e6 13be e647 efbc
000000b0: 95c4 d5bd 1b3e 373d 588f 13be 43fc 9cbe
000000c0: 5de6 cbbe dee8 adbd 2cb9 45bd c96e eebb
000000d0: 6e03 5fbd fce5 88bd 5ed8 203e 1d41 54b9
000000e0: a9f7 c73e 2430 0ebe 8f62 733e 39e8 c3bd
000000f0: db83 013e 4dc3 20bd 1723 e53c 553e 483e
00000100: 9312 803d 7d12 34be 6a4e 3cbe ccfc c2bb
00000110: b916 72bb 9bcb 6f3d afbd 80be 7468 643d
00000120: 695c a13c adf9 00be f4b2 c2ba c646 99bd
00000130: 19fe a13e 2d16 0a3c 3dde b83c 3da4 ce3d
00000140: d0f0 50bd 1555 733d cd81 0b3d 7d68 6bbc
00000150: 4f3f 9abe ea15 333e 367b e8bd c886 9b3d
00000160: 4d7f 99be 8427 5abd 2ea4 21be 7e1a 903d
00000170: 9019 f0bc 0165 29be 6ff6 aa3d 7093 f9bd
00000180: 0110 8a3c 0414 783d e24b 54be b506 903d
00000190: 8d3c 503d edc1 993d 4d19 2abe 737e 3a3e
000001a0: 6239 95bc 0337 523d f1fa debd f6a3 243e
000001b0: a4eb c03d c1c7 1a3e 7bda 26bd 80ce a8bb
000001c0: f3b4 293d 7b45 59be 45f7 24be 7842 af3d
000001d0: ae73 2c3e 95a5 82bb 9fb0 573d d5b1 93bd
000001e0: eee2 b3bd bded 5ebd c0f9 40be b57f 62bd
000001f0: c539 a6be c9ea 8abd c082 6bbe 33a1 c03d
00000200: 7db8 63bd e5fa 6d3e 0c87 8ebd 6958 763e
00000210: abb7 2abd 0da2 47bd b90b b3bc 2aa7 f43d
00000220: 5f95 c33e 1545 b5be af60 23be 5509 ebbb
00000230: 8723 98bd 038a a6bd 850f ac3d 566a f83d
00000240: 3182 c3be ea0a 933d 26a8 c1be e253 30be
00000250: 0cae f4bd 0c5f 9fbd c695 293e 9c20 eebc
00000260: bff0 2abe 0a6f 5a3e b1f9 91be 46b3 863d
00000270: 220f 963c 682d d1bd 56df 26be a306 88be
00000280: 9a03 693e 31c6 e63c b25f 27be a3bf 42bd
00000290: c09b e63d dbc0 8b3d 9db7 133e ec6b 733e
000002a0: 65cf 653d 4384 98bd 89cc 43bc d4f2 1bbe
000002b0: 349b 033e 9658 193b 66cb a03c f73f fc3b
000002c0: 2921 323e 9775 08be 43fb 8f3d c0a4 033e
000002d0: 8b76 a6bc f667 07be 1dea 90bd 50a3 12be
000002e0: 4177 5ebd cf79 233b 957b c53c 4756 1cbd
000002f0: 765d a9bb 8eb6 c43d ab48 37bd c84a 82be
00000300: 2d71 dfbe 6bff 8c3d 2ff2 41bd 7f9e f13d
00000310: 2200 ae3d 28d4 83bd b7c5 a2bc bfba 753c
00000320: b445 3f3e 0709 033e f0b9 80bd e5f3 963d
00000330: 3476 8ebe 4b9a 08bc 7047 16be 51a6 7f3c
00000340: 0bb8 8fbc 5a49 12bd 7909 19be 5bea ee3c
00000350: d320 743d 25a5 103e 395c c2bd 6a50 a2be
00000360: bfb4 76be 994d e33d fb8d 103e f90b e6bd
00000370: d25f 1dbe cbb8 97bd b9c3 5cbc e465 33be
00000380: 6132 cabd 69ee 01be b68f 55bd 428c cd38
00000390: 61a7 07bd 122e 3dbe 3b74 323e 8d2e 633d
000003a0: 73ec 213d b91e 99bd 2b0b 80be 4ab8 983d
000003b0: 2795 23be 4ed5 543d 157a 05be 2455 813e
000003c0: 09f0 10be b660 a4be 5a27 273e 8040 51bd
000003d0: 1ceb 713c 0704 5cbc 6eff 153e 314c c53d
000003e0: 0c9c 42bd ce05 363e e216 5f3c 1169 d3bd
000003f0: 6ff7 7e3e 5e52 473d 24c4 32be ca5d f3bd
0.00038345688 -0.2672448 -0.12120622 0.114168026 -0.031566273 -0.054298695 0.1838826 -0.100044
-0.07873957 0.12307331 0.08103661 0.08501007 -0.24464865 -0.106495336 0.15101263 -0.093928255
0.10636137 0.14769554 0.05744026 -0.09426847 -0.19735578 -0.17736171 -0.105417185 -0.00990947
-0.02712234 -0.17742428 -0.16659847 -0.05147495 -0.14990526 0.08474172 0.19777225 -0.12293551
0.049058486 0.022710621 0.2681557 0.005490249 0.013929946 0.039078325 0.2027124 -0.083429426
0.016032003 -0.11984136 -0.14443244 -0.029209089 -0.10437886 0.044736963 -0.1441015 -0.3066121
-0.3982419 -0.084916815 -0.048272297 -0.00727639 -0.05444663 -0.06684491 0.15707538 -0.00020242152
0.39056137 -0.13885552 0.23768066 -0.09565777 0.12647955 -0.039248753 0.027970834 0.19555028
0.06253543 -0.17585178 -0.18389288 -0.005950546 -0.0036939813 0.058543783 -0.25144717 0.055763677
0.019697385 -0.12595244 -0.0014854358 -0.07484202 0.31639174 0.008428139 0.022566909 0.1008992
-0.051010907 0.059407312 0.034059335 -0.014368174 -0.30126426 0.17488828 -0.113516256 0.07594067
-0.29979935 -0.05326034 -0.15785286 0.07036303 -0.029309064 -0.16542436 0.08347785 -0.121863246
0.016853334 0.060565963 -0.20732072 0.07032529 0.050838996 0.075076915 -0.16611214 0.18212299
-0.018215839 0.051321995 -0.10887707 0.16078171 0.09419945 0.15115263 -0.040735703 -0.00515157
0.041432332 -0.21217911 -0.16109951 0.085576 0.16841003 -0.003987024 0.052658673 -0.07211653
-0.08783518 -0.054425944 -0.18845272 -0.055297572 -0.3246595 -0.06783063 -0.22999096 0.09405746
-0.055595864 0.2324024 -0.06959352 0.24057163 -0.041679066 -0.048738528 -0.021856176 0.119459465
0.381999 -0.35404268 -0.1595485 -0.0071727433 -0.07428651 -0.081317924 0.084013976 0.12129657
-0.38185266 0.07179816 -0.378236 -0.17219499 -0.11947259 -0.07781801 0.1656104 -0.029068284
-0.166934 0.2133142 -0.28510812 0.065771624 0.018317763 -0.10213739 -0.16296133 -0.26567563
0.2275528 0.028170677 -0.16345099 -0.04754604 0.11260176 0.06823894 0.14425512 0.23771638
0.05610599 -0.07447102 -0.01195062 -0.1522935 0.12852174 0.0023398749 0.019628238 0.007698055
0.17395462 -0.13326107 0.07030346 0.12855816 -0.020320198 -0.13223252 -0.070759036 -0.14320111
-0.05431295 0.002494443 0.02410678 -0.038168218 -0.005168612 0.09605132 -0.044747036 -0.2544768
-0.43641034 0.068846546 -0.047350105 0.11797809 0.08496119 -0.0643695 -0.019869668 0.014998137
0.18678933 0.12796412 -0.06285465 0.07370738 -0.27824557 -0.008337568 -0.14675689 0.015603618
-0.017543813 -0.035714485 -0.1494502 0.029164484 0.059601616 0.14125498 -0.09490246 -0.31701976
-0.24092387 0.11098785 0.14116661 -0.11232752 -0.15368584 -0.07408293 -0.013474398 -0.17519337
-0.0987289 -0.12688603 -0.052139007 9.801287e-05 -0.03311861 -0.18474606 0.17427151 0.055464316
0.039532136 -0.07476563 -0.2500852 0.07457025 -0.15974866 0.051961236 -0.13034852 0.2526027
-0.14154066 -0.32105035 0.16323605 -0.051086903 0.014765527 -0.013428695 0.1464822 0.09633673
-0.0475121 0.17775652 0.0136162955 -0.10322774 0.24899076 0.048662536 -0.17457634 -0.11883123

actor.2.bias f4 [128]
00000000: 16c6 32be 6f93 4abd 2e26 48bd dcf7 55be
00000010: efa1 a7be da39 d93c 6873 15be 4622 c4bd
00000020: 6b94 77be bff6 c6be 3e63 14bd 5cec c8bd
00000030: 433b 5dbd 0428 b1be b570 a6be 9efd 10be
00000040: a3e5 3abe 9e03 78be 15c8 8a3d ceba 91bd
00000050: 0ea5 e2be dc3f 65be 3878 32be b7ab 83bd
00000060: 8726 ab3d 0414 24be 0733 cbbd 961f a0bd
00000070: e345 0dbe 01e5 07be 0619 52bc 6f01 76bd
00000080: 6fa8 26be 0208 9bbe f5d9 543d 6e92 99bd
00000090: ed89 19be fea7 48be bd54 083c ed3e 41bd
000000a0: 519a 54be b693 56be 06e7 37be df13 d5bd
000000b0: ea12 95be 5db3 6ebe 8f25 d2bd 2b50 02be
000000c0: 57cc 31be bff4 8b3d b0f2 8cbe 3e74 35be
000000d0: b844 b1bd 1a1d 11be 81b6 35be 3968 f8bd
000000e0: 1118 0fbe a090 86bd 7568 10be b59e 5dbe
000000f0: f0fa 2fbe 47a7 fdbd 03bd 3bbe f13c bdbd
00000100: ff45 94bd d023 c3bd 9085 4bbe aec2 96bd
00000110: 198a 3bbe 1b5d 24bd 45e3 96bd ed50 c3bb
00000120: d22c 39be 2e01 c2be 9093 1cbe eec2 80be
00000130: 3192 48be ca8b 54be 1a2d 15be c07b 84bd
00000140: 845a bfbe 2723 cdbe bd75 f4bd 5d63 eebd
00000150: 826f 3dbe 8cc8 6dbe c300 bcbd 9835 4fbe
00000160: 599b 8dbe ad16 d9bc e10b 98bc 628b 0fbd
00000170: 6fc1 58be 24ac 04be 930d 0fbe 452d 4fbe
00000180: 070a a0be 8c84 68bc c709 60be 2d71 70bd
00000190: b675 7ebe 523a 75be 27af e6bd 4f15 d1bd
000001a0: 929d 47be fd79 04be 8338 15be f168 14be
000001b0: 97cf ac3d cccc cbbd 3166 c6bd 0a37 4bbe
000001c0: 4bcc 5abe 2606 08be 98e0 64be be99 503e
000001d0: ba0a c0be d1a5 43be bdbf 5dbe efda bbbd
000001e0: 982f 64be 5452 4ebe 2cc9 69be 3ca7 06be
000001f0: c8c0 a63c b66f 2bbe 2749 06be 4ad1 52be
-0.17458376 -0.04945701 -0.048864536 -0.20895332 -0.32740733 0.026516844 -0.14594805 -0.0957685
-0.2417771 -0.38860127 -0.036227457 -0.09810707 -0.054011595 -0.34600842 -0.32507864 -0.14159247
-0.18251662 -0.2422013 0.06776444 -0.07115708 -0.44266552 -0.22387642 -0.17428672 -0.064292364
0.08356958 -0.1602326 -0.09921842 -0.078185245 -0.13796191 -0.13270952 -0.012823349 -0.06005996
-0.1627519 -0.30279547 0.051965673 -0.07498632 -0.14994021 -0.19595334 0.008320984 -0.04717915
-0.20761992 -0.20954785 -0.17959222 -0.10404181 -0.29115993 -0.23310609 -0.1026107 -0.12725894
-0.17363106 0.06833791 -0.27528906 -0.17720124 -0.08655685 -0.14171258 -0.17745401 -0.12129254
-0.13974024 -0.06570554 -0.14102347 -0.21642573 -0.17185569 -0.12385421 -0.18333821 -0.09240139
-0.07239913 -0.09528315 -0.19875169 -0.07361351 -0.18314399 -0.040127855 -0.07367567 -0.005960575
-0.18083504 -0.37891525 -0.15290666 -0.2514872 -0.19587018 -0.2075645 -0.14567986 -0.06468916
-0.37373745 -0.40065882 -0.11936519 -0.11640046 -0.18499568 -0.23221034 -0.09179833 -0.20235288
-0.27657583 -0.02650007 -0.018560352 -0.035045035 -0.21167539 -0.12956291 -0.13970022 -0.20232113
-0.3125765 -0.014191758 -0.2187873 -0.058701683 -0.2484959 -0.23948029 -0.112638764 -0.102091424
-0.19493702 -0.1293716 -0.14572339 -0.14493157 0.08438032 -0.09951171 -0.0968746 -0.19845214
-0.21366994 -0.13283595 -0.223513 0.20371148 -0.37508184 -0.19106223 -0.21655174 -0.09172618
-0.2228378 -0.20148593 -0.22830647 -0.13149732 0.020355597 -0.16741833 -0.13113843 -0.2058765

actor.4.weight f4 [128, 128]
00000000: b4f7 493e 4bfc fe3c 5230 333d 308a 1dbe
00000010: 2121 f73d 4630 a1be 5347 d3ba 5311 d43d
00000020: e6ba 59be 3a46 c13d ace0 52be 79b9 bebc
00000030: d246 c4bd 747c 7dbd 7f48 98bd fc62 01bd
00000040: 7171 31bd edac cf3c 9c22 23bd 741a a2bd
00000050: 9ba6 bdbb dab2 0a3c 5f63 273e 9c87 113e
00000060: e7a5 95bd f47e 72bd 42c7 0e3d 820b 6cbd
00000070: 546c 223c 0765 883d 5a03 443e c4d8 d63b
00000080: 9385 e5bd 9dc6 b73d 9390 5abd fe4f d03c
00000090: d652 0a3e a3d1 11bc 8c5b 87bd cb05 823d
000000a0: b061 723d d29d b43a 3e05 70bd 65c7 e5bc
000000b0: 8595 d7bc a66d 823d 965e e63d eb7d 14be
000000c0: 68ee d93c d9c6 93bd 9eee 103e 30bc 41bd
000000d0: 2596 4fbe 64b7 47bd 2c6f 083d 01f9 1a3c
000000e0: 9ba3 063e e39c 6c3c 0d95 503d 803f e03c
000000f0: 32fc a3bd 12b3 49be 2eb8 56be b919 553d
00000100: ba5e 3bbd a071 c7bd 3e69 423c 50bc d2bc
00000110: b4aa d43d 6ceb 14be 9311 923d f56d ed3d
00000120: e760 eb3d 9427 87bc c8f9 2dbe 911c df3c
00000130: 8d30 82bd 66f3 32be abca 313d 359e ef3d
00000140: f41e 693d 2bcc 323a 349c da3d 3736 13be
00000150: e772 5f3d 4172 303e 81c0 793e 4330 d4bd
00000160: cac8 ad3d 5278 1fbd ad07 f03d 8e02 7ebc
00000170: b0a2 b73d 9827 043e a5ee 303d 82c9 483e
00000180: 79f7 b73d df17 0abe 47d6 f33d c17d ce3d
00000190: 27ff e4bd 28fd 183d ca1d 6f3d 1950 f3bb
000001a0: 8907 d53d 851f e7bd 4d6c 5abe 112e d8bd
000001b0: 43be 783d 5818 8abd d27f d23b 2a09 48bc
000001c0: b51b eb3d 9405 12be 231f 8a3d 959c e4bd
000001d0: 4c8f 503d b279 36bd 8f04 fa3d dcc1 d8bc
000001e0: 4403 87bc 40bb 53bc 8e48 c93d 8d0a cc3d
000001f0: 7154 e8bd 7666 f1bc bdfb 783d 0245 c3bd
00000200: a559 f03d 7eae 6a3e 590c e3bd fcce 7d3b
00000210: 563c bbba d3c3 41bd 1d48 263d a68a 803d
00000220: 102d cb3c 5fad 0d3e 670b 25be e99d 89bd
00000230: ac57 de3d 4e55 4c3e d026 9a3d e111 dabd
00000240: e39b 463e 1b14 903d bb30 43be 5b27 a73d
00000250: 486a 693e 37dd 733c 24b2 583d 7ef1 593a
00000260: e223 41bd 2a55 f63d 86c7 883c 5e49 03bd
00000270: ff5f e4bd b321 54bd 9ec7 e3bd a37e a9bd
00000280: f8f6 ba3d 32ec f43d ee34 44be c4a2 353e
00000290: 0c6a f03d 3705 8a3d a4f6 173d b42e 0dbe
000002a0: 4139 843d 3cc6 e7bc 282d e5b9 a0d7 46be
000002b0: a502 4d3c a566 4d3c d920 47be 7067 70bd
000002c0: 7c57 5f3d 0612 313c 0f92 313e 347b 1fbd
000002d0: ec44 28be 155f 0f3d 3206 55be f6c9 c9bd
000002e0: e554 22bc 709c 64bd afda 61be 2713 fa3d
000002f0: bba6 13bc 83c0 923a bea3 0d3d 4fa2 063e
00000300: 9aeb d9bd 1972 c13d a3d9 073e fb36 20bd
00000310: 4fa0 52bd 9e6d aabd 4881 6abc 17ee 333c
00000320: 025a 39bc c339 acbc a8c9 2c3d d991 3b3d
00000330: 1eda ddbc 3440 b13e 61e5 81bd bb8b 973e
00000340: d113 fb3c 45d7 72bd 5af5 923d 9915 de3d
00000350: b4aa 9fbd f003 cf3d d549 723e fb98 b9bd
00000360: 8696 a3be 24ec a1bd aea4 71be aedb a4bb
00000370: 05af 943c fc48 9fbc 4c71 303e 1a6b 923d
00000380: 044b 803d 4e77 92bd 8f29 73bd 0e21 3c3c
00000390: e716 053e 79c1 573b 8387 10be 3cb6 f9bd
000003a0: 8ab2 39bd 776c 8abe 25eb 433d a04d 2abd
000003b0: 8501 85bd 7855 433e d33b 72bc 19c7 d33d
000003c0: 1446 1b3d a871 4fbd 6663 c63d 2957 89be
000003d0: a2ae 103e 8f7a 433e 148f 8dbb fcbf 02be
000003e0: c1fd 883e 5fd9 ed3c a6ea 9b3c 2491 edbd
000003f0: 0630 bcbd a475 08bd 571a 443e 519c 463e
0.19723397 0.031126162 0.043747254 -0.15384746 0.12066866 -0.31482142 -0.0016119279 0.10354867
-0.21262702 0.09437223 -0.20593518 -0.0232818 -0.095838204 -0.061886266 -0.074357025 -0.03158854
-0.043321077 0.025351012 -0.039827928 -0.07915202 -0.005787683 0.008465493 0.16346501 0.14211887
-0.07307034 -0.059203103 0.034857996 -0.057628162 0.009913523 0.066598944 0.19141904 0.006556602
-0.11207118 0.08973429 -0.053360533 0.025428768 0.13508162 -0.008900079 -0.06609258 0.06348761
0.059175193 0.0013779944 -0.05859875 -0.02804918 -0.026316414 0.0636857 0.112485096 -0.14501159
0.026602939 -0.072156616 0.14153525 -0.04729861 -0.2027212 -0.04875888 0.033309147 0.009458781
0.13148348 0.014441702 0.050923396 0.02737403 -0.08007087 -0.19697216 -0.20968696 0.052026484
-0.045744635 -0.09738469 0.011865912 -0.02572456 0.103841215 -0.14542931 0.07132258 0.11593238
0.11493092 -0.016498365 -0.16989815 0.027235301 -0.063569166 -0.17475662 0.04340617 0.117000975
0.056914285 0.00068205845 0.10674325 -0.1437615 0.05455294 0.17231084 0.2438984 -0.10360768
0.08485563 -0.038933106 0.11720214 -0.015503539 0.08966577 0.12905729 0.04319634 0.19608119
0.089827485 -0.13485669 0.119061045 0.100825794 -0.11181479 0.037350804 0.05837802 -0.00742532
0.10401828 -0.11285309 -0.21330376 -0.105556615 0.060728323 -0.067429245 0.006423929 -0.012209216
0.11479894 -0.1425994 0.0674422 -0.11162678 0.05091791 -0.04454965 0.12207901 -0.026459627
-0.01648105 -0.012923062 0.09828292 0.0996295 -0.11344231 -0.029467802 0.06078695 -0.095346466
0.11735848 0.22918126 -0.110863395 0.0038728109 -0.0014284949 -0.047305893 0.040596116 0.06276445
0.02480176 0.13835667 -0.16117631 -0.06719572 0.10856566 0.19954416 0.07526934 -0.106479414
0.19395404 0.07035085 -0.19061558 0.08161803 0.2279445 0.014884285 0.052904263 0.0008313878
-0.04715336 0.120279625 0.016696703 -0.03205239 -0.11151122 -0.05178995 -0.11122058 -0.08276107
0.09129137 0.11959113 -0.19160816 0.17737871 0.11738977 0.06739276 0.03710045 -0.13787347
0.06456233 -0.028292768 -0.00043711928 -0.19418192 0.012512838 0.012536679 -0.19446124 -0.058692396
0.05452679 0.01080752 0.17340873 -0.038935855 -0.16432542 0.035002787 -0.20803145 -0.09852974
-0.009907936 -0.055813253 -0.22056077 0.12210684 -0.00901192 0.0011196289 0.034579985 0.13147853
-0.106406406 0.094455905 0.13266616 -0.039114933 -0.051422413 -0.08321689 -0.01431305 0.010982058
-0.011312963 -0.021023637 0.042184502 0.045793388 -0.027081545 0.34619296 -0.06342579 0.29598793
0.030649098 -0.05928733 0.07175703 0.10843963 -0.07796231 0.10108173 0.23660977 -0.09062382
-0.31950778 -0.079063684 -0.23597977 -0.0050310707 0.018149862 -0.019443981 0.1723072 0.07149334
0.06264308 -0.07151662 -0.059365805 0.01148249 0.12997018 0.0032921715 -0.14114194 -0.121929616
-0.045336284 -0.27035877 0.047831673 -0.041577935 -0.064944305 0.19075572 -0.014784771 0.10340709
0.03790863 -0.0506455 0.096869275 -0.2682431 0.14129117 0.19089721 -0.0043200348 -0.12768549
0.267561 0.029034315 0.019032788 -0.11599949 -0.09188847 -0.033315316 0.19150673 0.19395567

actor.4.bias f4 [128]
00000000: 73d1 09bd 8ab2 7abe 8dfb 13be 18f6 12be
00000010: 5235 37be 0bfe c2bd 2207 7dbc 6fdb b6be
00000020: 8da0 8fbd 9a6b 0dbd b316 4fba 6d47 04be
00000030: f76a a5bd fb0d 16be ac47 02bc edcb ddbc
00000040: 62ab 38be 096a df3d ae3d 4bbe 8790 a23c
00000050: 3615 3dbe a93f 90bd ff91 76bd 0fcf 64bd
00000060: 8000 c3bd d0c9 62be 4d8a 91bd 2bb5 54bd
00000070: 6660 0dbe af6b 34be f470 e8be 4a1d 13be
00000080: 17a3 02be 0108 48be 2779 f8bd 50c0 8cbd
00000090: ecc7 12be dbd4 9ebd b23b 35be 48e2 3fbe
000000a0: f81b 023d 9681 7bbe d7f8 1bbd e6f2 96be
000000b0: 9518 6bbe 0cba b6be 92ee 03be 2848 16be
000000c0: 4ac7 7bbd c813 a3be e3d6 f9bd 26fa fcbd
000000d0: 6b19 0dbd 55a0 66be 0afe 74bd 5aba 62be
000000e0: ac62 fcbd d1ee 1b3c 3efe 6cbd c10e 90be
000000f0: 09eb 76be 3ff4 b1bd a8d8 38be 2c81 acbc
00000100: a98f 9cbe c78b 9bbe d734 42be 2f98 6a3d
00000110: 7329 9cbe ee68 03be 8735 edbd 47c4 b5bd
00000120: f36e 583c aba8 aabd 53aa a8bd 20c6 36be
00000130: a30e 883d 6e07 febd 7054 9bbc dd24 5a3d
00000140: 2f2a 94be 895c 13be a4e6 cebd 6849 cdbd
00000150: 740e f5bd 606e 6ebe 8180 71bd e5af 42be
00000160: d7d4 b63c 656c 17be 0a1a 2cbe 6226 4abc
00000170: a177 033d 7562 c5bd f42b 55be f934 02be
00000180: 06a1 20be 7837 1abe 0caa 873c 62ed aa3d
00000190: d8d4 1abd 389f 0bbe b51f 2dbe 0903 09be
000001a0: 6fb5 28be 0c22 72bd f9c3 37bd 8c76 e2bd
000001b0: a2df 26be 76e4 8cbc 60c6 f4bd 1241 36bc
000001c0: fb7b 2fbd 775c 09bd 0319 cfbd c64f f6bd
000001d0: 08f2 5bbe 1c89 1ebe f2eb 52bd 22b9 fcbc
000001e0: e61f b2bd 1532 a9bc 9c02 dfbd 5543 40be
000001f0: c63c f9bd 01ae a6bd 0098 a8bd 8110 3dbe
-0.033647012 -0.2448217 -0.14451428 -0.1435169 -0.17891434 -0.09521111 -0.015443595 -0.3571429
-0.070130445 -0.034526445 -0.0007899806 -0.12917872 -0.080770425 -0.1465377 -0.007951658 -0.027074778
-0.18034127 0.109088965 -0.19847748 0.019844307 -0.18465123 -0.07043392 -0.060197826 -0.05586153
-0.0952158 -0.22147298 -0.07106457 -0.051930588 -0.13806304 -0.17619203 -0.45398676 -0.14366642
-0.12757526 -0.19534303 -0.12132483 -0.06872618 -0.14334077 -0.07755443 -0.17698553 -0.18738663
0.031764954 -0.24561152 -0.03807911 -0.29482192 -0.22958596 -0.35688818 -0.12883976 -0.14675963
-0.061469354 -0.3185103 -0.121991895 -0.123523995 -0.03444807 -0.225221 -0.059812583 -0.221414
-0.12323508 0.0095173875 -0.05785965 -0.28136256 -0.24113096 -0.08689164 -0.18051398 -0.021057688
-0.30578354 -0.3038008 -0.1896547 0.05727404 -0.30500373 -0.12832996 -0.11582475 -0.088753276
0.013210046 -0.08332952 -0.08235612 -0.17849016 0.06643417 -0.12403761 -0.018961161 0.05325781
-0.28938434 -0.14390768 -0.10102585 -0.10023767 -0.11965647 -0.23284292 -0.05896044 -0.19012411
0.022318287 -0.14787443 -0.16806808 -0.012338253 0.03209651 -0.0963792 -0.20817548 -0.1271552
-0.15686426 -0.15060222 0.016560577 0.083460584 -0.03780064 -0.13634956 -0.16906627 -0.13380064
-0.16475461 -0.0591145 -0.04486463 -0.11057767 -0.16296247 -0.017198782 -0.119518995 -0.011123912
-0.042842846 -0.033535447 -0.101121925 -0.12026934 -0.21479046 -0.1548199 -0.051494546 -0.030849997
-0.086974904 -0.020653764 -0.108891696 -0.18775685 -0.12169795 -0.08138657 -0.08232117 -0.18463327

actor.6.weight f4 [12, 128]
00000000: bfa8 d5bc 103a 0c3c cf20 1dbd f628 08bd
00000010: adde 563b c232 03bd dc2c f83d c8b9 ebbc
00000020: 0588 d3bb 5c49 4bbc 64cf 8a3c f814 9e3d
00000030: 634c 7f3c 74fe 01be f1aa 86bd 48c5 6bbd
00000040: 935a 9e3d b173 f73c 62ae 72bc d971 d53d
00000050: def6 583d 3fbd d73d 0c5b 30bd 5a65 69bc
00000060: d0e4 b7bc 0ba0 1cbe b203 d5bd 5082 cb3c
00000070: 39ee 4b3c 254c efbb c4c3 45bc 3b01 b63b
00000080: 0482 f03b 3061 733d abdb a13c 7093 2e3d
00000090: 7bf2 f8bc e66f b7bc 4869 0b3c c4da 193c
000000a0: c25c 1abd 0930 2f3c 27ee 563d 7963 c4bb
000000b0: 9600 873d 7126 a33b 2686 51bd 35bb 803d
000000c0: 4242 db3d f8de 423a ad42 5cbc 999d 78bd
000000d0: bf5c 08bc f9bb fdbb 0bb2 363c 8926 60bc
000000e0: 3422 c5bd 54d3 123e 1a81 793c ec88 c23c
000000f0: 161c 68bd 171d 6a3d f4e6 d13c a431 a5bd
00000100: 5ab6 213d 0b40 0b3d e083 b3b9 2f07 b63c
00000110: 2c77 43bd dc66 e93c b6b6 05bd cc79 37bc
00000120: 5138 babc 44eb 56bb f2da abbc 905e ec3c
00000130: 4944 06bd 10d0 9ebc 6ca7 803c b4e6 20bd
00000140: d35e 153d d375 8d3d f3cb 3abd 6b8a a13c
00000150: 6489 be3d d4c9 a83b 686b a43b 14ae 9238
00000160: 55b7 4d3d 1a46 5bbb 6a30 e73c 6d0b fdbc
00000170: 85d8 d93b 48ff 23bd b509 9bbb a822 6dbc
00000180: 89de 95bc 6f55 9ebc 1528 853c 037c 03bd
00000190: 63e2 763d b57d 073d 64fe 593c 695c f23d
000001a0: 45ad b43c ad89 77bc 99dd e8bb 401b 0a3d
000001b0: 9217 f83c c328 913c f856 823d d820 563c
000001c0: 3d06 3cbd 501e 803c 23fd 153d 463c 0bbd
000001d0: aaf8 ba3c 9c7a efbb d389 1c3c 37ad 913c
000001e0: 8d28 1cbd 5224 27bd 89b9 21bd beeb a03d
000001f0: 14db 6f3b 8e42 323d f3d1 b9bc ef28 853d
00000200: 2e35 833c a3c6 42bd e533 89bc 4cc6 02bc
00000210: eb37 9dbd 41bf a73c 7ae0 4bba 7a13 cbbc
00000220: 03e4 ad3a afef e5bd a90d 05be 49bf cfbd
00000230: a176 753d 4b53 3a3c 7609 c3bc 4a37 c1bc
00000240: ecf4 143d e3c5 44bb 3154 acbc ea58 59bc
00000250: a23a a23c 6644 a3bc af3b b3bb 6f85 773c
00000260: 97ed 1a3d 28d3 9a3d d410 893c 15c8 9f3d
00000270: ba63 aa3c c432 0bbd d53a 97bd 5878 5839
00000280: 121b 03bd 87ce cebc 2cec 83bd 3a8c a33d
00000290: 8ec9 85bd 2e72 9b3d 45b7 04bd fb76 5e3d
000002a0: 2c5d 40bc e6ab 94bb 0e3e 2e3c 1231 0fbd
000002b0: e716 653d 77bb c5bc 2c66 82bc 4b27 11bd
000002c0: c23a 00bd 162f 0ebe 0164 6fbd c7f0 b23d
000002d0: f5d9 82bd 7edd fabb 044c bbbc 08b2 a9bc
000002e0: 2bff 273e 5f47 003c 9353 73bd 6390 893c
000002f0: a5b4 613d 8051 a6bb f5f6 64bc 59d7 b73d
00000300: 6871 bd3c 0c1c 95bb 3859 e13b 1948 f73c
00000310: 273d 793d b366 3abd 08c9 a53d 2645 853d
00000320: ed0d 7fbd 66b2 323d 908f ef3b 295f b0bb
00000330: e874 9a3b 0eda 7f3c b1c7 633c 8148 8a3b
00000340: 91f2 c3bd 73c4 0b3b 9b12 8bbc f17e a0bd
00000350: 861b a33d 7a94 ae3c e399 41bc 01d7 f63b
00000360: ef69 01be 0972 97bc 6f38 e33c 5ca9 9ebd
00000370: b3e2 49bc 19fe d1bc 574e 8b3d 9adb cc3c
00000380: ed88 3dbc 1f22 fbbd d3ae 22bb a247 533d
00000390: 97df 7abd c41d dfbd a2dd d4bb 65fa ba3b
000003a0: 3a70 9dbc 7dde f9bc e761 453c 12f6 4e3d
000003b0: be0e 443d 350b 5d3b 8cbc 633d eb63 70bc
000003c0: 8b9d 24bd 28a9 1bbd 02e9 3d3d ed81 bf3a
000003d0: 7ccf 0a3d ab4f a4bc 9e43 36bb 0bfe 0d3d
000003e0: 2153 c9bc e867 823d 53af 873c 9ded 92bd
000003f0: 156d 023d 557e 473d 2b9b a93c ba21 03bd
-0.026081441 0.008558765 -0.038361367 -0.03324219 0.0032786534 -0.03203083 0.12117931 -0.02877511
-0.006455424 -0.012407627 0.016944595 0.07718843 0.015582177 -0.12694722 -0.06575573 -0.05756119
0.077321194 0.030206533 -0.014812084 0.10422105 0.052969806 0.10534143 -0.04305558 -0.0142453555
-0.022447973 -0.15295427 -0.104010954 0.024842411 0.012446933 -0.0073027783 -0.0120706 0.005554346
0.007339718 0.059418857 0.019758066 0.042621076 -0.030389061 -0.022392225 0.008508988 0.009390537
-0.037686117 0.010692605 0.052473214 -0.0059933034 0.06591909 0.004978948 -0.051153325 0.06285707
0.10705997 0.00074337376 -0.013443631 -0.06069717 -0.008322894 -0.0077433554 0.011150847 -0.0136810625
-0.09625664 0.14338428 0.015228534 0.02374693 -0.05666741 0.05715665 0.025622822 -0.08066109
0.039480545 0.033996623 -0.00034239795 0.022220222 -0.047721073 0.02849143 -0.03264495 -0.011198472
-0.022731932 -0.0032794038 -0.020978425 0.028853685 -0.032779966 -0.019386321 0.015704833 -0.039282516
0.036467385 0.06907239 -0.045604657 0.019719323 0.09303549 0.005151013 0.0050176866 6.994247e-05
0.050223667 -0.0033458532 0.028221328 -0.030889237 0.0066481256 -0.040038377 -0.004731382 -0.014473595
-0.01829459 -0.019327847 0.016254464 -0.03210069 0.060274493 0.033078868 0.01330528 0.11834032
0.022055278 -0.015108508 -0.0071064946 0.033717394 0.030284677 0.017719632 0.06364244 0.013069354
-0.045904387 0.015639454 0.036618363 -0.033993028 0.02282365 -0.0073083173 0.009554344 0.01778279
-0.03812461 -0.040806122 -0.03948358 0.07857464 0.0036599087 0.043520503 -0.02268312 0.06501948
0.016016569 -0.047552716 -0.016748378 -0.007981848 -0.07676681 0.02047694 -0.0007777285 -0.02478956
0.0013266805 -0.11227357 -0.12993492 -0.101439066 0.059927586 0.011372398 -0.023808222 -0.023585934
0.03636639 -0.0030025176 -0.02103624 -0.013265828 0.019803349 -0.019930076 -0.0054697613 0.015107497
0.03782424 0.07559806 0.016731657 0.078018345 0.020799506 -0.03398396 -0.07384268 0.00020644197
-0.032008238 -0.025244964 -0.064415306 0.079857305 -0.06532584 0.075901374 -0.032401342 0.054312687
-0.011740964 -0.0045370935 0.010634912 -0.034958906 0.055930045 -0.024137242 -0.01591786 -0.035437863
-0.031306036 -0.1388515 -0.05844498 0.08737331 -0.06389228 -0.0076557985 -0.022863396 -0.020714775
0.16405933 0.007829516 -0.059405874 0.016792482 0.055103917 -0.0050756335 -0.013974895 0.08976621
0.023125365 -0.0045504626 0.006877091 0.030185746 0.060849335 -0.045508098 0.08094984 0.0650733
-0.06226914 0.043627165 0.007310815 -0.0053824377 0.0047136433 0.015615953 0.013902591 0.004220069
-0.0956775 0.002132681 -0.016976645 -0.07836712 0.07964234 0.021311034 -0.011816475 0.0075329547
-0.12638067 -0.018486993 0.02773687 -0.077471465 -0.012322116 -0.025633859 0.068020515 0.025007058
-0.01156829 -0.122623675 -0.0024823442 0.051581986 -0.06124839 -0.10894349 -0.0064961473 0.005706119
-0.019218553 -0.030501598 0.0120472675 0.05052764 0.04786562 0.0033728604 0.055599734 -0.01467226
-0.040189307 -0.038003117 0.04636479 0.0014610864 0.03388928 -0.02005752 -0.00278113 0.034666102
-0.024575772 0.06367475 0.016563093 -0.071742274 0.03184231 0.048704464 0.020703873 -0.032014586

actor.6.bias f4 [12]
00000000: 1844 b93c ece2 3e3d 08e5 9eba 252c 853d
00000010: 1359 52be 850b 1bbe 8231 ae3d e78c 94bc
00000020: 27ab 523d 2954 c3bd 7082 f23d 7d33 0d3e
0.022615477 0.04660313 -0.00121227 0.065025605 -0.20541792 -0.15141113 0.085055366 -0.018133594
0.051432755 -0.09537537 0.11841285 0.13789172
